Machine_Learning/Week_11_Prep/MLPW9.pt (torch, 90647 bytes, 6 tensors)

fc1.weight f4 [100, 200]
00000000: 149a 593d 7508 04bd 6423 47bc 5282 253d
00000010: 5a31 60bd b0d6 373c d88c ab3c ed2d 8abd
00000020: d88c 4a3c 624c cabc 81e7 813d e0d8 4a3b
00000030: 8e0d 5b3d fc90 023d 5888 df3c eb51 89bd
00000040: ba35 7a3d 93c0 6cbd b82f fc3c f090 033d
00000050: 00d3 f1b9 5e84 793d 604c 99bc 7af3 2abd
00000060: b4be be3c 8801 81bc 2212 74bd 1ed7 4dbd
00000070: acdb 38bd 30c7 a63c 0e83 4abd 0c18 043d
00000080: 6a02 603d 6e06 ebbc 9ace 233d 801d c23a
00000090: fc9d 383d 6814 12bc 42dd 34bd c0fe 5a3d
000000a0: 961a 32bd b489 863c e60e 253d 48a6 51bd
000000b0: e1a4 83bd ead8 213d 081e 8fbd e92c 58bd
000000c0: d015 fb3c 0433 c2bc ca6f 4c3d f852 7abc
000000d0: 0079 3a3c 5b00 20bd d016 653c 27c1 85bd
000000e0: a941 5cbd 1584 5ebd a05c 083c 1cd4 4dbc
000000f0: 6124 903d a06a 2d3b daa9 793d a223 2cbd
00000100: d0b1 8f3c c4db 46bc 2538 833d 6849 c13c
00000110: e0b9 a63b a228 39bd 5ce7 75bd c4c0 b8bc
00000120: b43d 153d eb9e 1cbd e64e f3bc 4e74 7dbd
00000130: 5998 883d 31dc 823d 87a1 26bd 004c 153b
00000140: 1006 81bb 8068 4d3c 5f38 3cbd d7b1 34bd
00000150: 842a 2abc 64ac 5ebd d005 013c 6c12 14bd
00000160: b8ef 64bd 20aa 64bb 56aa f2bc 9c66 ef3c
00000170: 567f 6b3d 3211 2bbd 9c01 b5bc 6093 4cbc
00000180: f920 8dbd ca76 8cbd d802 e73c d066 96bb
00000190: 5d0f 14bd 0b62 8a3d b451 90bd 36f7 7f3d
000001a0: 7a42 8abd c689 2abd ae89 1e3d a49e 92bc
000001b0: baeb adbc a8aa 45bd 8cf3 b03c 427d 693d
000001c0: 6cc6 bc3c 25c4 8d3d 4801 66bd cb86 6ebd
000001d0: 6b9e 2dbd d0fc eabb 9875 4a3c c0c3 bc3a
000001e0: a0f4 093c c047 3bbd f244 96bc c0c1 bd3b
000001f0: f40d a53c 44f1 42bd 12f2 443d 20d3 b2bb
00000200: ac8c d73c dbd8 823d 96fc 183d 9c86 e43c
00000210: 3ce6 d8bc 2225 4cbd 9483 cb3c fa34 6c3d
00000220: f464 1c3d e04f bd3b 9ecb 6f3d 60d5 cbbc
00000230: 0ad1 e7bc 5c2a fcbc ab75 1abd e0e9 3abb
00000240: 8fdb 8bbd e640 4d3d c0b4 90bd a596 09bd
00000250: 444b e83c b0ec 80bb fa79 eebc 12d5 81bd
00000260: 38e3 2b3d 3539 883d e0d6 af3b b6fb e3bc
00000270: acf2 86bc 0f28 58bd 8ca4 a53c 947b f13c
00000280: 707b 6cbc a35f 0ebd 9a15 173d a4fc 11bc
00000290: 9c96 d53c 8884 663c 9c40 453d 24b3 08bd
000002a0: 8372 81bd 30a5 a83b 0745 73bd 6ed4 86bd
000002b0: f0d5 553d a064 bbbb c446 443d 2225 023d
000002c0: f25e 743d 9868 593c d3ca 833d 0248 efbc
000002d0: 5610 35bd 60b1 6bbb a443 83bc 12a5 293d
000002e0: 0845 1cbc 08d8 053c a3c6 0bbd fe75 60bd
000002f0: 204e d33c abc8 0fbd cb26 863d ad50 843d
00000300: e0c7 7ebd 586f f1bc b46d 33bd 57a7 903d
00000310: 0d7f 14bd 2bc6 883d 22ec 653d 54c0 1fbc
00000320: c0d5 abbc 28aa 543d d4b9 34bc c87a 27bc
00000330: 1802 513c 7d02 87bd 00b6 3bbb 96d5 163d
00000340: 06f4 eebc e08d e3bb 720d 33bd f0da 25bc
00000350: 3030 103d a047 76bb 7ddd 52bd f0c8 7e3c
00000360: 65fc 56bd 5ad3 7e3d 907b e53c f091 c83b
00000370: 7587 62bd b379 8c3d cf21 8cbd 603c 41bb
00000380: d28c 6ebd 338d 6fbd c48a 943c ecb2 433d
00000390: fc93 cf3c b1ab 883d 60b8 babb 9642 52bd
000003a0: f435 853c 8088 c9bb 6841 1c3c 80b0 d7bb
000003b0: b8ea 82bd b89e cebc edc8 883d 16b7 283d
000003c0: 9607 713d b49f 9c3c e2a6 763d 98bd 523c
000003d0: c001 ec3b dc01 18bc d669 eebc 9a86 263d
000003e0: 8e8b 46bd d874 a0bc 8c65 0d3d 80d7 c4bb
000003f0: eece 31bd 1069 4dbc 1081 ec3c c83f c6bc
0.053125456 -0.032234628 -0.012154434 0.040407486 -0.054734565 0.011220619 0.020941183 -0.06747041
0.012362681 -0.024694625 0.06342984 0.0030952021 0.053479724 0.03187655 0.027286693 -0.06705078
0.061086394 -0.05780084 0.030784473 0.032120645 -0.0004612431 0.06091725 -0.018713176 -0.041736104
0.023284294 -0.0157478 -0.059587605 -0.05025398 -0.04513137 0.020358652 -0.04944139 0.032249495
0.054689802 -0.02868959 0.039991952 0.0014809817 0.04507254 -0.008915998 -0.04415632 0.053465605
-0.043482386 0.016423084 0.04029741 -0.05118397 -0.064279325 0.039513506 -0.0698815 -0.052777205
0.03065005 -0.023705967 0.049911298 -0.01527857 0.011381388 -0.03906284 0.01398249 -0.065309815
-0.053773556 -0.054325182 0.008322865 -0.012562778 0.07038189 0.0026461259 0.060953 -0.04202617
0.017540842 -0.012137357 0.06407193 0.023594573 0.005088076 -0.045204766 -0.060035095 -0.022552855
0.036435798 -0.038237493 -0.029700708 -0.061878495 0.06669683 0.063896544 -0.04068139 0.0022780895
-0.0039374903 0.012537122 -0.045952197 -0.044114914 -0.010386113 -0.054363623 0.007874921 -0.03615038
-0.055892676 -0.0034891441 -0.029622238 0.029223733 0.057494484 -0.041764446 -0.022095494 -0.012486309
-0.06891055 -0.06858595 0.028199598 -0.004589893 -0.036147464 0.067569815 -0.07046834 0.062491618
-0.06750961 -0.041635297 0.03870552 -0.017897911 -0.021230567 -0.048258454 0.021600507 0.05700422
0.023043834 0.06922177 -0.056153566 -0.058234017 -0.042387407 -0.007171251 0.012357138 0.00144016
0.00842014 -0.045722723 -0.018343423 0.005790919 0.020148255 -0.04759337 0.04808242 -0.005457297
0.026312195 0.06389018 0.03735026 0.027896218 -0.026476972 -0.0498401 0.024843015 0.05766771
0.038182214 0.005777344 0.058543794 -0.024882019 -0.02829792 -0.030781917 -0.037709873 -0.0028520748
-0.06828987 0.05011072 -0.07065725 -0.03359093 0.028356202 -0.0039344653 -0.029110897 -0.06339468
0.04196474 0.066515364 0.0053661913 -0.027829986 -0.016473137 -0.052772578 0.020220064 0.029477872
-0.014433727 -0.034759175 0.036885835 -0.008910332 0.026072793 0.014069684 0.04815732 -0.033373967
-0.063206695 0.005146645 -0.059392 -0.065834865 0.05220598 -0.0057187825 0.04791905 0.031773694
0.05966086 0.013269566 0.0643517 -0.02920914 -0.044205032 -0.0035963878 -0.016023465 0.04141719
-0.009537943 0.008169182 -0.03412498 -0.054800026 0.025794089 -0.03510348 0.06550368 0.064607
-0.062202334 -0.029472038 -0.043805793 0.070631675 -0.036253978 0.066784225 0.056133397 -0.009750444
-0.020975947 0.051920086 -0.011030633 -0.010222144 0.012756847 -0.065922715 -0.0028642416 0.036824785
-0.029169094 -0.006944403 -0.043713994 -0.010123 0.035202205 -0.0037579313 -0.05148076 0.015550837
-0.052486796 0.06221328 0.02801302 0.0061209127 -0.055304963 0.0685915 -0.06842386 -0.002948545
-0.058239765 -0.058484267 0.018132575 0.047778055 0.02533912 0.066733725 -0.0056982487 -0.051333033
0.016261078 -0.0061503053 0.009537078 -0.0065823197 -0.06392425 -0.025222167 0.066789486 0.04119023
0.058845125 0.019119121 0.060217746 0.0128625855 0.007202357 -0.009277787 -0.0291032 0.04065571
-0.048472933 -0.019586965 0.03452067 -0.006007135 -0.043410234 -0.012537256 0.028870136 -0.024200335

fc1.bias f4 [100]
00000000: d6db 25bd e864 8ebd f547 5abd f93c acbc
00000010: 8c88 1f3e 00ce b13d 34ce 85bd d959 36bd
00000020: e145 abbc 276f 80bd d0e1 23bd a20f efbc
00000030: fb0d 7bbd 1a3c 45bd 8ab3 79bd e4cb 80bd
00000040: 9b2e 21bd 7964 74bd a213 3ebd 7230 25bd
00000050: a0d6 01bd d479 b2bc 8582 4dbd b4b5 a83d
00000060: 869b 6bbd cd7e e03d 949b 4fbd 108d e9bc
00000070: f152 263e 4df0 68bd 3987 be3d 0b12 b43d
00000080: c6aa 42bd 6557 69bd 12b9 4dbd 70ce c3bb
00000090: a5f2 c33d 16ec 803d 4ac1 0abd c87d 0bbc
000000a0: 8db7 20bd 8e81 c1bc 5fb7 9dbd 06fd 9dbc
000000b0: 8e7e 2ebd 0428 c3bc eb7d df3d 9658 553d
000000c0: 5a28 abbd 3370 c53d 16da 27bd 77b5 763c
000000d0: b43b 9bbc d427 17bd 9373 03bd f8df 72bc
000000e0: 7e88 a3bc 0b78 b23d cc24 833c 8017 71bc
000000f0: 8e68 4ebd 00bf 51bd c8f5 17bd 7e11 c43d
00000100: 3ed1 a83d 3a96 d4bc df6c 49bd acd3 86bc
00000110: 3e2a 0cbd 1a70 24be 24c1 83bd d633 51bd
00000120: 5457 8dbd d1c8 8dbb 6984 8c3c 5cbc 3bbc
00000130: 70cd 8dbd 42a4 723d e7b6 43bd 0477 b13d
00000140: cc6b 77bc 3c3d 35bc 68ca b23d d25e 87bd
00000150: ea69 0ebd 307f e8bb a1e9 2b3d 3aa8 bebc
00000160: 0450 0abc ae90 31bd 7a4e 9dbc 39e8 16bd
00000170: b691 e43d b805 45bd 3c4b a9bc a81b bcbc
00000180: 8e39 3cbd a5f5 693d 0140 83bd babe 09bd
-0.040492855 -0.0695284 -0.05329128 -0.021025168 0.15579432 0.086818695 -0.06533471 -0.04451928
-0.020907344 -0.062712006 -0.040010273 -0.029182259 -0.06129263 -0.04815302 -0.060962237 -0.06288889
-0.039351087 -0.05966613 -0.046405442 -0.040329404 -0.031698823 -0.021786608 -0.0501733 0.08237782
-0.057521366 0.10961685 -0.05068548 -0.028509647 0.16242577 -0.056869794 0.093031354 0.08792504
-0.047526143 -0.05696811 -0.050225325 -0.005975537 0.09567765 0.0629503 -0.03387574 -0.008513875
-0.039237548 -0.023621347 -0.07700991 -0.01928569 -0.04260116 -0.023822792 0.10912689 0.052086435
-0.08357306 0.09640541 -0.040979467 0.015057913 -0.018949367 -0.036903217 -0.032092642 -0.014823906
-0.019962545 0.08714303 0.016008757 -0.0147150755 -0.05039268 -0.051207542 -0.03709963 0.09573649
0.08243035 -0.02595054 -0.049176093 -0.016458355 -0.034219973 -0.16058388 -0.06433323 -0.051074825
-0.06901422 -0.0043269177 0.017152982 -0.011458483 -0.0692395 0.05923868 -0.04778185 0.086652786
-0.015101384 -0.011061963 0.08730012 -0.066098824 -0.034768976 -0.00709524 0.041970853 -0.023273576
-0.008441929 -0.043350868 -0.01920246 -0.03684256 0.11160605 -0.048101157 -0.020665757 -0.022962406
-0.045953326 0.05711903 -0.06408692 -0.033629157

fc2.weight f4 [20, 100]
00000000: 23ba 64bd b808 953c 677d 5c3e 0454 fdbc
00000010: 0e90 7fbe f1d6 a03f 4d87 1fbd 33a0 76bd
00000020: 83bf 50be d576 ef3e 30cd c5bd ae11 74bd
00000030: b030 7ebd 5447 81bd 7e0e debd 93ef 77bd
00000040: 5156 ef3e de2c 733d 95be 9bbd 7a5b 7bbd
00000050: bc1d ee3c 0cb2 b1bc 61bb 723e 672c bf3f
00000060: cecc 89bd cd30 ae3d 4a54 ed3d 182c 58bc
00000070: 95a6 90bd 90eb e0bd 20b5 a73e 8863 183f
00000080: 35df a4bd 802b c13b 00de 583b fbe4 9b3d
00000090: 8260 8b3f bf2b c73f 3a32 92bd 68d1 86bc
000000a0: d205 b8bd cd85 acbd e644 80bc 8036 21bc
000000b0: 00d3 453a 9e46 acbd 9ad2 bc3f 57a9 fe3f
000000c0: e5ae 07bd 56c8 073f 223a aabd 6e4d 173f
000000d0: 42fa 663d 7000 4cbc 40d8 12bb 856d 8bbd
000000e0: 0c85 f1bc b1ea 823f 94aa 22bb 6627 063d
000000f0: f632 72be 9298 183e b93e 943d 5f52 9a3d
00000100: 9abb 8a3f 83fe 3abd 8054 cb3b 638b c1bd
00000110: 8dc6 a4bd 8329 413e 80e0 06bd e01b bc3c
00000120: 420d 273d 5af8 733e 2edb ca3e c8f6 c0bc
00000130: 005a 7c3c 7e43 c83f b7aa 7cbd c515 633f
00000140: 272a 78bd 48a2 81bc 62fe 3140 1975 823d
00000150: 4054 09bc e162 b13d 7827 06bd f854 b13c
00000160: a89b 5cbc e149 8d3d b104 873d 2ad3 bbbd
00000170: d516 f63e 0073 29bb 54d3 fb3c c369 9ebd
00000180: 5e64 0f3d 1690 db3f 41e7 a93d 4025 adbd
00000190: 6d05 8c3d 603a b1bd fb42 debc ce1d 8a3d
000001a0: f7cb 4ebe 0f62 36be daa5 39bd 68f0 7fbc
000001b0: 7468 693c 919c 663b 913a b53d 0331 0abd
000001c0: 10ef 313c 97b9 65bd 3070 24bc d455 cbbc
000001d0: 7224 e43d 8620 723d d6df 13bd 7064 403c
000001e0: 969e 8dbd 90df 1fbc 8fce cabb d7d5 99be
000001f0: b1fa a33d d48d acbe e190 873d 2a39 7dbd
00000200: b875 81be 36b0 a4bd 8429 4abe 7bfb 7bbe
00000210: cddb 6abd 0020 65bb 41ca 843d aa12 42bd
00000220: 0ea0 32be bec2 70be 3101 9a3d e8bf 81bd
00000230: 28a1 b1bc 176a ad3d c2fe 94bd 3b8d aa3d
00000240: e510 bdbd f46e e9bc e8f9 0bbe 7376 b3be
00000250: 3e5f 3f3d cf2d 8abe 689d f7bc 51dd 4abd
00000260: 79eb a33d 45de 8bbd 605b e6bc 20ec 8a3b
00000270: 6041 98bc a3f2 27be 7ca4 a6bd 38bc 983c
00000280: d7fb 5cbd 111d 0abe 72d2 633d 7a9d 0dbe
00000290: 59a1 6abe 225c 403d 4abb 38bd c7ae 7dbd
000002a0: 3139 a23d 90d2 a9bc 8cb8 02bd 60a8 73bb
000002b0: 1a51 67bd ce8d 7b3d 3ee2 6dbe 00d6 5d39
000002c0: bedb 023d 6462 aabe f0bb 3e3c a7ef 8abe
000002d0: 509d 3bbc c468 cf3c 3050 42be 45c6 8c3d
000002e0: 202b 853b 02dc 183d 4623 60be 94f6 d73c
000002f0: f7c1 933d a8de 9cbc 78c9 89bd 105c 65bd
00000300: fa7c 8fbe cf1a b9bd 00c4 1ebd a618 443d
00000310: 1d47 9ebd 5422 79be 95e8 ae3d c0fe f4ba
00000320: 101c 61bd ce1e 763d 79c5 003f 1d97 ccbf
00000330: 569c 873f f607 383f eac2 aabd b017 1ebd
00000340: a120 c7bf bc0b f8bf 7351 923d 5cc9 0c3f
00000350: 5748 6fbd bd13 3dbd 4861 3abd 28ba 95bd
00000360: f00e 27c0 de96 00c0 e831 3d3a 22c8 7c3d
00000370: 66cd 403d eac1 0dbd fa91 f3bf dfb5 343f
00000380: 90de 86bd e6f5 563f aa2a 0ac0 2ae2 2dbd
00000390: 8fc8 7f3f 3c8b 33bd 7b5e 583f 4c95 433f
000003a0: 52c9 033d 74a2 bebc b817 c7bd 02ae 313d
000003b0: 74b2 463f 901e 293f d667 abbd 0833 a0bd
000003c0: ef08 c43c cddc c03d 3956 bc3d bcdd e43c
000003d0: 68fd 0a3c 5ee2 a7bd d3e8 8abe 207b 1a3f
000003e0: 1c73 053d 846e 463f c245 653d 9d06 25c0
000003f0: d3d3 2bbd 5a31 4bbd 8230 253d 0d30 5dbd
-0.055841576 0.018192634 0.21532212 -0.03092385 -0.24957296 1.2565595 -0.038947392 -0.06021137
-0.20385556 0.4677035 -0.09658277 -0.059587173 -0.06205815 -0.06312433 -0.10842608 -0.06053121
0.46745542 0.05936896 -0.0760471 -0.061366536 0.029066913 -0.021691345 0.23704292 1.4935426
-0.067285165 0.08505402 0.115883425 -0.0131941065 -0.07063023 -0.1098243 0.32755375 0.5952687
-0.08050386 0.005895078 0.0033091307 0.07612034 1.0888827 1.5560225 -0.07138486 -0.016457275
-0.08985485 -0.08423958 -0.015657853 -0.009839654 0.0007546395 -0.08411907 1.475177 1.9895428
-0.033125777 0.53040063 -0.08311869 0.59102523 0.05639101 -0.012451276 -0.0022406727 -0.068079986
-0.029482387 1.0227872 -0.002482091 0.032752417 -0.23652253 0.14901951 0.07238526 0.07535242
1.0838501 -0.045652878 0.0062051415 -0.09450414 -0.08045683 0.18863492 -0.032928944 0.02296251
0.040784128 0.23825207 0.39620346 -0.023555174 0.015402317 1.5645597 -0.061686244 0.8870509
-0.060587075 -0.015824452 2.7811513 0.06369991 -0.008381903 0.08661438 -0.032752484 0.021646962
-0.013464846 0.06898857 0.06592692 -0.09171136 0.48064294 -0.00258559 0.030740418 -0.07735016
0.035007827 1.7153347 0.08296061 -0.084543705 0.068369724 -0.08653712 -0.027131548 0.06743966
-0.20194994 -0.17810844 -0.045324184 -0.015621282 0.014246095 0.0035188536 0.08849061 -0.033738147
0.01086022 -0.056085195 -0.010036513 -0.0248212 0.11139764 0.059113048 -0.03610214 0.011742696
-0.069150135 -0.009757891 -0.0061891745 -0.3004596 0.080068 -0.33701956 0.0661943 -0.061822094
-0.25285125 -0.08041422 -0.197424 -0.24607651 -0.057338525 -0.00349617 0.06483889 -0.04738108
-0.17443869 -0.23511788 0.075197585 -0.06335431 -0.02168329 0.08467501 -0.07275154 0.08327719
-0.09231738 -0.02849529 -0.1366955 -0.35051307 0.04672169 -0.26988074 -0.030226424 -0.04952747
0.08003897 -0.06829504 -0.028119743 0.004239574 -0.01858586 -0.16401152 -0.08136842 0.018644437
-0.05395111 -0.1348765 0.05562062 -0.13829604 -0.22913112 0.046962865 -0.045100488 -0.06193426
0.07921065 -0.020730287 -0.03191428 -0.0037179217 -0.05647383 0.061414532 -0.23230836 0.00021155924
0.031947844 -0.3327819 0.0116414875 -0.27135965 -0.01145108 0.02531851 -0.18975902 0.068737544
0.004063979 0.03731919 -0.21888456 0.026362695 0.0721473 -0.01914914 -0.0672788 -0.055996
-0.28025037 -0.090383165 -0.03876114 0.04787507 -0.077284075 -0.24329501 0.08540455 -0.0018691644
-0.054958403 0.06008797 0.5030132 -1.5983616 1.0594585 0.7188715 -0.08337958 -0.03859681
-1.5556833 -1.9378581 0.071444415 0.5499475 -0.058418598 -0.046161402 -0.04550293 -0.07310897
-2.6102867 -2.0092082 0.00072172144 0.0617143 0.047070883 -0.03460876 -1.9028924 0.70590013
-0.06585419 0.8396896 -2.158854 -0.042452015 0.99915403 -0.043833956 0.84519166 0.76399684
0.032174416 -0.023270823 -0.09721321 0.043378837 0.7761605 0.6606226 -0.083694145 -0.078222334
0.023930041 0.094171144 0.09196133 0.027937762 0.008483268 -0.08197473 -0.27130756 0.60344124
0.03258048 0.77512383 0.05597473 -2.5785286 -0.04195006 -0.049607612 0.040329464 -0.054000903

fc2.bias f4 [20]
00000000: 70e8 cabe 3562 99be 2f2b 063f 9708 77bd
00000010: 375a 9b3e 376f 5fbd da00 e5be 97b1 55bd
00000020: c4d2 d53e f0e5 c7bd 3c05 7a3e f24a bcbd
00000030: 38ff a13e abd1 b9be c254 6d3e 3d38 543e
00000040: 6b19 babd c34f a7be 84b9 103f 5478 693f
-0.3963046 -0.2995774 0.5240964 -0.060310926 0.30342266 -0.054549422 -0.44727212 -0.052171316
0.41762364 -0.09760654 0.2441606 -0.09193982 0.3164003 -0.36292776 0.23176864 0.20724578
-0.09086879 -0.3267804 0.56533074 0.9119923

out.weight f4 [3, 20]
00000000: a68b c83e 356b c23d ce3a 22bf 278f f33f
00000010: 9588 9b3f 52bd 343e 83f6 203e e56f 7e3d
00000020: 0f86 35bf 9074 a43d 5eb2 1940 d701 e0bf
00000030: 51b9 a43f 22b7 b13d 515d 41c0 0a34 43c0
00000040: 60a6 41be 0e46 f93c 24c0 bd3f 528a 6abf
00000050: 0ada 1cc0 407c a8bd 47bc 543f 185e c13e
00000060: ec9b 443f 9037 4b3c 9d17 2fc0 1328 3b3b
00000070: 8a06 373f 28bf 0f3e ae2a 843f 41a2 3040
00000080: 777b 783f f12c 18c0 3900 3540 355e 2340
00000090: 852a 2bbe cb51 1ec0 e46d b93f 4151 eb3f
000000a0: 5ebb 883e 14b1 efbe 8a05 6f3f 1d8d 0fc0
000000b0: c051 27c0 80dd de3a 6cbb fd3e 0045 7abe
000000c0: c905 933f b815 3bbe d227 60c0 6749 56be
000000d0: ae82 1ac0 2a7e 1d3f b644 f2be e126 96be
000000e0: 4c8c 23bd 85a4 373f af9c 84c0 8413 8f3f
0.39169043 0.09493104 -0.6337098 1.9028062 1.2151057 0.17650345 0.15719037 0.06211843
-0.7090768 0.08030045 2.4015117 -1.7500561 1.2869054 0.08677508 -3.0213206 -3.0500512
-0.18911123 0.030428912 1.4824262 -0.9161731 -2.450808 -0.08226824 0.8309979 0.377671
0.7680042 0.012403384 -2.7358162 0.0028557822 0.7149435 0.14037764 1.0325525 2.7599032
0.9706339 -2.377743 2.8281386 2.552625 -0.16715439 -2.4737422 1.4486661 1.8384172
0.2670545 -0.46814787 0.93367827 -2.2429879 -2.6143646 0.0017003268 0.49557054 -0.24440384
1.148614 -0.18270004 -3.5024304 -0.20926438 -2.414226 0.61520636 -0.47318047 -0.29326537
-0.03992872 0.7173541 -4.1441264 1.1177831

out.bias f4 [3]
00000000: e656 30bf 4999 0c40 c61a 7c3e
-0.68882596 2.1968558 0.24619588
