Machine_Learning/Week_11_Prep/MLPW9.pt (torch, 90647 bytes, 6 tensors)

fc1.weight f4 [100, 200]
0.053125456 -0.032234628 -0.012154434 0.040407486 -0.054734565 0.011220619 0.020941183 -0.06747041
0.012362681 -0.024694625 0.06342984 0.0030952021 0.053479724 0.03187655 0.027286693 -0.06705078
0.061086394 -0.05780084 0.030784473 0.032120645 -0.0004612431 0.06091725 -0.018713176 -0.041736104
0.023284294 -0.0157478 -0.059587605 -0.05025398 -0.04513137 0.020358652 -0.04944139 0.032249495
0.054689802 -0.02868959 0.039991952 0.0014809817 0.04507254 -0.008915998 -0.04415632 0.053465605
-0.043482386 0.016423084 0.04029741 -0.05118397 -0.064279325 0.039513506 -0.0698815 -0.052777205
0.03065005 -0.023705967 0.049911298 -0.01527857 0.011381388 -0.03906284 0.01398249 -0.065309815
-0.053773556 -0.054325182 0.008322865 -0.012562778 0.07038189 0.0026461259 0.060953 -0.04202617
0.017540842 -0.012137357 0.06407193 0.023594573 0.005088076 -0.045204766 -0.060035095 -0.022552855
0.036435798 -0.038237493 -0.029700708 -0.061878495 0.06669683 0.063896544 -0.04068139 0.0022780895
-0.0039374903 0.012537122 -0.045952197 -0.044114914 -0.010386113 -0.054363623 0.007874921 -0.03615038
-0.055892676 -0.0034891441 -0.029622238 0.029223733 0.057494484 -0.041764446 -0.022095494 -0.012486309
-0.06891055 -0.06858595 0.028199598 -0.004589893 -0.036147464 0.067569815 -0.07046834 0.062491618
-0.06750961 -0.041635297 0.03870552 -0.017897911 -0.021230567 -0.048258454 0.021600507 0.05700422
0.023043834 0.06922177 -0.056153566 -0.058234017 -0.042387407 -0.007171251 0.012357138 0.00144016
0.00842014 -0.045722723 -0.018343423 0.005790919 0.020148255 -0.04759337 0.04808242 -0.005457297
0.026312195 0.06389018 0.03735026 0.027896218 -0.026476972 -0.0498401 0.024843015 0.05766771
0.038182214 0.005777344 0.058543794 -0.024882019 -0.02829792 -0.030781917 -0.037709873 -0.0028520748
-0.06828987 0.05011072 -0.07065725 -0.03359093 0.028356202 -0.0039344653 -0.029110897 -0.06339468
0.04196474 0.066515364 0.0053661913 -0.027829986 -0.016473137 -0.052772578 0.020220064 0.029477872
-0.014433727 -0.034759175 0.036885835 -0.008910332 0.026072793 0.014069684 0.04815732 -0.033373967
-0.063206695 0.005146645 -0.059392 -0.065834865 0.05220598 -0.0057187825 0.04791905 0.031773694
0.05966086 0.013269566 0.0643517 -0.02920914 -0.044205032 -0.0035963878 -0.016023465 0.04141719
-0.009537943 0.008169182 -0.03412498 -0.054800026 0.025794089 -0.03510348 0.06550368 0.064607
-0.062202334 -0.029472038 -0.043805793 0.070631675 -0.036253978 0.066784225 0.056133397 -0.009750444
-0.020975947 0.051920086 -0.011030633 -0.010222144 0.012756847 -0.065922715 -0.0028642416 0.036824785
-0.029169094 -0.006944403 -0.043713994 -0.010123 0.035202205 -0.0037579313 -0.05148076 0.015550837
-0.052486796 0.06221328 0.02801302 0.0061209127 -0.055304963 0.0685915 -0.06842386 -0.002948545
-0.058239765 -0.058484267 0.018132575 0.047778055 0.02533912 0.066733725 -0.0056982487 -0.051333033
0.016261078 -0.0061503053 0.009537078 -0.0065823197 -0.06392425 -0.025222167 0.066789486 0.04119023
0.058845125 0.019119121 0.060217746 0.0128625855 0.007202357 -0.009277787 -0.0291032 0.04065571
-0.048472933 -0.019586965 0.03452067 -0.006007135 -0.043410234 -0.012537256 0.028870136 -0.024200335
00000000: 149a 593d 7508 04bd 6423 47bc 5282 253d
00000010: 5a31 60bd b0d6 373c d88c ab3c ed2d 8abd
00000020: d88c 4a3c 624c cabc 81e7 813d e0d8 4a3b
00000030: 8e0d 5b3d fc90 023d 5888 df3c eb51 89bd
00000040: ba35 7a3d 93c0 6cbd b82f fc3c f090 033d
00000050: 00d3 f1b9 5e84 793d 604c 99bc 7af3 2abd
00000060: b4be be3c 8801 81bc 2212 74bd 1ed7 4dbd
00000070: acdb 38bd 30c7 a63c 0e83 4abd 0c18 043d
00000080: 6a02 603d 6e06 ebbc 9ace 233d 801d c23a
00000090: fc9d 383d 6814 12bc 42dd 34bd c0fe 5a3d
000000a0: 961a 32bd b489 863c e60e 253d 48a6 51bd
000000b0: e1a4 83bd ead8 213d 081e 8fbd e92c 58bd
000000c0: d015 fb3c 0433 c2bc ca6f 4c3d f852 7abc
000000d0: 0079 3a3c 5b00 20bd d016 653c 27c1 85bd
000000e0: a941 5cbd 1584 5ebd a05c 083c 1cd4 4dbc
000000f0: 6124 903d a06a 2d3b daa9 793d a223 2cbd
00000100: d0b1 8f3c c4db 46bc 2538 833d 6849 c13c
00000110: e0b9 a63b a228 39bd 5ce7 75bd c4c0 b8bc
00000120: b43d 153d eb9e 1cbd e64e f3bc 4e74 7dbd
00000130: 5998 883d 31dc 823d 87a1 26bd 004c 153b
00000140: 1006 81bb 8068 4d3c 5f38 3cbd d7b1 34bd
00000150: 842a 2abc 64ac 5ebd d005 013c 6c12 14bd
00000160: b8ef 64bd 20aa 64bb 56aa f2bc 9c66 ef3c
00000170: 567f 6b3d 3211 2bbd 9c01 b5bc 6093 4cbc
00000180: f920 8dbd ca76 8cbd d802 e73c d066 96bb
00000190: 5d0f 14bd 0b62 8a3d b451 90bd 36f7 7f3d
000001a0: 7a42 8abd c689 2abd ae89 1e3d a49e 92bc
000001b0: baeb adbc a8aa 45bd 8cf3 b03c 427d 693d
000001c0: 6cc6 bc3c 25c4 8d3d 4801 66bd cb86 6ebd
000001d0: 6b9e 2dbd d0fc eabb 9875 4a3c c0c3 bc3a
000001e0: a0f4 093c c047 3bbd f244 96bc c0c1 bd3b
000001f0: f40d a53c 44f1 42bd 12f2 443d 20d3 b2bb
00000200: ac8c d73c dbd8 823d 96fc 183d 9c86 e43c
00000210: 3ce6 d8bc 2225 4cbd 9483 cb3c fa34 6c3d
00000220: f464 1c3d e04f bd3b 9ecb 6f3d 60d5 cbbc
00000230: 0ad1 e7bc 5c2a fcbc ab75 1abd e0e9 3abb
00000240: 8fdb 8bbd e640 4d3d c0b4 90bd a596 09bd
00000250: 444b e83c b0ec 80bb fa79 eebc 12d5 81bd
00000260: 38e3 2b3d 3539 883d e0d6 af3b b6fb e3bc
00000270: acf2 86bc 0f28 58bd 8ca4 a53c 947b f13c
00000280: 707b 6cbc a35f 0ebd 9a15 173d a4fc 11bc
00000290: 9c96 d53c 8884 663c 9c40 453d 24b3 08bd
000002a0: 8372 81bd 30a5 a83b 0745 73bd 6ed4 86bd
000002b0: f0d5 553d a064 bbbb c446 443d 2225 023d
000002c0: f25e 743d 9868 593c d3ca 833d 0248 efbc
000002d0: 5610 35bd 60b1 6bbb a443 83bc 12a5 293d
000002e0: 0845 1cbc 08d8 053c a3c6 0bbd fe75 60bd
000002f0: 204e d33c abc8 0fbd cb26 863d ad50 843d
00000300: e0c7 7ebd 586f f1bc b46d 33bd 57a7 903d
00000310: 0d7f 14bd 2bc6 883d 22ec 653d 54c0 1fbc
00000320: c0d5 abbc 28aa 543d d4b9 34bc c87a 27bc
00000330: 1802 513c 7d02 87bd 00b6 3bbb 96d5 163d
00000340: 06f4 eebc e08d e3bb 720d 33bd f0da 25bc
00000350: 3030 103d a047 76bb 7ddd 52bd f0c8 7e3c
00000360: 65fc 56bd 5ad3 7e3d 907b e53c f091 c83b
00000370: 7587 62bd b379 8c3d cf21 8cbd 603c 41bb
00000380: d28c 6ebd 338d 6fbd c48a 943c ecb2 433d
00000390: fc93 cf3c b1ab 883d 60b8 babb 9642 52bd
000003a0: f435 853c 8088 c9bb 6841 1c3c 80b0 d7bb
000003b0: b8ea 82bd b89e cebc edc8 883d 16b7 283d
000003c0: 9607 713d b49f 9c3c e2a6 763d 98bd 523c
000003d0: c001 ec3b dc01 18bc d669 eebc 9a86 263d
000003e0: 8e8b 46bd d874 a0bc 8c65 0d3d 80d7 c4bb
000003f0: eece 31bd 1069 4dbc 1081 ec3c c83f c6bc

fc1.bias f4 [100]
-0.040492855 -0.0695284 0.18973245 -0.005775422 0.10607833 0.08044142 -0.06533471 -0.04451928
0.12205804 0.02410337 -0.040010273 0.15143062 -0.06129263 -0.04815302 -0.060961396 -0.06288888
0.21237975 0.040609226 -0.06017703 -0.040329404 -0.031698823 -0.021786608 -0.005746865 0.103803925
-0.057521366 0.09013135 -0.028261784 -0.028509647 0.10719653 -0.05702031 0.08913272 0.08901089
-0.047526143 -0.05696811 -0.050225325 -0.005975537 0.10386437 0.08174666 -0.03387574 -0.008513875
-0.026264874 -0.023621347 -0.0703254 -0.01928569 -0.04260116 -0.023822792 0.15834603 0.08229101
0.14047597 0.10091944 -0.040979467 0.007690548 -0.018949367 -0.036903217 -0.032092642 -0.014823906
-0.019962545 0.09441651 0.10943322 -0.0147150755 -0.019686257 0.02113939 -0.03709963 0.08319556
0.094414964 -0.02595054 -0.049176093 -0.016458355 -0.034219973 0.1397581 0.09952039 -0.051074825
-0.06901422 0.14499016 0.12615463 -0.011458483 -0.0692395 0.09367689 -0.04778185 0.083976366
-0.015101384 -0.011061963 0.10355875 -0.066098824 -0.034768976 -0.00709524 -0.020809205 -0.023273576
-0.008441929 -0.043350868 -0.01920246 -0.03684256 0.10758901 -0.048101157 -0.020665757 -0.022962406
-0.045953326 0.1966399 -0.06408692 -0.033629157
00000000: d6db 25bd e864 8ebd 3949 423e c03f bdbb
00000010: 983f d93d 79be a43d 34ce 85bd d959 36bd
00000020: 91f9 f93d 6e74 c53c d0e1 23bd a110 1b3e
00000030: fb0d 7bbd 1a3c 45bd a8b2 79bd e3cb 80bd
00000040: 147a 593e dc55 263d 307c 76bd 7230 25bd
00000050: a0d6 01bd d479 b2bc 3350 bcbb 2797 d43d
00000060: 869b 6bbd c996 b83d 4285 e7bc 108d e9bc
00000070: db89 db3d 218e 69bd 378b b63d 574b b63d
00000080: c6aa 42bd 6557 69bd 12b9 4dbd 70ce c3bb
00000090: d8b6 d43d cb6a a73d 4ac1 0abd c87d 0bbc
000000a0: 6f29 d7bc 8e81 c1bc c306 90bd 06fd 9dbc
000000b0: 8e7e 2ebd 0428 c3bc 7625 223e 3088 a83d
000000c0: efd8 0f3e daae ce3d 16da 27bd fe00 fc3b
000000d0: b43b 9bbc d427 17bd 9373 03bd f8df 72bc
000000e0: 7e88 a3bc 715d c13d 861e e03d 8017 71bc
000000f0: 1345 a1bc 842c ad3c c8f5 17bd 6f62 aa3d
00000100: a25c c13d 3a96 d4bc df6c 49bd acd3 86bc
00000110: 3e2a 0cbd bf1c 0f3e 59d1 cb3d d633 51bd
00000120: 5457 8dbd 4d78 143e ae2e 013e 5cbc 3bbc
00000130: 70cd 8dbd abd9 bf3d e7b6 43bd cdfb ab3d
00000140: cc6b 77bc 3c3d 35bc 9c16 d43d d25e 87bd
00000150: ea69 0ebd 307f e8bb 1178 aabc 3aa8 bebc
00000160: 0450 0abc ae90 31bd 7a4e 9dbc 39e8 16bd
00000170: a057 dc3d b805 45bd 3c4b a9bc a81b bcbc
00000180: 8e39 3cbd f85b 493e 0140 83bd babe 09bd

fc2.weight f4 [20, 100]
-0.055841576 0.018192634 0.14897475 0.3531753 -0.23537458 0.25524953 -0.038947392 -0.06021137
0.3676142 0.43426105 -0.09658277 0.085061684 -0.06205815 -0.06312433 -0.108417965 -0.060534433
-1.0895692 0.10324198 -0.10838033 -0.061366536 0.029066913 -0.021691345 0.30913073 0.3338729
-0.067285165 0.41872403 0.89045274 -0.0131941065 -0.22316548 -0.10957595 0.025950277 0.27754158
-0.08050386 0.005895078 0.0033091307 0.07612034 0.036850158 0.4987208 -0.07138486 -0.016457275
-0.090028346 -0.08423958 0.020476578 -0.009839654 0.0007546395 -0.08411907 0.9794421 1.4489319
-0.43808576 0.21352781 -0.08311869 0.029501965 0.05639101 -0.012451276 -0.0022406727 -0.068079986
-0.029482387 0.46661106 0.3855948 0.032752417 0.61002344 -0.16262846 0.07238526 0.096322805
0.23608637 -0.045652878 0.0062051415 -0.09450414 -0.08045683 0.3196906 0.21529393 0.02296251
0.040784128 0.4429791 0.56721604 -0.023555174 0.015402317 0.36620736 -0.061686244 0.29602525
-0.060587075 -0.015824452 0.35663757 0.06369991 -0.008381903 0.08661438 0.31266147 0.021646962
-0.013464846 0.06898857 0.06592692 -0.09171136 -0.18996944 -0.00258559 0.030740418 -0.07735016
0.035007827 0.9199126 0.08296061 -0.084543705 0.068369724 -0.08653712 -0.25621808 -0.05453661
-0.195668 -0.1304211 -0.045324184 -0.015621282 -0.18479086 -0.10009269 0.08849061 -0.27462053
0.01086022 -0.056085195 -0.010036513 -0.0248212 -0.097483896 -0.17748003 -0.03610214 0.011742696
-0.069150135 -0.009757891 -0.13627559 -0.24427807 0.080068 -0.2884989 -0.110856764 -0.061822094
-0.25385615 -0.08041422 -0.16974063 -0.20186478 -0.057338525 -0.00349617 0.06483889 -0.04738108
-0.13644491 -0.17217673 0.075197585 -0.06335431 -0.02168329 0.08467501 -0.07275154 0.08327719
-0.09231738 -0.02849529 -0.12466264 -0.27860683 -0.1502634 -0.21535635 -0.030226424 0.031968288
0.08003897 -0.06829504 -0.028119743 0.004239574 -0.01858586 -0.12164859 -0.10377628 0.018644437
-0.2534548 -0.2432583 0.05562062 -0.12188582 -0.18041995 0.046962865 -0.045100488 -0.06193426
0.07921065 -0.27935547 -0.24329877 -0.0037179217 -0.05647383 -0.1355301 -0.29200426 0.00021155924
0.031947844 -0.2666076 0.0116414875 -0.22783814 -0.01145108 0.02531851 -0.29031038 0.068737544
0.004063979 0.03731919 -0.15023164 0.026362695 0.0721473 -0.01914914 -0.0672788 -0.055996
-0.25630593 -0.090383165 -0.03876114 0.04787507 -0.077284075 -0.26755387 0.08540455 -0.0018691644
-0.054958403 0.06008797 -0.20842929 -4.0370855 0.81789804 0.5694833 -0.08337958 -0.03859681
-0.42080364 -1.323239 0.071444415 -0.20790726 -0.058418598 -0.046161402 -0.045457315 -0.07311209
-0.15514664 -0.74066955 -0.012780863 0.0617143 0.047070883 -0.03460876 -1.4762847 0.66743845
-0.06585419 0.6071967 -3.0202918 -0.042452015 0.9662574 -0.1018111 0.7429371 0.6496871
0.032174416 -0.023270823 -0.09721321 0.043378837 0.82467383 0.397901 -0.083694145 -0.078222334
0.025218487 0.094171144 0.10289078 0.027937762 0.008483268 -0.08197473 -0.2497573 0.12085776
3.156348 0.68863976 0.05597473 -3.9414036 -0.04195006 -0.049607612 0.040329464 -0.054000903
00000000: 23ba 64bd b808 953c d68c 183e 65d3 b43e
00000010: 0906 71be 11b0 823e 4d87 1fbd 33a0 76bd
00000020: ee37 bc3e 7757 de3e 30cd c5bd d234 ae3d
00000030: b030 7ebd 5447 81bd 3d0a debd f4f2 77bd
00000040: 0177 8bbf 8870 d33d 82f6 ddbd 7a5b 7bbd
00000050: bc1d ee3c 0cb2 b1bc 6246 9e3e 64f1 aa3e
00000060: cecc 89bd ff62 d63e b6f4 633f 182c 58bc
00000070: 7e85 64be 5b69 e0bd ad95 d43c ee19 8e3e
00000080: 35df a4bd 802b c13b 00de 583b fbe4 9b3d
00000090: 31f0 163d 5558 ff3e 3a32 92bd 68d1 86bc
000000a0: c860 b8bd cd85 acbd 7fbe a73c 8036 21bc
000000b0: 00d3 453a 9e46 acbd b8bc 7a3f 9a76 b93f
000000c0: c74c e0be 09a7 5a3e 223a aabd 1bae f13c
000000d0: 42fa 663d 7000 4cbc 40d8 12bb 856d 8bbd
000000e0: 0c85 f1bc a5e7 ee3e ae6c c53e 6627 063d
000000f0: 7f2a 1c3f 1388 26be b93e 943d e444 c53d
00000100: a0c0 713e 83fe 3abd 8054 cb3b 638b c1bd
00000110: 8dc6 a4bd 7cae a33e 0376 5c3e e01b bc3c
00000120: 420d 273d 28ce e23e 1235 113f c8f6 c0bc
00000130: 005a 7c3c 887f bb3e b7aa 7cbd 9f90 973e
00000140: 272a 78bd 48a2 81bc 3399 b63e 1975 823d
00000150: 4054 09bc e162 b13d 2a15 a03e f854 b13c
00000160: a89b 5cbc e149 8d3d b104 873d 2ad3 bbbd
00000170: 5987 42be 0073 29bb 54d3 fb3c c369 9ebd
00000180: 5e64 0f3d 647f 6b3f 41e7 a93d 4025 adbd
00000190: 6d05 8c3d 603a b1bd 042f 83be c861 5fbd
000001a0: 315d 48be 1c8d 05be daa5 39bd 68f0 7fbc
000001b0: d139 3dbe 65fd ccbd 913a b53d 109b 8cbe
000001c0: 10ef 313c 97b9 65bd 3070 24bc d455 cbbc
000001d0: a3a5 c7bd 53bd 35be d6df 13bd 7064 403c
000001e0: 969e 8dbd 90df 1fbc d48b 0bbe 0824 7abe
000001f0: b1fa a33d 21b6 93be df08 e3bd 2a39 7dbd
00000200: 6ff9 81be 36b0 a4bd 7dd0 2dbe a4b5 4ebe
00000210: cddb 6abd 0020 65bb 41ca 843d aa12 42bd
00000220: 37b8 0bbe 194f 30be 3101 9a3d e8bf 81bd
00000230: 28a1 b1bc 176a ad3d c2fe 94bd 3b8d aa3d
00000240: e510 bdbd f46e e9bc 204f ffbd 8ea5 8ebe
00000250: a6de 19be 6086 5cbe 689d f7bc 2ef1 023d
00000260: 79eb a33d 45de 8bbd 605b e6bc 20ec 8a3b
00000270: 6041 98bc e522 f9bd a988 d4bd 38bc 983c
00000280: d4c4 81be b418 79be 72d2 633d 469f f9bd
00000290: 02c0 38be 225c 403d 4abb 38bd c7ae 7dbd
000002a0: 3139 a23d ae07 8fbe 5023 79be 60a8 73bb
000002b0: 1a51 67bd 67c8 0abe 9581 95be 00d6 5d39
000002c0: bedb 023d cb80 88be f0bb 3e3c 674e 69be
000002d0: 509d 3bbc c468 cf3c 90a3 94be 45c6 8c3d
000002e0: 202b 853b 02dc 183d 53d6 19be 94f6 d73c
000002f0: f7c1 933d a8de 9cbc 78c9 89bd 105c 65bd
00000300: 883a 83be cf1a b9bd 00c4 1ebd a618 443d
00000310: 1d47 9ebd d2fc 88be 95e8 ae3d c0fe f4ba
00000320: 101c 61bd ce1e 763d 7d6e 55be ce2f 81c0
00000330: c461 513f a8c9 113f eac2 aabd b017 1ebd
00000340: 9373 d7be e55f a9bf 7351 923d a4e5 54be
00000350: 5748 6fbd bd13 3dbd 7331 3abd cbbb 95bd
00000360: c3de 1ebe 859c 3dbf d366 51bc 22c8 7c3d
00000370: 66cd 403d eac1 0dbd e6f6 bcbf 3fdd 2a3f
00000380: 90de 86bd 3e71 1b3f 764c 41c0 2ae2 2dbd
00000390: a55c 773f 5782 d0bd 2031 3e3f e551 263f
000003a0: 52c9 033d 74a2 bebc b817 c7bd 02ae 313d
000003b0: d31d 533f aeb9 cb3e d667 abbd 0833 a0bd
000003c0: 0097 ce3c cddc c03d 67b8 d23d bcdd e43c
000003d0: 68fd 0a3c 5ee2 a7bd 61c0 7fbe 4684 f73d
000003e0: 9b01 4a40 b24a 303f c245 653d f53f 7cc0
000003f0: d3d3 2bbd 5a31 4bbd 8230 253d 0d30 5dbd

fc2.bias f4 [20]
0.061114885 -0.24902764 0.31257734 -0.0123657035 0.3021479 -0.054549396 0.12446413 -0.019623594
0.23407106 -0.09760654 0.3974239 -0.17914836 0.24655282 0.22477221 0.6993869 0.6163197
-0.09086879 0.106899664 0.57170147 0.30875638
00000000: 9a53 7a3d 1a01 7fbe 230a a03e 8599 4abc
00000010: 21b3 9a3e 306f 5fbd 0de7 fe3d a9c1 a0bc
00000020: 53b0 6f3e f0e5 c7bd 257b cb3e ab72 37be
00000030: 5878 7c3e b02a 663e 050b 333f 21c7 1d3f
00000040: 6b19 babd 36ee da3d 075b 123f 5115 9e3e

out.weight f4 [3, 20]
0.38987312 0.006646099 -1.2382817 0.17929228 1.6169859 0.17650345 0.032183517 1.5376326
-0.664504 0.08030045 2.54165 -2.7475238 1.7869881 -0.020333106 -2.8197677 -2.4928076
-0.18911123 -0.03684517 -2.0642998 -0.72506404 -1.2783935 -0.37808588 0.67081076 0.07360579
0.5917342 0.012403384 -1.7669401 -0.3699052 -0.23072778 0.14037764 1.1072361 0.72398335
0.7660533 -1.663124 1.9907304 1.7948104 -0.16715439 -1.6014863 1.5156251 0.08594081
0.061328527 -0.30303732 1.3818145 -0.062402554 -2.558825 0.0017003268 0.50434583 -1.2953802
1.211562 -0.18270004 -3.041029 2.4721384 -2.4747303 0.62535524 -0.4004178 -0.2880336
-0.03992872 0.7828786 -0.41550633 1.2003251
00000000: 739d c73e 85c7 d93b 0480 9ebf 6598 373e
00000010: 65f9 ce3f 52bd 343e ddd2 033d 25d1 c43f
00000020: ef1c 2abf 9074 a43d 65aa 2240 6ed7 2fc0
00000030: 07bc e43f 9d91 a6bc 1377 34c0 298a 1fc0
00000040: 60a6 41be f6ea 16bd 7d1d 04c0 cc9d 39bf
00000050: 66a2 a3bf 7994 c1be 41ba 2b3f a2be 963d
00000060: e47b 173f 9037 4b3c 182b e2bf 3764 bdbe
00000070: e743 6cbe 28bf 0f3e eab9 8d3f f956 393f
00000080: 121c 443f 3fe1 d4bf 41d0 fe3f 59bc e53f
00000090: 852a 2bbe 81fd ccbf 0100 c23f bc01 b03d
000000a0: 9f33 7b3d b527 9bbe 4cdf b03f d299 7fbd
000000b0: cac3 23c0 80dd de3a cf1c 013f 05cf a5bf
000000c0: 7714 9b3f b815 3bbe 38a0 42c0 8437 1e40
000000d0: fb61 1ec0 4817 203f 9003 cdbe 2479 93be
000000e0: 4c8c 23bd bb6a 483f 3fbd d4be 41a4 993f

out.bias f4 [3]
-0.0056432737 0.46073425 0.23839447
00000000: 36eb b8bb 5ce5 eb3e ae1d 743e
