Machine_Learning/Week_11_Prep/MLPW9.pt (torch, 90647 bytes, 6 tensors)

fc1.weight f4 [100, 200]
00000000: 149a 593d 7508 04bd 6423 47bc 5282 253d
00000010: 5a31 60bd b0d6 373c d88c ab3c ed2d 8abd
00000020: d88c 4a3c 624c cabc 81e7 813d e0d8 4a3b
00000030: 8e0d 5b3d fc90 023d 5888 df3c eb51 89bd
00000040: ba35 7a3d 93c0 6cbd b82f fc3c f090 033d
00000050: 00d3 f1b9 5e84 793d 604c 99bc 7af3 2abd
00000060: b4be be3c 8801 81bc 2212 74bd 1ed7 4dbd
00000070: acdb 38bd 30c7 a63c 0e83 4abd 0c18 043d
00000080: 6a02 603d 6e06 ebbc 9ace 233d 801d c23a
00000090: fc9d 383d 6814 12bc 42dd 34bd c0fe 5a3d
000000a0: 961a 32bd b489 863c e60e 253d 48a6 51bd
000000b0: e1a4 83bd ead8 213d 081e 8fbd e92c 58bd
000000c0: d015 fb3c 0433 c2bc ca6f 4c3d f852 7abc
000000d0: 0079 3a3c 5b00 20bd d016 653c 27c1 85bd
000000e0: a941 5cbd 1584 5ebd a05c 083c 1cd4 4dbc
000000f0: 6124 903d a06a 2d3b daa9 793d a223 2cbd
00000100: d0b1 8f3c c4db 46bc 2538 833d 6849 c13c
00000110: e0b9 a63b a228 39bd 5ce7 75bd c4c0 b8bc
00000120: b43d 153d eb9e 1cbd e64e f3bc 4e74 7dbd
00000130: 5998 883d 31dc 823d 87a1 26bd 004c 153b
00000140: 1006 81bb 8068 4d3c 5f38 3cbd d7b1 34bd
00000150: 842a 2abc 64ac 5ebd d005 013c 6c12 14bd
00000160: b8ef 64bd 20aa 64bb 56aa f2bc 9c66 ef3c
00000170: 567f 6b3d 3211 2bbd 9c01 b5bc 6093 4cbc
00000180: f920 8dbd ca76 8cbd d802 e73c d066 96bb
00000190: 5d0f 14bd 0b62 8a3d b451 90bd 36f7 7f3d
000001a0: 7a42 8abd c689 2abd ae89 1e3d a49e 92bc
000001b0: baeb adbc a8aa 45bd 8cf3 b03c 427d 693d
000001c0: 6cc6 bc3c 25c4 8d3d 4801 66bd cb86 6ebd
000001d0: 6b9e 2dbd d0fc eabb 9875 4a3c c0c3 bc3a
000001e0: a0f4 093c c047 3bbd f244 96bc c0c1 bd3b
000001f0: f40d a53c 44f1 42bd 12f2 443d 20d3 b2bb
00000200: ac8c d73c dbd8 823d 96fc 183d 9c86 e43c
00000210: 3ce6 d8bc 2225 4cbd 9483 cb3c fa34 6c3d
00000220: f464 1c3d e04f bd3b 9ecb 6f3d 60d5 cbbc
00000230: 0ad1 e7bc 5c2a fcbc ab75 1abd e0e9 3abb
00000240: 8fdb 8bbd e640 4d3d c0b4 90bd a596 09bd
00000250: 444b e83c b0ec 80bb fa79 eebc 12d5 81bd
00000260: 38e3 2b3d 3539 883d e0d6 af3b b6fb e3bc
00000270: acf2 86bc 0f28 58bd 8ca4 a53c 947b f13c
00000280: 707b 6cbc a35f 0ebd 9a15 173d a4fc 11bc
00000290: 9c96 d53c 8884 663c 9c40 453d 24b3 08bd
000002a0: 8372 81bd 30a5 a83b 0745 73bd 6ed4 86bd
000002b0: f0d5 553d a064 bbbb c446 443d 2225 023d
000002c0: f25e 743d 9868 593c d3ca 833d 0248 efbc
000002d0: 5610 35bd 60b1 6bbb a443 83bc 12a5 293d
000002e0: 0845 1cbc 08d8 053c a3c6 0bbd fe75 60bd
000002f0: 204e d33c abc8 0fbd cb26 863d ad50 843d
00000300: e0c7 7ebd 586f f1bc b46d 33bd 57a7 903d
00000310: 0d7f 14bd 2bc6 883d 22ec 653d 54c0 1fbc
00000320: c0d5 abbc 28aa 543d d4b9 34bc c87a 27bc
00000330: 1802 513c 7d02 87bd 00b6 3bbb 96d5 163d
00000340: 06f4 eebc e08d e3bb 720d 33bd f0da 25bc
00000350: 3030 103d a047 76bb 7ddd 52bd f0c8 7e3c
00000360: 65fc 56bd 5ad3 7e3d 907b e53c f091 c83b
00000370: 7587 62bd b379 8c3d cf21 8cbd 603c 41bb
00000380: d28c 6ebd 338d 6fbd c48a 943c ecb2 433d
00000390: fc93 cf3c b1ab 883d 60b8 babb 9642 52bd
000003a0: f435 853c 8088 c9bb 6841 1c3c 80b0 d7bb
000003b0: b8ea 82bd b89e cebc edc8 883d 16b7 283d
000003c0: 9607 713d b49f 9c3c e2a6 763d 98bd 523c
000003d0: c001 ec3b dc01 18bc d669 eebc 9a86 263d
000003e0: 8e8b 46bd d874 a0bc 8c65 0d3d 80d7 c4bb
000003f0: eece 31bd 1069 4dbc 1081 ec3c c83f c6bc
0.053125456 -0.032234628 -0.012154434 0.040407486 -0.054734565 0.011220619 0.020941183 -0.06747041
0.012362681 -0.024694625 0.06342984 0.0030952021 0.053479724 0.03187655 0.027286693 -0.06705078
0.061086394 -0.05780084 0.030784473 0.032120645 -0.0004612431 0.06091725 -0.018713176 -0.041736104
0.023284294 -0.0157478 -0.059587605 -0.05025398 -0.04513137 0.020358652 -0.04944139 0.032249495
0.054689802 -0.02868959 0.039991952 0.0014809817 0.04507254 -0.008915998 -0.04415632 0.053465605
-0.043482386 0.016423084 0.04029741 -0.05118397 -0.064279325 0.039513506 -0.0698815 -0.052777205
0.03065005 -0.023705967 0.049911298 -0.01527857 0.011381388 -0.03906284 0.01398249 -0.065309815
-0.053773556 -0.054325182 0.008322865 -0.012562778 0.07038189 0.0026461259 0.060953 -0.04202617
0.017540842 -0.012137357 0.06407193 0.023594573 0.005088076 -0.045204766 -0.060035095 -0.022552855
0.036435798 -0.038237493 -0.029700708 -0.061878495 0.06669683 0.063896544 -0.04068139 0.0022780895
-0.0039374903 0.012537122 -0.045952197 -0.044114914 -0.010386113 -0.054363623 0.007874921 -0.03615038
-0.055892676 -0.0034891441 -0.029622238 0.029223733 0.057494484 -0.041764446 -0.022095494 -0.012486309
-0.06891055 -0.06858595 0.028199598 -0.004589893 -0.036147464 0.067569815 -0.07046834 0.062491618
-0.06750961 -0.041635297 0.03870552 -0.017897911 -0.021230567 -0.048258454 0.021600507 0.05700422
0.023043834 0.06922177 -0.056153566 -0.058234017 -0.042387407 -0.007171251 0.012357138 0.00144016
0.00842014 -0.045722723 -0.018343423 0.005790919 0.020148255 -0.04759337 0.04808242 -0.005457297
0.026312195 0.06389018 0.03735026 0.027896218 -0.026476972 -0.0498401 0.024843015 0.05766771
0.038182214 0.005777344 0.058543794 -0.024882019 -0.02829792 -0.030781917 -0.037709873 -0.0028520748
-0.06828987 0.05011072 -0.07065725 -0.03359093 0.028356202 -0.0039344653 -0.029110897 -0.06339468
0.04196474 0.066515364 0.0053661913 -0.027829986 -0.016473137 -0.052772578 0.020220064 0.029477872
-0.014433727 -0.034759175 0.036885835 -0.008910332 0.026072793 0.014069684 0.04815732 -0.033373967
-0.063206695 0.005146645 -0.059392 -0.065834865 0.05220598 -0.0057187825 0.04791905 0.031773694
0.05966086 0.013269566 0.0643517 -0.02920914 -0.044205032 -0.0035963878 -0.016023465 0.04141719
-0.009537943 0.008169182 -0.03412498 -0.054800026 0.025794089 -0.03510348 0.06550368 0.064607
-0.062202334 -0.029472038 -0.043805793 0.070631675 -0.036253978 0.066784225 0.056133397 -0.009750444
-0.020975947 0.051920086 -0.011030633 -0.010222144 0.012756847 -0.065922715 -0.0028642416 0.036824785
-0.029169094 -0.006944403 -0.043713994 -0.010123 0.035202205 -0.0037579313 -0.05148076 0.015550837
-0.052486796 0.06221328 0.02801302 0.0061209127 -0.055304963 0.0685915 -0.06842386 -0.002948545
-0.058239765 -0.058484267 0.018132575 0.047778055 0.02533912 0.066733725 -0.0056982487 -0.051333033
0.016261078 -0.0061503053 0.009537078 -0.0065823197 -0.06392425 -0.025222167 0.066789486 0.04119023
0.058845125 0.019119121 0.060217746 0.0128625855 0.007202357 -0.009277787 -0.0291032 0.04065571
-0.048472933 -0.019586965 0.03452067 -0.006007135 -0.043410234 -0.012537256 0.028870136 -0.024200335

fc1.bias f4 [100]
00000000: d6db 25bd e864 8ebd cecc c53e 9988 013e
00000010: d573 b33d 3a8c b13d 34ce 85bd d959 36bd
00000020: 1cb6 4f3d 06b1 0f3e d0e1 23bd f8bd 3d3e
00000030: fb0d 7bbd 1a3c 45bd 50ef 3a3e a837 fb3d
00000040: f128 503e 71dd 633e 1031 983c 7230 25bd
00000050: a0d6 01bd d479 b2bc d2c5 153e d48a e83d
00000060: 869b 6bbd 7d3c 833d 62a0 1c3e 1b5a a3bd
00000070: b4cd 4fbc 9be8 e03d 30f2 083c 00ec 963d
00000080: c6aa 42bd 6557 69bd 12b9 4dbd 9038 87bd
00000090: db02 af3d 8209 5b3d 4ac1 0abd f450 f0bd
000000a0: 937f 24be 8e81 c1bc 56df 95bd 06fd 9dbc
000000b0: 8e7e 2ebd 0428 c3bc 7050 8a3d ea0c 4abd
000000c0: bb8e bb3a cb23 a1bc 16da 27bd 076d 813d
000000d0: b43b 9bbc d427 17bd 9373 03bd f582 b43c
000000e0: 7e88 a3bc 2097 603d 5113 f93d 15cd 19bd
000000f0: cbe0 2d3e 5964 6c3e c8f5 17bd 9451 9d3d
00000100: 8598 e13d 3a96 d4bc df6c 49bd d3a9 03be
00000110: 3e2a 0cbd 4690 86bd 93d4 a23c d633 51bd
00000120: 5457 8dbd 326c 9d3e db3f 2b3d e893 b0bc
00000130: 70cd 8dbd b6ef 463d e7b6 43bd 4a87 2c3d
00000140: 42e9 99bd 37bc 2a3d 9ce7 f33d d25e 87bd
00000150: ea69 0ebd 3e46 f0bd 4988 123e 3aa8 bebc
00000160: 416f 52be ae90 31bd f770 93bd 39e8 16bd
00000170: a647 1fbd b805 45bd 724b 93bd 3103 aabd
00000180: 8e39 3cbd d674 d83d 0140 83bd babe 09bd
-0.040492855 -0.0695284 0.38632816 0.12649764 0.087623276 0.08669324 -0.06533471 -0.04451928
0.050710782 0.14032373 -0.040010273 0.18529499 -0.06129263 -0.04815302 0.18255353 0.12266475
0.20328118 0.22252442 0.018578082 -0.040329404 -0.031698823 -0.021786608 0.14626244 0.11354604
-0.057521366 0.064080216 0.15295556 -0.07976171 -0.012683321 0.10981866 0.008358523 0.07369232
-0.047526143 -0.05696811 -0.050225325 -0.06602585 0.085454665 0.053475864 -0.03387574 -0.117341906
-0.1606429 -0.023621347 -0.073179886 -0.01928569 -0.04260116 -0.023822792 0.067536235 -0.049328722
0.0014309505 -0.019670388 -0.040979467 0.063196234 -0.018949367 -0.036903217 -0.032092642 0.022035101
-0.019962545 0.054831624 0.121618874 -0.037549097 0.16980283 0.23085155 -0.03709963 0.076815754
0.11015419 -0.02595054 -0.049176093 -0.12857752 -0.034219973 -0.06570487 0.019876754 -0.051074825
-0.06901422 0.3074661 0.041808944 -0.021554902 -0.0692395 0.04856845 -0.04778185 0.04212121
-0.075151935 0.041683402 0.1190941 -0.066098824 -0.034768976 -0.11732148 0.14309801 -0.023273576
-0.20550252 -0.043350868 -0.07199281 -0.03684256 -0.03888669 -0.048101157 -0.071921244 -0.0830139
-0.045953326 0.1056916 -0.06408692 -0.033629157

fc2.weight f4 [20, 100]
00000000: 23ba 64bd b808 953c d9b9 01bf 5aa2 2bbf
00000010: db2c 923d d546 cf3e 4d87 1fbd 33a0 76bd
00000020: c9f6 403d 3bee 4bbf 30cd c5bd 2dcd 29bf
00000030: b030 7ebd 5447 81bd 9ce3 3ebf 19be 5e3e
00000040: f38b 32bf 87a4 14bf 9c95 813e 7a5b 7bbd
00000050: bc1d ee3c 0cb2 b1bc 7a78 51bf c50a f33e
00000060: cecc 89bd 14c0 e93e c0d2 45bf 5cfa 133d
00000070: ed43 fc3e e667 9abe 168d c93e 790e 123f
00000080: 35df a4bd 802b c13b 00de 583b d7eb 833c
00000090: 1b9f 063f 82fa c13e 3a32 92bd 8bc6 b33f
000000a0: 17cd cc3f cd85 acbd acf1 dd3e 8036 21bc
000000b0: 00d3 453a 9e46 acbd 426f 9e3e d8d4 f23e
000000c0: eac2 173f b1a1 0b3f 223a aabd 9c1b f13d
000000d0: 42fa 663d 7000 4cbc 40d8 12bb 3e1c 31bf
000000e0: 0c85 f1bc ad80 cf3e 6822 17bf dc81 793f
000000f0: 05f9 2cbf a7f0 28bf b93e 943d 0550 a63e
00000100: 1517 bd3e 83fe 3abd 8054 cb3b 2c56 ae3f
00000110: 8dc6 a4bd f418 143e a7bb 883e e01b bc3c
00000120: 420d 273d b3d0 c9be 068d ac3e 7a48 273f
00000130: 005a 7c3c d153 ec3e b7aa 7cbd bf6a e03e
00000140: 4da2 1aba 9f57 5bbf 3ee0 26bc 1975 823d
00000150: 4054 09bc 041b ba3f 5963 06bf f854 b13c
00000160: f65b ed3f e149 8d3d 846b 943f 2ad3 bbbd
00000170: 5251 963e 0073 29bb 05fc a53d 5297 93bc
00000180: 5e64 0f3d cc88 873e 41e7 a93d 4025 adbd
00000190: 6d05 8c3d 603a b1bd 9320 a9be ee0a 17be
000001a0: 2265 89be 641f 44be daa5 39bd 68f0 7fbc
000001b0: ce2e 62be 3db5 743d 913a b53d 08c6 a4be
000001c0: 10ef 313c 97b9 65bd bad7 91be 8db0 9bbe
000001d0: cfbb 39be 0517 74be fa9e 9bbe 7064 403c
000001e0: 969e 8dbd 90df 1fbc 702d 773d 638d 99be
000001f0: b1fa a33d 34b1 aabe 5f7b b93d 2a39 7dbd
00000200: 496a 99be d939 92bd 8f72 68be aa23 83be
00000210: cddb 6abd 0020 65bb 41ca 843d aa12 42bd
00000220: e80d 4dbe 6096 63be 3101 9a3d 46e9 67bd
00000230: 620e 65be 176a ad3d 1dc4 adbe 3b8d aa3d
00000240: e510 bdbd f46e e9bc b39a 37be abef a8be
00000250: ee07 6dbe 821d 84be 689d f7bc a480 26bd
00000260: 79eb a33d 45de 8bbd 605b e6bc a852 2dbe
00000270: 6041 98bc 837f 31be 063e 02be d55b 763c
00000280: a3dc 91be 17d9 99be 72d2 633d 96b1 39be
00000290: 6809 74be 225c 403d 4abb 38bd df2d 9bbe
000002a0: 3139 a23d 12e0 a3bd 6557 96be 60a8 73bb
000002b0: 1a51 67bd 7220 52be 2899 babe 6781 c039
000002c0: bedb 023d c29a a3be f0bb 3e3c 1ad0 8dbe
000002d0: 509d 3bbc 93f5 303d 02b8 afbd 45c6 8c3d
000002e0: 202b 853b e14f 4ebe 8c07 b3bb 94f6 d73c
000002f0: 6b50 62be a8de 9cbc ccbb b4be 105c 65bd
00000300: 9347 62be cf1a b9bd 00c4 1ebd a618 443d
00000310: 1d47 9ebd 6291 a5be 95e8 ae3d c0fe f4ba
00000320: 101c 61bd ce1e 763d dec6 dbbd 5f75 5fbe
00000330: 6be7 7b3f 0335 3c3f eac2 aabd b017 1ebd
00000340: 774d f43c ed1d c6be 7351 923d 9695 a6bd
00000350: 5748 6fbd bd13 3dbd 1b49 0e3f f363 9b3f
00000360: 8af4 413f 94e8 3dbe e621 543f 22c8 7c3d
00000370: 66cd 403d eac1 0dbd 3fb5 e3be 8778 6e3f
00000380: 90de 86bd f618 583f 7795 f3be 2ae2 2dbd
00000390: 2b9d 603f 6ded dabe f067 7a3f 565d 453f
000003a0: 52c9 033d 74a2 bebc b817 c7bd 78fb 87bc
000003b0: 79f0 413f 7d20 493f d667 abbd 78f6 d7be
000003c0: f892 17bf cddc c03d 93d0 623f bcdd e43c
000003d0: 68fd 0a3c 5ee2 a7bd c424 213e d109 da3e
000003e0: efa4 af3f 4824 5b3f c245 653d 34b0 0cbf
000003f0: d3d3 2bbd 5a31 4bbd 8230 253d 7108 973f
-0.055841576 0.018192634 -0.50674206 -0.67044604 0.07137462 0.40483728 -0.038947392 -0.06021137
0.047110353 -0.79660386 -0.09658277 -0.663287 -0.06205815 -0.06312433 -0.74566054 0.21752204
-0.69744796 -0.5806355 0.25309455 -0.061366536 0.029066913 -0.021691345 -0.8182446 0.47469154
-0.067285165 0.45654356 -0.77274704 0.036127433 0.49270573 -0.30157393 0.39365453 0.57053334
-0.08050386 0.005895078 0.0033091307 0.016103668 0.52586526 0.37886435 -0.07138486 1.4044966
1.6000088 -0.08423958 0.43348444 -0.009839654 0.0007546395 -0.08411907 0.30944258 0.47428012
0.5928179 0.54543597 -0.08311869 0.11772844 0.05639101 -0.012451276 -0.0022406727 -0.6918372
-0.029482387 0.4052786 -0.59036875 0.97463775 -0.67567474 -0.65992206 0.07238526 0.32482925
0.36931673 -0.045652878 0.0062051415 1.3620048 -0.08045683 0.14462644 0.26705667 0.02296251
0.040784128 -0.39417037 0.33701342 0.65344965 0.015402317 0.46157697 -0.061686244 0.4383144
-0.00058988185 -0.85680574 -0.010185299 0.06369991 -0.008381903 1.4539495 -0.5249534 0.021646962
1.8543689 0.06898857 1.1595311 -0.09171136 0.29358917 -0.00258559 0.081047095 -0.018016491
0.035007827 0.26471555 0.08296061 -0.084543705 0.068369724 -0.08653712 -0.33032665 -0.14750263
-0.2683497 -0.191526 -0.045324184 -0.015621282 -0.22088167 0.059743155 0.08849061 -0.32182336
0.01086022 -0.056085195 -0.284849 -0.30408135 -0.1813805 -0.23836906 -0.30394727 0.011742696
-0.069150135 -0.009757891 0.060346067 -0.29990682 0.080068 -0.3333832 0.09056734 -0.061822094
-0.29963902 -0.0713994 -0.2269995 -0.25613147 -0.057338525 -0.00349617 0.06483889 -0.04738108
-0.20024836 -0.22225332 0.075197585 -0.05661895 -0.22368768 0.08467501 -0.33938685 0.08327719
-0.09231738 -0.02849529 -0.17930107 -0.32995352 -0.23147556 -0.25803763 -0.030226424 -0.040650025
0.08003897 -0.06829504 -0.028119743 -0.16926062 -0.01858586 -0.17333798 -0.12718973 0.015036543
-0.28488645 -0.3004844 0.05562062 -0.1813415 -0.23831713 0.046962865 -0.045100488 -0.30308434
0.07921065 -0.080017224 -0.29363552 -0.0037179217 -0.05647383 -0.2052019 -0.36444974 0.00036717506
0.031947844 -0.31954008 0.0116414875 -0.2769783 -0.01145108 0.043202948 -0.085800186 0.068737544
0.004063979 -0.20147659 -0.005463546 0.026362695 -0.2210099 -0.01914914 -0.35299528 -0.055996
-0.22097616 -0.090383165 -0.03876114 0.04787507 -0.077284075 -0.3233748 0.08540455 -0.0018691644
-0.054958403 0.06008797 -0.1073129 -0.21822117 0.9839999 0.7351839 -0.08337958 -0.03859681
0.029822094 -0.38694707 0.071444415 -0.08134 -0.058418598 -0.046161402 0.555803 1.2139877
0.7576376 -0.18545753 0.82864225 0.0617143 0.047070883 -0.03460876 -0.44474217 0.9315266
-0.06585419 0.8441309 -0.4757497 -0.042452015 0.8773982 -0.42759266 0.97814846 0.77095544
0.032174416 -0.023270823 -0.09721321 -0.016599402 0.7575756 0.785652 -0.083694145 -0.42180228
-0.5920863 0.094171144 0.8859951 0.027937762 0.008483268 -0.08197473 0.15736681 0.42585614
1.3722209 0.85602236 0.05597473 -0.54956365 -0.04195006 -0.049607612 0.040329464 1.1799451

fc2.bias f4 [20]
00000000: 607f a9bd 1977 a4be 578c e13e 7216 79bd
00000010: 6bc1 a33e 1e2b e2bd bb86 9d3d 5c67 9bbc
00000020: e5c4 b23d 1d8f 65be 41b1 b53e fed3 9c3e
00000030: a4ee 863e 7d31 e53d 159e 1bbd f94a 093f
00000040: b7c1 0dbe afd7 1b3e 6dda cc3e 668f f73e
-0.08276248 -0.32122114 0.44052383 -0.06081242 0.31983504 -0.1104338 0.076917134 -0.018970184
0.08728961 -0.22417875 0.35486796 0.30630487 0.26353943 0.1119108 -0.037992556 0.53630024
-0.13843428 0.15218996 0.40010396 0.48351592

out.weight f4 [3, 20]
00000000: 3acd 7e3f 3cb3 b73d d4e5 4ebc 7d55 ac3e
00000010: 7178 ef3e 526e 333e 75f5 ee3e 148d af3f
00000020: c429 dabf 908b d13d 22e5 4d3f e252 d5bf
00000030: 80c9 263f 3454 1c3f 08e3 483c 203e c0bf
00000040: 3cda 3cbe 4c15 d93e 5449 a7bf 04ad f3be
00000050: 8919 7fbf e539 ddbd 506c 62bf 047c 5bbd
00000060: 6abb 473f 8129 4b3c 2527 94bf e682 2e3f
00000070: 1029 023e 0874 f23d 1f86 843f c321 023f
00000080: 4fa0 7d3f e642 8cbf 99a6 e43a b303 3c3f
00000090: 5742 2bbe 2bfd 88bf 3dea 983f 82bc 49bf
000000a0: b48d cebe b8f3 dcbe b083 353f dfa6 e8bd
000000b0: 1cf1 e8bf 7248 433b c74c 333e bd22 f1bf
000000c0: 817c d73f ac1b 3bbe 2740 cabf 1de0 aa3f
000000d0: 7d31 d7bf 3de0 073e ccf5 d23d ec5e 8e3f
000000e0: 1b6d 36bd 2063 013f eba7 09bf 58fa 883f
0.995319 0.08969733 -0.0126280375 0.33658972 0.46771577 0.17522553 0.46671644 1.3714929
-1.7043996 0.102316976 0.80427754 -1.6665919 0.65151215 0.61065984 0.01226116 -1.5018959
-0.18442625 0.4239906 -1.3069253 -0.47592938 -0.9964834 -0.10802058 -0.8844652 -0.053585067
0.78020346 0.012400032 -1.1574446 0.68168485 0.12710977 0.118385375 1.035343 0.50832766
0.99072737 -1.0957916 0.001744467 0.73443145 -0.16724525 -1.0702261 1.1946484 -0.78803265
-0.40342486 -0.43154693 0.70904064 -0.11359953 -1.8198581 0.002979782 0.17509757 -1.8838726
1.683487 -0.18272275 -1.5800828 1.3349644 -1.6811978 0.13269134 0.10300788 1.1122718
-0.044537645 0.5054188 -0.5377185 1.0701399

out.bias f4 [3]
00000000: 08da e6bd 6608 293e 0346 fc3e
-0.11272055 0.1650711 0.49272165
