Machine_Learning/Week_9_Prep/MLPW9.pt (torch, 123287 bytes, 6 tensors)

fc1.weight f4 [100, 240]
-1.1242839 -1.0664545 -0.60892403 -0.4093895 -0.1544497 0.56858665 0.63915014 0.36100322
0.032662824 -0.4104835 -0.09995617 0.110590585 0.42157763 0.5208672 0.5197652 0.62412184
1.6270682 1.1995633 0.39448732 -0.38881576 -0.35420778 0.09109345 -0.73255783 -0.33651638
0.524082 0.020772586 -0.3558241 -0.84623903 0.1502156 -0.0118521415 0.015995229 -0.11579796
-0.88184476 -0.39887467 0.27037686 0.20447892 -0.22919157 -0.54952353 -0.14553505 0.69111884
-1.2162428 -1.0498642 -0.03462858 1.026889 0.6864606 0.21998578 0.25940627 0.083668485
0.14643012 0.26934692 -0.45957956 -0.47738102 -0.86763793 -0.22213365 0.5163157 0.34459224
1.1140872 0.756412 -0.48250473 -0.6859344 0.10279312 0.04215132 0.09716748 0.005488588
0.06267001 0.038797285 0.11193915 0.078851506 0.06605006 0.024391983 0.015211313 0.053825613
0.112059645 0.04820285 0.06018166 0.034818146 0.1559794 0.15694945 0.064709164 0.10682101
-0.315791 -0.2887773 -0.32554212 -0.30326506 -0.24868885 -0.26267052 -0.17803797 -0.18928623
-0.17753105 -0.09914517 -0.091595136 -0.005439008 0.054030064 -0.0015095597 0.053072106 0.10014493
0.0886908 0.13085257 0.26291347 0.27854946 -0.07633545 0.028526425 -0.08817845 0.0415108
-0.06994518 -0.040291764 0.037826788 -0.010375571 -0.011300619 -0.035231575 0.027891925 0.05817117
0.02374923 0.06112157 -0.059447628 -0.06876768 -0.06298403 -0.04073918 -0.033985727 -0.056142844
0.24804933 0.0202059 0.2779465 0.47059023 0.46984425 0.3841048 0.5402193 0.55666745
0.64321005 1.1894718 1.249463 0.76652074 0.35169384 0.008709559 -0.21621628 -0.13036902
-0.14449663 -0.19185439 0.0717279 0.25528514 0.11531677 0.67692566 -0.2525752 -0.22697891
-0.026545843 0.27508137 -0.02205425 -0.00092173315 0.05191927 -0.34563306 -0.7476868 -0.3672345
-0.4020249 -0.63096887 -0.21386576 -0.015737087 0.53150344 0.69893074 0.56894165 -0.03392579
0.7740617 0.75373536 0.68729955 0.46455002 0.05264644 -0.1335412 -0.18517901 -0.38174728
-0.46880928 -0.3381293 -0.3908604 -0.3569603 -0.47069067 -0.5974222 -0.48311734 -0.30769628
-0.017349977 0.009041553 0.37893972 0.51625144 -0.47884423 -0.6498547 -0.7501143 -0.8718456
-1.0393776 -0.9262505 -0.8077777 -0.6653484 -0.3561246 -0.5715698 -0.35295415 -0.37486404
-0.45050725 -0.5097401 -0.47892454 -0.4085707 -0.42089 -0.41055506 -0.5047905 -0.6193395
-0.5370739 -0.46116343 -0.510212 -0.5019656 -0.4743292 -0.5402718 -0.47753456 -0.43677497
-0.49308014 -0.4693975 -0.500069 -0.46696773 -0.42356658 -0.45747378 -0.4997047 -0.43746257
-0.49876574 -0.39346102 -0.424258 -0.44396856 -0.80609864 -0.6273096 -0.64996594 -0.6045687
-0.5997974 -0.66806304 -0.7298448 -0.8675964 -0.90037113 -0.6030796 -0.48496252 -0.5038307
-0.53250384 -0.56368 -0.52366835 -0.55498725 -0.6436018 -0.58114314 -0.47183785 -0.39266926
0.2954051 0.8897937 0.17485161 1.4834974 -0.2676811 -0.5515145 -0.5099438 -0.1108413
0.053370256 -1.63286 -0.45562714 -1.5101542 -2.6629407 -0.4583093 0.027305253 1.2665349
00000000: 89e8 8fbf 9581 88bf 72e2 1bbf 809b d1be
00000010: 1028 1ebe e58e 113f 589f 233f 6ad5 b83e
00000020: 74c9 053d e52a d2be d2b5 ccbd 517d e23d
00000030: 06d9 d73e 8e57 053f 550f 053f 73c6 1f3f
00000040: c543 d03f 4a8b 993f 3efa c93e dc12 c7be
00000050: b95a b5be 348f ba3d e988 3bbf e04b acbe
00000060: 3d2a 063f 452b aa3c 942e b6be 1fa3 58bf
00000070: 1ed2 193e 7c2f 42bc 6d08 833c 7b27 edbd
00000080: 94c0 61bf 4d39 ccbe d66e 8a3e ec62 513e
00000090: 32b1 6abe 93ad 0cbf 2407 15be 2aed 303f
000000a0: d8ad 9bbf f361 86bf b3d6 0dbd 1971 833f
000000b0: e2bb 2f3f f443 613e e6d0 843e 625a ab3d
000000c0: c7f1 153e d7e7 893e 034e ebbe 496b f4be
000000d0: 851d 5ebf 0177 63be 442d 043f 656e b03e
000000e0: 699a 8e3f 38a4 413f dc0a f7be 6699 2fbf
000000f0: 3385 d23d dda6 2c3d beff c63d 9dd9 b33b
00000100: 2259 803d e7e9 1e3d 5a40 e53d e67c a13d
00000110: 4145 873d b2d1 c73c df38 793c 3f78 5c3d
00000120: 877f e53d 5a70 453d 0b81 763d 799d 0e3d
00000130: 10b9 1f3e 5bb7 203e 3d86 843d f9c4 da3d
00000140: 5caf a1be 9eda 93be 75ad a6be 8f45 9bbe
00000150: 4aa8 7ebe c07c 86be 964f 36be 40d4 41be
00000160: b3ca 35be 9f0c cbbd 3b96 bbbd b539 b2bb
00000170: a14e 5d3d 6bdc c5ba 2362 593d c918 cd3d
00000180: 86a3 b53d 37fe 053e 989c 863e 099e 8e3e
00000190: c355 9cbd 40b0 e93c e796 b4bd 3b07 2a3d
000001a0: 6b3f 8fbd fa08 25bd 43f0 1a3d 4dfe 29bc
000001b0: 3b26 39bc fc4e 10bd 9b7d e43c e544 6e3d
000001c0: bf8d c23c 9d5a 7a3d 5b7f 73bd 12d6 8cbd
000001d0: c5fd 80bd 20de 26bd 9e34 0bbd 0af6 65bd
000001e0: a500 7e3e d886 a53c 014f 8e3e 34f1 f03e
000001f0: 6d8f f03e 62a9 c43e d04b 0a3f c281 0e3f
00000200: 6aa9 243f 9d40 983f 67ee 9f3f b43a 443f
00000210: 3711 b43e 8ab2 0e3c cd67 5dbe 757f 05be
00000220: edf6 13be 7a75 44be 14e6 923d bcb4 823e
00000230: 332b ec3d 004b 2d3f 8951 81be 296d 68be
00000240: ab76 d9bc 77d7 8c3e 1dab b4bc 77a0 71ba
00000250: 4da9 543d d1f6 b0be 6768 3fbf 2906 bcbe
00000260: 35d6 cdbe 2d87 21bf a0ff 5abe 10eb 80bc
00000270: 9c10 083f 20ed 323f 29a6 113f c5f5 0abd
00000280: e828 463f cdf4 403f ddf2 2f3f 80d9 ed3e
00000290: cba3 573d 06bf 08be 919f 3dbe 6174 c3be
000002a0: c507 f0be 491f adbe db1e c8be 80c3 b6be
000002b0: 5efe f0be a9f0 18bf 285b f7be 5e8a 9dbe
000002c0: 8a21 8ebc 0623 143c 6304 c23e 0e29 043f
000002d0: 122b f5be e15c 26bf 7e07 40bf 4631 5fbf
000002e0: 530a 85bf c11e 6dbf 85ca 4ebf 4654 2abf
000002f0: f755 b6be 6652 12bf 68b6 b4be 2eee bfbe
00000300: e3a8 e6be 547e 02bf 9935 f5be 2e30 d1be
00000310: e57e d7be 4634 d2be f339 01bf 098d 1ebf
00000320: ad7d 09bf 9d1d ecbe 419d 02bf d180 00bf
00000330: 47db f2be 414f 0abf 697f f4be f8a0 dfbe
00000340: 0075 fcbe de54 f0be 8604 00bf 6516 efbe
00000350: b8dd d8be 013a eabe 4bd9 ffbe 18fb dfbe
00000360: 395e ffbe b973 c9be 5838 d9be d94f e3be
00000370: 7b5c 4ebf 5d97 20bf 2b64 26bf 04c5 1abf
00000380: 538c 19bf 2e06 2bbf 1cd7 3abf cc1a 5ebf
00000390: b97e 66bf 6d63 1abf 024d f8be 0cfb 00bf
000003a0: 2c52 08bf 554d 10bf 210f 06bf a513 0ebf
000003b0: 16c3 24bf ccc5 14bf bb94 f1be f20b c9be
000003c0: 563f 973e 85c9 633f 4d0c 333e 3ee3 bd3f
000003d0: 7f0d 89be 0e30 0dbf ad8b 02bf c300 e3bd
000003e0: c59a 5a3d 8e01 d1bf f647 e9be bc4c c1bf
000003f0: 9f6d 2ac0 84a7 eabe 44af df3c d11d a23f

fc1.bias f4 [100]
-0.63391757 0.86091363 -0.6120343 0.5051612 -0.053288143 0.0021415155 -0.39969438 -0.44410443
-0.08014764 -0.2800016 -0.13083233 -0.41805997 -0.06792069 0.13720542 -0.33611712 -0.46981207
0.21658891 -0.53062445 0.17583409 -0.4626267 -0.34454662 -0.035613198 -0.060652394 -0.51592076
-0.102295265 -0.47070545 -0.8818484 -0.31084344 -0.33187822 -1.250625 -0.12296911 -0.39441136
0.8197045 -0.14734711 -0.4371455 -1.0349048 -0.43034145 -0.86155564 -0.44113204 -0.24011382
-0.51740885 0.397131 -0.060124464 -0.023872852 -0.3566408 -0.30853117 -0.12573507 -0.29282224
-0.3239856 0.4857216 -0.10095522 -0.90313107 -0.683291 -0.6038822 -0.49400997 -0.7519364
-1.2838215 -0.032147475 -0.04104055 -0.068196505 -0.10748026 -0.38708872 -0.47150838 -0.35133782
-0.3511752 -0.25195077 -0.035714235 -0.31391138 -0.23637043 -0.11745313 -0.33637607 -0.5380564
0.01805 -1.0979514 -1.075379 -0.40585825 -0.37172243 -0.31557032 -0.07930758 -0.42671135
-0.087197565 -0.2821571 -0.6335166 -0.6614043 0.23451371 -0.45463142 0.67939085 -0.74243134
-0.065119565 -0.3253331 -0.38664165 -0.6237208 -0.30827412 -1.039803 -0.29533195 -0.7307854
-0.74478954 0.2814427 -1.1470094 -0.70218426
00000000: 6c48 22bf d664 5c3f 48ae 1cbf 3f52 013f
00000010: ab44 5abd ab58 0c3b bea4 ccbe a861 e3be
00000020: 7224 a4bd 5f5c 8fbe e9f8 05be f50b d6be
00000030: 011a 8bbd 947f 0c3e 8b17 acbe 358b f0be
00000040: 7cc9 5d3e 01d7 07bf da0d 343e 68dd ecbe
00000050: 6a68 b0be 25df 11bd a56e 78bd 6213 04bf
00000060: 2e80 d1bd 4e00 f1be d1c0 61bf df26 9fbe
00000070: f1eb a9be 7b14 a0bf 3bd7 fbbd 49f0 c9be
00000080: 27d8 513f 29e2 16be 89d1 dfbe c377 84bf
00000090: b755 dcbe e98e 5cbf 0fdc e1be 66e0 75be
000000a0: e874 04bf c154 cb3e 1245 76bd 0091 c3bc
000000b0: 9f99 b6be ccf7 9dbe b2c0 00be ccec 95be
000000c0: 71e1 a5be 80b0 f83e 9cc1 cebd 9933 67bf
000000d0: 29ec 2ebf 0698 1abf e0ee fcbe e77e 40bf
000000e0: 4354 a4bf 12ad 03bd 231a 28bd 9caa 8bbd
000000f0: 9c1e dcbd 7e30 c6be 8c69 f1be 8de2 b3be
00000100: 3ccd b3be b1ff 80be 1749 12bd feb8 a0be
00000110: 170b 72be 448b f0bd 7c39 acbe 10be 09bf
00000120: 98dd 933c ac89 8cbf 05a6 89bf a7cc cfbe
00000130: 6752 bebe 6f92 a1be 036c a2bd e979 dabe
00000140: a394 b2bd e576 90be 252e 22bf cb51 29bf
00000150: 5d24 703e 73c5 e8be 8fec 2d3f fb0f 3ebf
00000160: 685d 85bd 0f92 a6be e5f5 c5be 2bac 1fbf
00000170: 1bd6 9dbe 4418 85bf c035 97be c114 3bbf
00000180: 87aa 3ebf 4219 903e 34d1 92bf 59c2 33bf

fc2.weight f4 [60, 100]
-0.21142922 -1.2785859 -0.08477793 -0.7136967 0.0062561617 0.41382584 0.08278947 0.0606326
-0.097827375 -0.022321487 -0.025213044 0.082045175 0.07226881 -0.857338 0.9624875 0.090263024
-0.19890635 0.3121198 0.27457443 0.031465378 -0.09664834 0.09219042 -0.046516288 0.3775434
0.13086605 -0.46622625 -1.6111182 0.18553068 0.70388687 -1.525307 0.056904513 0.013993875
-0.9550953 0.27795634 0.11601861 0.20010097 0.035618287 -1.1073003 -0.079371914 0.021675598
0.118212715 -0.4847084 -0.01816153 -0.0184202 0.10016833 -0.16969776 0.12189081 0.2924759
-0.40008193 -0.41478446 -0.1449632 -0.026546689 -0.49560034 0.8945829 -0.4782249 -0.6929568
-0.36305836 -0.023017114 0.030133747 -0.6058246 -0.14415494 -0.17459871 -0.042509526 -0.14107741
0.2338248 -0.10561037 -0.062694445 -0.21213393 -0.015649853 0.027678458 0.18324634 0.16588287
-0.64979756 -0.24931149 0.18714717 0.18163648 -0.089412324 0.02488245 -0.046420604 -0.05081995
0.046149068 -0.11410072 0.6172388 -0.4788502 0.46675456 0.06748889 -0.5506082 -0.28278852
-0.0029646272 0.3283078 0.15408194 0.34262127 0.17126417 0.19376491 0.28033414 -0.2418827
0.39884782 0.1129776 -1.4753519 0.25078374 -0.23455904 -1.3112366 -0.64366335 -1.6633884
-0.10052286 -0.7693912 0.032200217 -0.08263109 -0.31225064 0.31677607 0.124453664 -0.09435974
0.00022639183 0.4347484 0.27778694 0.018752584 -0.6824268 0.8485171 1.1242791 -0.2866524
1.4435697 0.025583165 0.15083152 -1.4458036 0.089447506 0.73702455 -0.51202804 -0.3180609
-0.2701721 0.84770966 -0.023273014 0.014750741 -1.0447813 -0.7579731 -0.061126538 -0.09797377
-0.12838559 0.18168241 0.047846578 -0.039408855 -0.10608231 -1.238414 0.074751824 -0.12979776
-0.46973738 -0.28088173 0.11108131 -0.07520486 -0.18809251 -1.6889893 0.055616472 0.7304085
0.31967866 0.4232598 0.20612796 -0.78986657 -0.41586402 0.097267866 -0.0059386482 -0.518252
-0.65405816 -0.22106375 0.1059188 0.11490094 -0.2679291 -0.101750016 -0.061217014 0.37621847
-0.180295 0.038602773 -2.0759132 -0.14629363 0.1282003 0.40762597 1.2763083 -0.26594487
0.26398906 -0.028219886 0.023889787 0.094878726 -0.01351089 -0.20574234 -0.32855982 -1.3282242
1.0612953 -0.008213317 -0.60891074 -0.1508406 0.037303902 -0.5589406 -1.2667005 -0.21813022
-0.1258496 0.38170257 -0.41732433 -0.6283027 0.13627858 -1.0594257 -0.043054637 -0.045211677
-0.21296246 -0.81766963 -0.5240516 -0.7157935 0.06979697 -1.3335991 -0.112949304 -0.3566592
0.09076073 -0.42819473 0.034163535 -0.2574382 0.08676839 -0.7113821 0.17747727 -0.46286422
-0.41426963 1.0824286 1.1665499 -0.31211028 0.56125575 0.013524213 0.0077949893 0.21108708
0.024099784 -1.4431254 0.03685298 -0.19251576 -0.26506338 0.80929774 -0.016465317 -0.00698061
-0.57912916 -0.6510985 0.034626182 0.50830823 -0.30632585 1.5609617 -0.19075741 -0.03620174
-0.066533335 -1.7943108 0.119069934 -0.13328661 -0.4790092 -0.26873899 0.15459283 -0.2543824
-1.3773389 0.068242185 0.053040065 -0.6578989 1.0007796 0.07839504 0.45972687 0.69683635
00000000: e780 58be b4a8 a3bf 0da0 adbd d4b4 36bf
00000010: 7d00 cd3b fbe0 d33e 878d a93d e459 783d
00000020: b859 c8bd 8ddb b6bc 968b cebc 4d07 a83d
00000030: ab01 943d 817a 5bbf 9565 763f d2db b83d
00000040: 1bae 4bbe 2bce 9f3e 0595 8c3e d7e1 003d
00000050: 91ef c5bd 55ce bc3d dd87 3ebd 5e4d c13e
00000060: c001 063e 35b5 eebe 1f39 cebf c1fb 3d3e
00000070: ee31 343f 433d c3bf b514 693d 9146 653c
00000080: 2081 74bf 4b50 8e3e 2a9b ed3d 45e7 4c3e
00000090: 7be4 113d 04bc 8dbf be8d a2bd 0691 b13c
000000a0: 8219 f23d b32b f8be 7dc7 94bc f6e5 96bc
000000b0: 0e25 cd3d 40c5 2dbe e4a1 f93d 67bf 953e
000000c0: 8ad7 ccbe a15e d4be 3c71 14be 7178 d9bc
000000d0: 54bf fdbe 6303 653f e5d9 f4be 9e65 31bf
000000e0: c9e2 b9be 638e bcbc 0cdb f63c 5217 1bbf
000000f0: 5a9d 13be 01ca 32be 781e 2ebd 9976 10be
00000100: c56f 6f3e 404a d8bd f265 80bd a339 59be
00000110: 1f34 80bc efbd e23c eea4 3b3e 33dd 293e
00000120: 2259 26bf 834b 7fbe 82a3 3f3e eafe 393e
00000130: cf1d b7bd 48d6 cb3c 8823 3ebd 9428 50bd
00000140: ce06 3d3d a3ad e9bd 5d03 1e3f da2b f5be
00000150: 74fa ee3e 9d37 8a3d a9f4 0cbf a8c9 90be
00000160: 314a 42bb f617 a83e a8c7 1d3e 0e6c af3e
00000170: e05f 2f3e 4f6a 463e f587 8f3e 19b0 77be
00000180: c835 cc3e cd60 e73d 55d8 bcbf ba66 803e
00000190: 3f30 70be 9ad6 a7bf 1fc7 24bf e9e9 d4bf
000001a0: eede cdbd d2f6 44bf 60e4 033d 7d3a a9bd
000001b0: 51df 9fbe 7930 a23e 90e1 fe3d ae3f c1bd
000001c0: 9863 6d39 5897 de3e 173a 8e3e 059f 993c
000001d0: 86b3 2ebf 6b38 593f 61e8 8f3f 1ac4 92be
000001e0: e4c6 b83f c993 d13c 9473 1a3e 1810 b9bf
000001f0: 4130 b73d a4ad 3c3f 4514 03bf e1d8 a2be
00000200: ff53 8abe 8003 593f 0ca7 bebc 18ad 713c
00000210: 65bb 85bf 860a 42bf d25f 7abd 79a6 c8bd
00000220: 8377 03be f40a 3a3e c6fa 433d 2e6b 21bd
00000230: af41 d9bd 5a84 9ebf 7c17 993d b4e9 04be
00000240: 6b81 f0be bbcf 8fbe 997e e33d 0105 9abd
00000250: 539b 40be cd30 d8bf 19ce 633d 0dfc 3a3f
00000260: ecac a33e 82b5 d83e 3513 533e b234 4abf
00000270: 21ec d4be 6034 c73d fe98 c2bb 2aac 04bf
00000280: 5b70 27bf 895e 62be f5eb d83d 2f51 eb3d
00000290: 012e 89be 5062 d0bd b1be 7abd b59f c03e
000002a0: 419f 38be f11d 1e3d c3db 04c0 ffcd 15be
000002b0: f046 033e 5ab4 d03e 125e a33f ed29 88be
000002c0: 9329 873e 642d e7bc 84b4 c33c c74f c23d
000002d0: c85c 5dbc 1fae 52be fe38 a8be 4003 aabf
000002e0: 86d8 873f 2691 06bc 93e1 1bbf f575 1abe
000002f0: facb 183d bb16 0fbf 3e23 a2bf 875d 5fbe
00000300: b8de 00be 856e c33e 89ab d5be 72d8 20bf
00000310: 9d8c 0b3e 439b 87bf 0f5a 30bd e12f 39bd
00000320: d512 5abe cc52 51bf 3f28 06bf 3e3e 37bf
00000330: b7f1 8e3d 60b3 aabf f751 e7bd 099c b6be
00000340: c3e0 b93d 573c dbbe 10ef 0b3d f1ce 83be
00000350: a0b3 b13d 231d 36bf 9abc 353e 8afc ecbe
00000360: 261b d4be 058d 8a3f 8251 953f ebcc 9fbe
00000370: 75ae 0f3f a994 5d3c 1c6d ff3b 3627 583e
00000380: e96c c53c 55b8 b8bf 26f3 163d da22 45be
00000390: 63b6 87be 232e 4f3f 46e2 86bc 9abd e4bb
000003a0: cf41 14bf 64ae 26bf 2fd4 0d3d 7d20 023f
000003b0: bed6 9cbe 98cd c73f e955 43be 4748 14bd
000003c0: a142 88bd faab e5bf f0da f33d 497c 08be
000003d0: b240 f5be 2898 89be 954d 1e3e 693e 82be
000003e0: a44c b0bf 8fc2 8b3d 8a40 593d 106c 28bf
000003f0: 8c19 803f 948d a03d 5261 eb3e de63 323f

fc2.bias f4 [60]
-0.73641884 -1.3033695 -1.9984676 -2.8371015 0.6127651 1.1744905 -1.204671 -1.0468725
-1.1071274 -1.3732079 -1.3073816 -1.171416 -1.803856 -0.278978 -0.7486861 0.009382527
-0.1437923 0.63593715 -0.53522545 -2.9736285 -1.6255051 -1.75145 -0.5935743 0.11819651
-2.136359 -1.4435133 -1.7100838 -0.3492862 -1.8761283 -1.108898 -1.3238486 -1.6834223
-1.8551245 -1.6645327 -0.65275043 -2.3034067 -0.7195854 -0.299629 -1.3189675 -0.722199
0.22725393 -0.97565186 -0.33410951 -2.5101674 -2.6976132 -1.042014 -1.4139633 -1.8399131
-1.3847258 -0.17295547 -0.82466954 -0.33598432 -1.9350995 -1.2062821 -2.3110278 -0.7096602
-0.9376895 -0.38904524 -2.2690656 -1.0134453
00000000: f285 3cbf d0d4 a6bf c9cd ffbf 1293 35c0
00000010: 2cde 1c3f b455 963f a932 9abf ebff 85bf
00000020: 5ab6 8dbf 47c5 afbf 4858 a7bf f6f0 95bf
00000030: c1e4 e6bf 34d6 8ebe e4a9 3fbf 2cb9 193c
00000040: 4a3e 13be c7cc 223f 8904 09bf ee4f 3ec0
00000050: 8d10 d0bf 832f e0bf 7cf4 17bf 0311 f23d
00000060: 1bba 08c0 0bc5 b8bf 07e4 dabf a4d5 b2be
00000070: f924 f0bf 5ff0 8dbf df73 a9bf 627a d7bf
00000080: b874 edbf 680f d5bf a71a 27bf 046b 13c0
00000090: c036 38bf f968 99be edd3 a8bf 09e2 38bf
000000a0: 41b5 683e 52c4 79bf 6710 abbe 95a6 20c0
000000b0: b2a5 2cc0 b760 85bf c0fc b4bf 4682 ebbf
000000c0: b23e b1bf 3d1b 31be 8b1d 53bf 2306 acbe
000000d0: 57b1 f7bf 7467 9abf e1e7 13c0 4aac 35bf
000000e0: 6b0c 70bf f030 c7be 5f38 11c0 93b8 81bf

out.weight f4 [3, 60]
0.43276313 0.08699682 0.1759456 0.49167174 -0.81917155 -0.73985696 -0.01390717 -0.06209418
-0.031759083 -0.36952385 -0.45102614 -0.1032441 -0.1319764 -0.08884003 -0.1423019 -0.31613228
0.12725236 -0.44389918 0.012433624 0.11386892 0.026308637 -0.38426593 0.37602645 -0.45934644
0.1331585 0.037192028 -0.2027501 0.2917519 0.10607645 -0.117429495 -0.20489651 0.17658472
0.37232307 -0.39270264 0.22814603 -0.21985261 -1.2751234 -0.16221924 0.1220062 0.13902012
-0.080364384 0.15335828 -0.14672661 0.47155872 -0.5345571 -0.31480083 -0.033166204 -0.2026214
0.05761797 -0.20673381 -0.23071153 0.029100236 -0.08055589 0.29266685 -0.39595607 -0.06667497
0.10277967 0.39106596 0.059212174 -0.44890922 -0.74482006 -0.97074205 -0.54494834 -0.05984802
1.82049 0.28664386 0.045998815 -0.24040198 0.07708713 -0.92529655 -0.39844632 -2.8367183
-0.9523367 0.2898695 -0.2008431 0.27517328 0.05163707 1.0924523 -0.0334102 0.19222417
-0.5565362 0.0010883764 -0.13819028 -0.74162465 -0.26671153 -0.24960914 0.1010856 -0.20210308
0.032330003 -1.5556942 -0.3365138 -1.1445237 -0.31764627 -0.22554918 -0.16138165 -0.07462349
0.08590059 0.34802788 -0.20766728 0.09505348 -3.850553 -0.6471515 0.25850993 -0.68644184
-0.5778732 0.42695874 0.17671283 0.19423938 -0.6397735 0.2260942 -0.13154015 -1.0597136
-0.297993 -0.41912925 -0.12486722 -0.10148229 -0.023270853 -0.037459236 -0.9518777 -0.53266865
-0.53439415 0.06652561 -0.34964204 -0.6037114 -0.839123 -0.77687883 0.054527216 0.2845191
0.10199437 0.35583186 0.13998356 0.17518802 -0.24063645 -0.19022638 0.11704634 -1.1860839
0.08817853 -1.3241332 0.06004263 0.08818909 -0.2504115 -0.1117098 -0.28450504 0.27565715
0.03512026 -0.051359855 0.17075041 -0.14845246 -0.6269395 0.45306554 -0.16693485 -0.1429861
0.26738918 -0.5306143 0.29411823 0.046543688 -0.2745689 -0.3115235 -1.0958611 -0.49371898
-0.33530036 0.32302314 -0.62680244 -0.09527114 0.520468 -1.2676064 -0.54631466 -0.04371612
-0.33230543 -0.099700116 0.09556495 -0.15181805 0.2509703 -0.5557675 -0.0894255 0.26453948
-0.22284034 -0.7339332 0.18890372 -0.044737212
00000000: 2193 dd3e 642b b23d 152b 343e 66bc fb3e
00000010: 3ab5 51bf 4467 3dbf e6da 63bc 7856 7ebd
00000020: d015 02bd 3b32 bdbe e6ec e6be a571 d3bd
00000030: d224 07be c3f1 b5bd 97b7 11be 17dc a1be
00000040: 714e 023e c146 e3be 66b6 4b3c 1c34 e93d
00000050: 3685 d73c 81be c4be 8a86 c03e 752f ebbe
00000060: b45a 083e ab56 183d b99d 4fbe 8160 953e
00000070: 9c3e d93d e07e f0bd 64d0 51be a0d2 343e
00000080: 21a1 be3e 5210 c9be 1d9f 693e 0b21 61be
00000090: 3e37 a3bf cd1c 26be 63de f93d 4a5b 0e3e
000000a0: 1596 a4bd f409 1d3e 803f 16be 2570 f13e
000000b0: bcd8 08bf 932d a1be 49d9 07bd fc7b 4fbe
000000c0: d200 6c3d 07b2 53be a53f 6cbe 9e63 ee3c
000000d0: 7dfa a4bd 6ed8 953e c1ba cabe e38c 88bd
000000e0: 267e d23d cc39 c83e 7788 723d 6ed7 e5be
000000f0: 87ac 3ebf 8d82 78bf bc81 0bbf 3323 75bd
00000100: d105 e93f fcc2 923e 4169 3c3d f02b 76be
00000110: dbdf 9d3d 3ce0 6cbf 2801 ccbe cb8c 35c0
00000120: 57cc 73bf c669 943e d0a9 4dbe 83e3 8c3e
00000130: 6481 533d 7ad5 8b3f 22d9 08bd 6ad6 443e
00000140: 2879 0ebf daa7 8e3a c181 0dbe 1ddb 3dbf
00000150: 6a8e 88be 8a99 7fbe f805 cf3d 1cf4 4ebe
00000160: 776c 043d fd20 c7bf 894b acbe c17f 92bf
00000170: 88a2 a2be 5df6 66be 3b41 25be 33d4 98bd
00000180: a6ec af3d b630 b23e bba6 54be 66ab c23d
00000190: 766f 76c0 b9ab 25bf 6a5b 843e a7ba 2fbf
000001a0: 7fef 13bf 569a da3e 35f4 343e b0e6 463e
000001b0: 32c8 23bf 3d85 673e 76b2 06be b2a4 87bf
000001c0: 8a92 98be 1c98 d6be 63ba ffbd f2d5 cfbd
000001d0: 84a2 bebc db6e 19bd 42ae 73bf f95c 08bf
000001e0: 0ece 08bf 943e 883d 4804 b3be d58c 1abf
000001f0: c4d0 56bf 88e1 46bf ee57 5f3d 7dac 913e
00000200: 6de2 d03d 982f b63e da57 0f3e 7d64 333e
00000210: 6769 76be b4ca 42be feb5 ef3d 99d1 97bf
00000220: f296 b43d 327d a9bf 43ef 753d 7b9c b43d
00000230: f035 80be 1cc8 e4bd a5aa 91be ef22 8d3e
00000240: 43da 0f3d b65e 52bd 32d9 2e3e ec03 18be
00000250: 1b7f 20bf 35f8 e73e f8f0 2abe f36a 12be
00000260: 3ce7 883e 57d6 07bf aa96 963e 98a4 3e3d
00000270: 4b94 8cbe 0280 9fbe 2d45 8cbf bcc8 fcbe
00000280: 7dac abbe 4a63 a53e 2076 20bf 841d c3bd
00000290: 643d 053f ed40 a2bf 47db 0bbf ad0f 33bd
000002a0: f023 aabe 932f ccbd 8eb7 c33d 3176 1bbe
000002b0: 2e7f 803e c746 0ebf b724 b7bd b871 873e
000002c0: 4230 64be 0ce3 3bbf fa6f 413e 5e3e 37bd

out.bias f4 [3]
3.4518318 -1.9056637 -2.4834952
00000000: d0ea 5c40 caec f3bf 96f1 1ec0
