Machine_Learning/Week_9_Prep/MLPW9.pt (torch, 355927 bytes, 6 tensors)

fc1.weight f4 [200, 360]
000000 0e 0a 81 3f c7 94 9e 3f a4 46 cc 3f 5b d0 ca bd
       1.0081193 1.2389153 1.5959058 -0.09903022
000010 62 36 90 be a1 0f e6 3d 7d b3 49 be 04 b0 88 3e
       -0.2816649 0.1123345 -0.19697376 0.2669679
000020 94 d4 24 3f 59 3e d9 3d 6e 51 ab 3f 9a b1 08 3f
       0.6438687 0.10607595 1.3384225 0.53396
000030 7b 07 94 3f 4e 60 9e 3f 64 d1 f5 3f d0 25 58 3f
       1.1564783 1.237314 1.9204526 0.844327
000040 59 df 16 3f 85 92 00 3f bd 0a 52 3e 6a b5 3f 3f
       0.5893455 0.5022357 0.20511909 0.7488619
000050 4f de 53 3e 7b 3f c6 be 16 a9 60 be 7d 89 96 3e
       0.20690273 -0.38720307 -0.21939501 0.2940177
000060 29 ff 09 3e 5d f6 1e be 2a 79 b3 3d 3a 76 06 3e
       0.13476242 -0.15523668 0.087633446 0.13131037
000070 5d 71 4b 3e b3 fa 5d 3f 8a e3 88 3f 35 0d bf 3e
       0.19867463 0.8671066 1.069444 0.37314764
000080 b7 b5 b5 3e af 36 65 3e 15 aa cf 3e d8 97 b9 3e
       0.354902 0.22384141 0.4055945 0.3624866
000090 5f 51 a4 3e c2 f1 2f 3f 86 d4 8b 3f 28 2c 82 3f
       0.3209333 0.6872827 1.0924232 1.0169725
0000a0 27 ff 1c be 98 69 81 be e9 33 76 3e 3d 17 13 3f
       -0.15331708 -0.25275874 0.2404324 0.57457334
0000b0 45 85 ce 3e 9b 2b f0 3e 2f 91 f9 3e 09 0f 34 3f
       0.40336052 0.46908268 0.4874358 0.7033544
0000c0 2a 53 f9 3e d4 83 00 3f 06 46 bd bd fc 8a 71 be
       0.48696262 0.50201154 -0.092418715 -0.23588175
0000d0 c8 7c ff 3c 75 34 47 3e 4e 12 a1 3e 59 16 62 3e
       0.03118743 0.19453605 0.31459278 0.22078837
0000e0 a4 bb 8c 3e e5 54 27 3f cb 87 13 3f 75 ff fe 3e
       0.27486908 0.65363914 0.5762908 0.49804273
0000f0 b7 ee 3b 3e 62 ee e9 3e 5d d0 31 3f 59 98 1f 3f
       0.18352781 0.45689684 0.6945856 0.6234184
000100 c9 b7 be be ce a6 4a be c6 53 1c bf b2 2c f8 be
       -0.37249592 -0.19790193 -0.6106533 -0.484716
000110 45 3e db be 3d 98 e3 be 70 7e b5 bd 11 a1 b2 3e
       -0.42820945 -0.44452086 -0.08862007 0.3488851
000120 ab b3 08 bd 09 8e 63 bd f4 02 6f 3e 92 bd 03 be
       -0.03337447 -0.055555377 0.2334097 -0.12865284
000130 24 6e 2c bf c2 61 ac be 4e cd 92 be c5 af 02 3f
       -0.6735556 -0.33668333 -0.2867226 0.51049453
000140 ef b2 81 bf 91 bb 2c bf 41 1f e0 bb 71 41 5b be
       -1.0132731 -0.67473704 -0.0068396633 -0.21411683
000150 96 b6 27 bf 28 1c 1f bf 9c c3 e5 be ea 39 52 bf
       -0.6551298 -0.6215234 -0.448758 -0.8211962
000160 d0 6a 39 bf 1e c5 0a bf f5 09 e0 3d 37 ad 3d be
       -0.7242861 -0.54207027 0.10939399 -0.18523107
000170 99 19 d4 3c 4b c6 9a bf 6d d1 30 bf e3 ac 9d 3e
       0.025891112 -1.2091764 -0.6906956 0.30795965
000180 09 60 6c bd 00 86 fb be 6a 09 89 be 42 cc b1 be
       -0.057708774 -0.4912567 -0.26764995 -0.3472615
000190 3d af 70 bf 4e b7 6d bf 06 be 1f be a6 ab e6 be
       -0.9401739 -0.92857826 -0.15599832 -0.45052832
0001a0 d6 c1 4c bf 31 07 4e 3e 80 37 79 bf 2f 7a 12 bf
       -0.7998327 0.20119931 -0.9735031 -0.5721769
0001b0 4e 19 f0 be ea f5 51 be b6 c0 8d 3d a4 82 d1 be
       -0.46894306 -0.20503965 0.06921522 -0.40919983
0001c0 06 06 75 be 07 c3 50 bf 56 ba 16 bf 91 b2 0f bf
       -0.23928079 -0.8154759 -0.58878076 -0.56131846
0001d0 1a ca a0 bf cc 8b 46 bf 12 46 ef be d9 88 c2 be
       -1.2561677 -0.77557063 -0.46733147 -0.3799503
0001e0 9c 00 49 3e 2a b9 a3 3e bb 16 d5 3e 49 3c 80 3e
       0.19629139 0.31977206 0.41618904 0.25045994
0001f0 c1 f9 87 3e f0 2d b0 3e d2 8a aa 3e 0b 54 c9 3e
       0.26557735 0.34410048 0.33309036 0.39321932
000200 17 eb dd 3e 53 d0 7b 3e 27 47 aa bc 52 ca 80 be
       0.43343422 0.24591188 -0.020785881 -0.25154358
000210 2e 58 57 be e1 5d a6 bd 0c 44 6a 3d 70 7a 2b 3e
       -0.21029732 -0.08123375 0.0571938 0.16745925
000220 cb 0f 1d 3e 87 32 dc 3d 9c 6f 35 be a3 05 08 be
       0.15338056 0.10751825 -0.17718357 -0.132834
000230 ba 5b 55 3e d7 cc ea 3e fc 85 a7 3e 4d 11 dc 3e
       0.20835772 0.45859405 0.3271941 0.4298195
000240 a9 eb 5f 3e bc be de bb d0 3c a5 be 44 3e ce be
       0.21867241 -0.0067976397 -0.3227296 -0.4028188
000250 00 10 b6 be b1 7f 01 bf 29 f9 19 bf a0 64 13 bf
       -0.35559082 -0.50585467 -0.60145813 -0.57575417
000260 0a 91 95 be 7a b0 b2 bd a6 41 5f bd 3a 94 2c 3c
       -0.2921222 -0.087250665 -0.054505967 0.010533387
000270 9d 64 bc 3d 0b 68 b6 3d ee c8 dc 3d c6 b2 10 bd
       0.09198878 0.08906563 0.10780512 -0.03532674
000280 26 59 4c bd 79 58 24 bf a1 3b 45 be d0 77 82 be
       -0.049889706 -0.641975 -0.19261028 -0.25482035
000290 5f 81 50 bf 73 44 a2 be fa 00 b7 bd 0e 3c a9 3c
       -0.81447405 -0.31692848 -0.08935733 0.02065852
0002a0 19 d6 f9 3c 56 60 a1 3e 8b 94 04 3f f4 58 92 3e
       0.030497598 0.3151881 0.5178916 0.2858349
0002b0 33 89 33 3d 40 76 e0 be 05 be de be 20 5c 09 be
       0.043832015 -0.43840218 -0.43504348 -0.13414049
0002c0 24 b7 41 3e a4 f5 ba 3e 52 e0 e7 3e 39 af 1a 3f
       0.18917519 0.36515534 0.4528833 0.6042362
0002d0 17 b2 94 3f d0 d9 3f 3f 28 6b d7 be 97 73 c0 be
       1.1616849 0.7494173 -0.4207394 -0.37588188
0002e0 23 56 3e bd 42 33 d8 bd 75 9c 88 3e eb 89 b3 3e
       -0.046468865 -0.10556652 0.26681867 0.3506616
0002f0 2a 92 cb 3e 86 1c 41 3f 0c 30 c1 3e fc 83 08 be
       0.39759952 0.7543415 0.3773197 -0.13331598
000300 a0 01 31 bf 33 94 03 bf ca 77 85 be e9 83 3b be
       -0.69143105 -0.5139801 -0.26067954 -0.18312038
000310 98 d6 92 be 38 7f 90 be 97 63 d2 be 9a 7e 8f be
       -0.28679347 -0.2822206 -0.41091606 -0.28026277
000320 1f ae fc be 2e 9a 75 be 1b 5e de bc 83 57 5b 3d
       -0.49351594 -0.23984596 -0.027144482 0.053550255
000330 c1 09 fc 3d 40 ba 37 3d 38 55 f0 3d 47 a3 07 3e
       0.12306548 0.044855356 0.11735004 0.13245879
000340 9a 7c a2 3d 13 4a 4d 3e 26 71 f4 bb 1d 29 44 be
       0.07933922 0.20047788 -0.0074597774 -0.19156308
000350 db 32 8a bd 14 15 86 bd 69 6a 9d be a3 4d a4 be
       -0.06747981 -0.06546989 -0.30745247 -0.32090482
000360 76 00 c0 be 21 cf 17 3e d9 bb de 3e 9a 28 6a 3f
       -0.37500352 0.14825107 0.4350269 0.91468203
000370 91 b5 87 3f 0e b4 90 3f 70 6b 16 3f b4 f2 92 3e
       1.0602285 1.1304948 0.58757687 0.28700793
000380 5e 44 46 3e 22 28 04 3e ed 4f 22 3e 10 34 cb 3d
       0.19362018 0.12905934 0.15850802 0.099220395
000390 5b 17 c8 bd 4c 5d cf be 2f 36 20 bf 19 6e 34 bf
       -0.0977008 -0.40500867 -0.6258268 -0.70480496
0003a0 5c ce dc be 52 24 d3 be f4 5e c1 be 8c 9a 8a be
       -0.4312619 -0.41238648 -0.37767756 -0.27071035
0003b0 ac 41 f7 be fc 1b 76 be ad de 65 be dd b0 ea be
       -0.4829229 -0.24034113 -0.22448225 -0.4583806
0003c0 fb 0b 5b 3d df 10 22 3d 30 39 96 3d c4 a3 18 3d
       0.053478222 0.03956687 0.073351264 0.037265554
0003d0 c4 d3 aa 3a 6d 04 76 bb 0a 4b 8f bb 85 06 64 3d
       0.0013033082 -0.003753926 -0.004372959 0.05567028
0003e0 05 70 0f bc e8 e7 38 3d da 71 81 3d c4 e6 c8 3c
       -0.008754735 0.045143038 0.063205436 0.0245241
0003f0 be f8 59 3c 91 6f 9a 3c 6a 15 14 3d 15 b8 9b bd
       0.013303934 0.018852027 0.036153235 -0.0760347

fc1.bias f4 [200]
000000 b3 4f 88 bf b8 72 0e bf 6b 58 60 bf 7c 44 27 bf
       -1.0649322 -0.55643797 -0.87634915 -0.65338874
000010 d5 99 b6 bf 06 bd 0c bf b1 0d 92 bf 3a c9 88 bf
       -1.4265696 -0.54975927 -1.1410428 -1.068641
000020 b9 6a 43 3f 30 00 b6 be 84 35 67 be 25 38 c9 bf
       0.7633472 -0.35547018 -0.22579008 -1.5720259
000030 dc 29 9b bf 6c 12 45 bf a7 8b af bf 13 a6 32 bf
       -1.212215 -0.76981235 -1.3714494 -0.6978466
000040 e9 f0 9d bf 8f ed 69 bf 17 d2 6f bc e1 93 07 bf
       -1.2339145 -0.9137811 -0.014637492 -0.5296002
000050 a9 52 33 bf e0 ac 99 bf 3b 36 71 bf 98 ee a2 bf
       -0.70048004 -1.2005882 -0.94223374 -1.2729063
000060 d9 bc 6f bf f6 b2 58 bf e6 1d 6b 3d 9e c9 f1 be
       -0.93647534 -0.8464807 0.05740156 -0.47224134
000070 3b 0e 8d bf bc cb 24 3d d4 2a e5 bf af 3b d1 bf
       -1.1019968 0.04023336 -1.7903695 -1.6346339
000080 3b 01 b9 be 7b cd f3 bf 32 bd c8 bf 1f 3c ae bf
       -0.3613375 -1.9047083 -1.5682738 -1.3612098
000090 a5 c8 1c bf d3 be 80 bf 1a 82 8d bf a8 6d 97 bf
       -0.6124366 -1.0058235 -1.1055329 -1.183034
0000a0 7b 58 33 bf 97 bf a4 bf f4 15 7b bf f7 20 ee bf
       -0.70056885 -1.2870969 -0.9808037 -1.860381
0000b0 70 37 7f 3e 48 04 33 bf 62 0b 36 bf 2f 0d da bf
       0.24923491 -0.6992841 -0.7111112 -1.7035273
0000c0 32 2d 35 be 7e e7 57 bf 35 88 5b bf 86 88 8d 3e
       -0.17693022 -0.84337604 -0.8575471 0.27643222
0000d0 1c ca bf bf 32 27 10 bf 1c 2f 3a bf 46 b6 5e bf
       -1.4983554 -0.5630981 -0.72728133 -0.8699688
0000e0 e4 f5 75 bf 3f 01 7e bf b0 6d 62 bf ee 2a 47 bf
       -0.96078324 -0.9922065 -0.8844862 -0.7779988
0000f0 ae 16 15 bf 11 06 b1 bf b2 3c 2b bf 43 c6 f9 be
       -0.5823773 -1.3829976 -0.6688949 -0.48784074
000100 79 e0 a5 bf 56 22 bb bf ce 83 b8 bf 7f cf 00 bf
       -1.2959129 -1.4619853 -1.4415224 -0.50316614
000110 8b 44 6c 3f 88 de 5b 3f 13 de 3a bf 22 80 89 bf
       0.9229209 0.8588643 -0.7299511 -1.0742228
000120 b2 8c ed be 33 56 7b bf 1e 50 5c bf da 61 03 bf
       -0.46396405 -0.98178405 -0.8605975 -0.51321185
000130 ac e2 bb bf 46 ff 41 3e f2 34 98 bf b3 d4 c5 bf
       -1.467855 0.18945035 -1.1891158 -1.5455536
000140 e3 0b 9e bf ee 6f ed be ea 06 bb bf 1a 3c ae bf
       -1.2347378 -0.46374458 -1.4611485 -1.3612092
000150 65 b5 71 3f e9 57 b2 bf 8e 64 6a bf df 42 aa bf
       0.9441741 -1.3933078 -0.91559684 -1.3301657
000160 6b 49 9b bf 0b b0 33 bf d5 9b 71 be 0d 53 8c bf
       -1.213178 -0.70190495 -0.23594601 -1.0962845
000170 15 7e 00 c0 fe 19 84 bf f6 69 5f bf fe 0f 46 bf
       -2.0076954 -1.0320432 -0.8727106 -0.7736815
000180 60 5e 45 bf 1b 60 c1 bf e1 4d 1c 3f 60 a1 83 bf
       -0.7709713 -1.5107454 0.61056334 -1.0283623
000190 d0 d6 59 bf 5b 88 ba bf df 43 7d bf 31 af 4d bf
       -0.850934 -1.4572862 -0.9893169 -0.80345446
0001a0 07 20 7d bf be dc 85 bf 64 63 aa bf 55 2f 0b bf
       -0.98876995 -1.045799 -1.3311582 -0.543691
0001b0 6f f8 38 bf c7 70 54 bf 74 01 94 bf a2 ad 3a bf
       -0.7225408 -0.82984585 -1.1562943 -0.7292119
0001c0 9c 92 67 bf 41 02 be be 22 cb da bf 90 42 34 3f
       -0.90458083 -0.37111095 -1.7093241 0.70414066
0001d0 3d 10 61 bf b5 b2 46 bf 1a 62 22 3f 20 30 83 bf
       -0.879154 -0.77616435 0.6343094 -1.0249062
0001e0 6e 26 bc bd 32 dc 93 bc 2c 76 9c bf 78 af 96 bf
       -0.091870174 -0.018049333 -1.2223563 -1.1772299
0001f0 86 f9 e4 bf 40 c6 97 bf d1 0e 3e bf 38 85 67 be
       -1.7888649 -1.1857376 -0.7424136 -0.22609413
000200 7d e9 ae be af cd 1c bf 0e e1 51 bf 09 3e 4b bf
       -0.34162512 -0.6125135 -0.8198403 -0.79391533
000210 d6 0b ac bf 16 06 9a bf 3c 74 96 bf f4 2c 22 bf
       -1.3441112 -1.2033107 -1.1754222 -0.63349843
000220 07 90 98 bf a3 75 95 bf 82 2e 38 bf 1b 63 53 bf
       -1.1918954 -1.1676525 -0.71945965 -0.825731
000230 b9 95 59 bf 95 58 98 bf 87 65 7d bf e8 13 b5 bf
       -0.84994084 -1.1902033 -0.98983043 -1.41467
000240 79 31 24 bf 43 bf e3 3d 06 2a 98 bf af 87 5a bf
       -0.6413799 0.11120465 -1.1887825 -0.85363287
000250 25 1a 77 bf ad 41 18 3e fc f7 24 bf b3 d6 68 bf
       -0.9652427 0.14868803 -0.64440894 -0.90952605
000260 a6 24 76 bf 0c 15 a4 3e f8 8f 6d bf 2e 65 52 bf
       -0.9614967 0.32047307 -0.92797804 -0.8218564
000270 77 f6 9f bf 23 71 0f bf 34 7b 87 be e0 15 dc be
       -1.249709 -0.5603201 -0.26461184 -0.4298544
000280 dc c9 60 bf 6b 63 05 bf a6 aa a5 be 1f a5 28 3f
       -0.8780801 -0.52104825 -0.32356757 0.65876955
000290 5f 4a 8c bf ff 3b 3c bf 46 81 46 bf 3f 65 03 bf
       -1.0960196 -0.73529047 -0.77541006 -0.51326364
0002a0 72 78 79 bf a3 c8 93 3c 6f 16 60 bf d1 c4 08 3f
       -0.9744941 0.018040007 -0.8753423 0.5342532
0002b0 72 36 22 bf 0a 2e ee be e7 bf b7 bf 5b f5 ca be
       -0.63364327 -0.465195 -1.4355439 -0.39640316
0002c0 f0 b6 80 bf 21 0c a4 bf ed 70 82 bf b1 33 8b bf
       -1.0055828 -1.2816201 -1.0190712 -1.087515
0002d0 08 48 82 bd 86 31 a4 bf 12 48 f5 bf 44 ff 45 bf
       -0.06361395 -1.2827613 -1.9162619 -0.7734263
0002e0 a0 24 5b bf ed b4 d8 bf d5 49 c8 bd 68 8e ad bf
       -0.8560276 -1.6930214 -0.09779707 -1.3559084
0002f0 9b 04 2f bf a1 6c 92 bf 78 30 99 bf 54 f4 61 bf
       -0.683664 -1.1439401 -1.1967916 -0.8826344
000300 16 e1 7e bf 36 7c 97 bf 3e 9d 51 bf fe b8 46 bf
       -0.99562204 -1.1834781 -0.8188056 -0.77626026
000310 10 14 51 bf d2 90 01 bf d5 03 67 bf f7 7a 7c bf
       -0.8167124 -0.50611603 -0.9024022 -0.9862513

fc2.weight f4 [80, 200]
000000 fa 73 a8 be 81 2b c5 bd 7a da b2 3e 52 8e 25 bd
       -0.32900983 -0.09627438 0.3493231 -0.04041893
000010 bf 44 d4 be cd fb 07 bf 47 7e 1d bf d6 69 bb bc
       -0.414587 -0.5311859 -0.6152081 -0.022877615
000020 ca ff 99 bf 96 bc 34 bf 04 5d e0 3c 7f 3f f4 be
       -1.2031186 -0.7060026 0.027388103 -0.47704694
000030 c9 04 49 bd f1 72 61 3c 63 2e 48 bf e5 0c f2 3d
       -0.04907683 0.013760314 -0.7819578 0.11818866
000040 da bb a6 bc 28 88 55 bd b9 43 ed bd 54 1f 14 bf
       -0.020353246 -0.0521318 -0.11585183 -0.578603
000050 39 13 dc be 55 33 2a be 87 48 04 be aa 5a 93 3d
       -0.42983416 -0.16621144 -0.12918292 0.07195027
000060 55 80 3f bf 1b 69 ce be c4 c2 39 be a9 3c 1f bf
       -0.74805194 -0.40314564 -0.18140703 -0.62201935
000070 f9 06 1d be d2 19 d6 be ba 21 98 bd 2a d4 33 be
       -0.15334691 -0.41816574 -0.07428308 -0.17561403
000080 e1 96 ca 3d d9 41 bb 3b 6f 78 2a be c0 44 36 3d
       0.09892059 0.0057146368 -0.16647504 0.04449916
000090 a7 e8 60 bd 00 b9 04 bf 11 0a 4f 3f f9 4b 4c be
       -0.054909375 -0.5184479 0.80874735 -0.19950856
0000a0 ce b0 95 3d 25 16 db bd a6 08 12 be 91 eb d0 be
       0.073091134 -0.10697583 -0.14261112 -0.40804723
0000b0 a7 99 b8 be f7 e3 96 bd 2d dc 02 3e d8 54 10 be
       -0.36054727 -0.073676996 0.12779303 -0.14094865
0000c0 c5 40 b9 3d 13 42 1d bf 5c 67 a7 be 07 de 02 bf
       0.09045557 -0.61428946 -0.32696044 -0.51120037
0000d0 f3 6c d3 be 5e 96 77 bf 2e e3 32 bf 84 81 a4 be
       -0.4129406 -0.9671382 -0.698779 -0.32130063
0000e0 34 e3 64 bf 49 49 11 be ef f3 32 bf f1 c0 80 be
       -0.89409184 -0.14188112 -0.69903463 -0.25147203
0000f0 89 bf 6a bd 9f c1 76 be b4 2c ba be 87 71 25 bf
       -0.05731157 -0.24097298 -0.3636223 -0.64626354
000100 b6 1a ea be 72 05 48 3d 46 d9 05 bf e0 49 41 bf
       -0.45723504 0.048833318 -0.5228466 -0.7550335
000110 7e 3c 1c be 97 26 4b bf f2 48 ad bd 59 a9 20 bf
       -0.15257451 -0.7935576 -0.08461179 -0.62758404
000120 bb 86 ea bd 1e e0 0c 3d 2c fb 20 bd 7f 2b 37 3e
       -0.11451479 0.034393422 -0.039302036 0.17887686
000130 68 a3 84 be 3a 35 3e bf 26 3a 0b bf 06 0f 06 3e
       -0.2590592 -0.7429997 -0.543856 0.13091668
000140 bf 72 03 be 52 c7 e4 be 74 d0 91 3e 02 e1 19 be
       -0.12836741 -0.4468332 0.2847935 -0.1502724
000150 57 fb 0a bf de 06 d1 be e2 9a 85 be a8 da 1e 3d
       -0.54289764 -0.40825552 -0.2609473 0.038782746
000160 b8 36 55 3e a6 f6 b0 be 06 64 fb 3c 99 4e 3d be
       0.20821655 -0.34563178 0.030687343 -0.18487014
000170 b7 3e 72 bf 2e 18 8d 3e 0b 34 1e bf b5 46 4a bf
       -0.94626945 0.2755751 -0.6179816 -0.7901414
000180 84 81 24 bf 8a 3f 43 bd 78 f2 99 be b3 49 38 3e
       -0.64260125 -0.047668017 -0.300678 0.17996864
000190 d6 43 f2 3c 59 bb 62 be 0d 12 d9 3d de 21 9e 3e
       0.029573362 -0.2214178 0.10599146 0.30885214
0001a0 38 d2 c8 bd 35 b4 28 be a7 ba 8f bd a9 d5 e5 3c
       -0.09805721 -0.16474994 -0.07018023 0.028055983
0001b0 7a 79 d7 be 8a 05 8a bf 03 b4 9b be e7 6f b1 be
       -0.42084867 -1.078294 -0.30410776 -0.34655687
0001c0 5c 51 5c 3d 33 da cd be eb 9f fc be 29 61 64 bf
       0.053788528 -0.40205535 -0.49340758 -0.89210755
0001d0 50 f1 d8 be 7e 1b a2 3e e3 af 49 be f7 1b 08 bf
       -0.42371607 0.316616 -0.19696002 -0.5316767
0001e0 72 b2 76 be f7 01 3f be af 82 22 3f 37 6c a7 be
       -0.24091509 -0.18653093 0.6348066 -0.3269975
0001f0 7d cc 93 be a4 9a 2c bf da 81 3c bf 51 6c 1e 3e
       -0.2886695 -0.6742346 -0.7363564 0.15471007
000200 2f a1 15 3d 37 00 0d bd b4 1c b1 bc ba b3 a7 be
       0.03653067 -0.034424033 -0.021620132 -0.32754308
000210 a1 a1 d3 be 6f 9d e9 bd c0 78 14 3f 68 92 04 3e
       -0.4133425 -0.11406981 0.5799675 0.12946475
000220 40 8e 75 be eb be 1f bd 3c c1 53 be 0e 88 ce be
       -0.23980045 -0.039000433 -0.20679182 -0.40338176
000230 8d e6 9b bc 01 75 40 3f 4b 7c c3 be db 95 ed 3e
       -0.019030834 0.75178534 -0.38180766 0.46403393
000240 ba 49 14 bf 98 77 96 be 25 bc 2b 3d b4 1c ce be
       -0.57925 -0.29388118 0.041927475 -0.40256274
000250 bd ec 8a be d1 a3 a3 be 11 a2 d9 be a2 fc 69 be
       -0.27133742 -0.3196092 -0.4250646 -0.22850278
000260 88 15 a4 bf 20 59 e2 be 3b c4 7d bf 39 8a e5 be
       -1.2819071 -0.44208622 -0.9912755 -0.44832018
000270 1d 21 b1 bd f4 23 c7 be b7 a3 14 be d4 da 47 3d
       -0.08648894 -0.38894618 -0.14515577 0.048792675
000280 0b 13 94 bd b9 c3 34 bc 67 dd 2d be c4 0e 88 be
       -0.07230195 -0.011032992 -0.1697899 -0.26573765
000290 ef aa 9c be b9 6a 59 be fa c0 0f bf 1b 4a 9e bd
       -0.30599162 -0.21232118 -0.56153834 -0.07728978
0002a0 59 04 c2 be df a7 b9 3e 78 b0 c7 bd 1f dc 39 be
       -0.37893942 0.36260888 -0.097504556 -0.18150376
0002b0 62 49 9d be 93 cc 61 bf 35 40 83 bd 5f cc ff be
       -0.3072005 -0.8820278 -0.06408731 -0.4996061
0002c0 93 8b 1b bf 96 2b 4f be a0 d6 37 bf 5a 56 ea be
       -0.6075985 -0.2023147 -0.71811867 -0.45769006
0002d0 1a fc 0e bf 47 4a 44 bf 07 4e a3 bd b7 49 29 bf
       -0.55853426 -0.7667584 -0.07973867 -0.66128105
0002e0 cd c8 28 bf 39 a2 63 bf 65 3b 67 bf 9e 61 f0 be
       -0.659314 -0.8891941 -0.90325004 -0.46949476
0002f0 06 55 9c bf 7b 09 e4 be d6 ff ec 3e 00 6a 28 be
       -1.2213447 -0.44538483 0.46288937 -0.16446686
000300 9c ee d7 3e 48 e6 41 be 87 61 27 bf 26 db 17 be
       0.42174232 -0.18935502 -0.6538319 -0.14829692
000310 b4 f7 be 3e e6 9d e6 be a7 d2 27 3e 48 39 6b 3e
       0.37298357 -0.45042342 0.16388951 0.2297107
000320 08 70 a7 be 25 22 19 be 40 82 9a be a8 12 fc bd
       -0.3270266 -0.14954431 -0.30177498 -0.12308246
000330 7b 92 a3 be 57 08 a1 be a9 8c 9a be 97 3d 12 be
       -0.31947693 -0.31451675 -0.3018544 -0.14281307
000340 69 be 94 be 1a 7d ab bd 6d c1 84 be a6 b1 4c be
       -0.2905152 -0.083734706 -0.25928822 -0.19989643
000350 1e ff 7b be 11 ce 5d be 98 b5 11 be 0e 88 76 bd
       -0.24609038 -0.2166064 -0.14229429 -0.060188346
000360 19 5a 51 bd de 70 e0 bd 77 b5 36 be 22 ba f1 bd
       -0.051111314 -0.10959028 -0.17842661 -0.1180308
000370 7b e9 86 bd 97 70 44 3d 3d 09 fc bd 0a 51 6d be
       -0.065875016 0.047958937 -0.123064496 -0.23175445
000380 1d 8a 8f be 15 c1 f1 bd 05 35 69 be dc c5 85 be
       -0.2803506 -0.118044056 -0.22774132 -0.26127517
000390 dc 9b 9d be 5f 04 65 be d0 89 85 be b7 a2 a8 be
       -0.30782974 -0.22364949 -0.26081705 -0.32936642
0003a0 a5 d8 d4 be fc 71 4e be 65 6c 25 be c5 58 5e be
       -0.41571537 -0.20160669 -0.1615463 -0.2171355
0003b0 26 23 a2 be e2 4c aa bd f1 f5 f6 bd fb f8 44 be
       -0.3166744 -0.083154455 -0.12058628 -0.19235604
0003c0 d9 fe 00 bf 39 a0 d3 bd 79 72 96 be 9e a2 5e be
       -0.50388867 -0.103332944 -0.2938421 -0.21741721
0003d0 93 e2 93 be 82 0e a7 be dc cf ac be 97 34 82 be
       -0.288838 -0.32628256 -0.33752334 -0.25430748
0003e0 8b 44 9f bd 74 f6 c5 be 66 9a 3c be 97 ec 9e be
       -0.077767454 -0.3866459 -0.18418273 -0.3103988
0003f0 83 e8 53 be 8a b0 52 be 47 5b f5 bd 13 16 27 3e
       -0.20694165 -0.20575157 -0.119803004 0.16317014

fc2.bias f4 [80]
000000 46 f3 4c bf a9 36 e0 be b1 96 c8 be fe 5d 0d bf
       -0.80058706 -0.43791702 -0.39177468 -0.55221546
000010 87 1e ee bd d1 96 aa be 96 eb 09 be 8a 83 77 bf
       -0.116269164 -0.3331819 -0.13468775 -0.9668509
000020 21 9b bb be f8 d8 04 3e 54 73 a4 be 52 ea cc be
       -0.3664179 0.12973392 -0.32119238 -0.40022522
000030 a6 01 e1 bd 6d 31 3b be 9e e0 99 be 3d eb 1a bf
       -0.109866425 -0.18280573 -0.30054182 -0.60515195
000040 43 52 21 bf bd 49 95 be 93 ae 6f be d5 5e c0 bd
       -0.63016146 -0.2915782 -0.23406439 -0.09393088
000050 67 c8 84 be ab 98 8b be e4 3b 32 bf 58 78 64 be
       -0.25934145 -0.27264914 -0.69622636 -0.22311532
000060 65 b4 67 be 04 18 de bd ee 7c e9 bd 52 3b 84 be
       -0.22627409 -0.10844424 -0.114007816 -0.25826508
000070 3e 4c c1 3d 6b 90 33 be 3c 56 cd be 69 85 2c bf
       0.0943837 -0.1753556 -0.40104854 -0.6739107
000080 49 16 ea bd 10 86 8f 3e 7d 22 fe be d2 0b b4 bd
       -0.11430032 0.2803197 -0.49635687 -0.08791317
000090 d3 d6 51 be a5 4e bc bd 52 09 36 bd a9 05 2a 3f
       -0.20492105 -0.09194688 -0.044442482 0.66414887
0000a0 4c 45 17 bd 69 95 8d be 33 d9 64 bd 7c 4f 9a bd
       -0.03693132 -0.27653053 -0.0558712 -0.07534692
0000b0 38 01 3e be aa aa 14 bf 89 db 8a bd d9 cc f9 be
       -0.18555152 -0.5807291 -0.06780154 -0.487891
0000c0 18 47 cd bd ff 98 87 be 34 80 89 be 2a 88 ba be
       -0.10023326 -0.26483914 -0.26855624 -0.3643201
0000d0 ee 40 c8 be 63 2b 9f be 6a 2e 0b bd b7 0c e8 be
       -0.39112037 -0.3108779 -0.03397981 -0.453222
0000e0 22 0a ba be 3a 64 4c be 34 09 2d be 7b a6 de be
       -0.36335856 -0.19960108 -0.16898042 -0.4348639
0000f0 0d 01 51 be cf f9 3f be 83 5a d7 be e6 00 f7 be
       -0.20410557 -0.18747638 -0.42061242 -0.48242873
000100 3b 88 a3 be bf 3d d5 be eb af ab be 12 7e fb be
       -0.31939873 -0.4164867 -0.33532652 -0.49119622
000110 6e 64 64 be 35 b6 b0 bd 47 ef 35 be 1a a0 b6 be
       -0.22303936 -0.08628503 -0.17767058 -0.35669023
000120 77 1d bb be 03 1a f4 be c5 e5 93 be c7 77 de be
       -0.36545917 -0.47676095 -0.28886238 -0.43450758
000130 73 94 bf bd 06 03 ae be 4e df 75 be f9 4c 20 bd
       -0.09354486 -0.33986682 -0.24010965 -0.039135907

out.weight f4 [3, 80]
000000 b2 1b 45 3e 59 d6 ad bd ae e6 d2 bd c6 94 d9 3c
       0.19248846 -0.08488149 -0.10297905 0.026560199
000010 5d 6b 50 3d 2f dc 08 3e c0 bf 16 3c 18 7a e7 3e
       0.05088364 0.13365243 0.00920099 0.45210338
000020 d0 6c 8a 3e 2b 00 a4 3e e1 0c 7a bc fe 2f 58 bd
       0.27036142 0.32031378 -0.01526186 -0.052780144
000030 ac 21 f8 bd ef d4 28 3e 58 6e 94 3e c3 e6 30 bb
       -0.121157974 0.16487478 0.28990436 -0.0026993013
000040 88 76 1a 3d 62 d6 c9 bd 90 86 db 3d c5 4a ec bc
       0.037710696 -0.098553434 0.10719025 -0.028844247
000050 36 06 5c bb f4 28 59 3e 05 81 6b 3e 8c 8b b9 3d
       -0.0033573038 0.21207029 0.22998436 0.090598196
000060 e0 d6 38 3d e1 05 73 bd e1 30 29 b9 1c 81 83 bd
       0.045126796 -0.05933178 -0.00016135305 -0.0642111
000070 86 25 38 3d af 6e 84 be 0b 91 d6 bc 9f 14 84 bd
       0.04495766 -0.25865695 -0.026192209 -0.06449246
000080 5e 3c 7c 3d cf a5 08 be 8d 97 3e 3e 12 79 2c be
       0.061581008 -0.13344501 0.186125 -0.1684306
000090 40 56 47 3e a3 40 ae 3d d2 09 94 bb 87 86 09 be
       0.19466496 0.08508422 -0.0045177722 -0.13430224
0000a0 51 47 90 bd c9 c6 2d 3e d9 ba 8b 3c f0 26 f8 3c
       -0.070448525 0.16970362 0.01705687 0.030292004
0000b0 6e 63 e2 3d c0 16 aa bd ff bd cf bb 93 21 d5 bc
       0.11054121 -0.083051205 -0.006339788 -0.026016986
0000c0 6f 5e 3e 3d c2 8e da bd 0d 70 80 bd 3e 91 13 be
       0.046476778 -0.1067176 -0.06271372 -0.14410874
0000d0 1e e8 89 bb 5e 02 34 bc 68 87 88 3d 45 cc 5b be
       -0.0042085787 -0.0109868925 0.06666452 -0.21464641
0000e0 f6 1e 87 bc 6c 5c 8d 3d b3 16 8a bd ec 6b c1 bd
       -0.016494256 0.06902394 -0.06742611 -0.094444126
0000f0 a7 03 08 be 37 dc 78 3e bd 24 d5 3e 65 8f fd 3d
       -0.13282643 0.24302755 0.41629592 0.12380866
000100 74 d7 23 be 0b 1e 7f bd e6 a5 44 3e d6 73 30 3e
       -0.16000158 -0.06228451 0.1920391 0.17231688
000110 56 19 23 3e 76 a0 d1 3d 8c 8d f6 b9 14 ca 09 3d
       0.15927634 0.102356836 -0.00047026237 0.033639982
000120 9f 19 2b be 58 93 d8 bd 24 20 e1 3c 96 4e c2 bd
       -0.16708992 -0.105749786 0.027481146 -0.09487645
000130 7b 78 de bb 2e 4a a3 be 45 b8 27 bd 2f 61 1c bc
       -0.0067892647 -0.31892532 -0.040947217 -0.009544655
000140 d4 1e a8 be 7a ee c4 3c 7c 5d d7 bc 34 56 17 3e
       -0.3283602 0.024039496 -0.026289694 0.14778978
000150 42 aa 5b bd cd ae 90 be 0e ce 99 bd d5 86 c5 be
       -0.053629167 -0.28258362 -0.07510005 -0.3857943
000160 72 75 8b be c0 b8 41 be 5b 9a 43 be 98 eb 6f be
       -0.2723804 -0.18918133 -0.1910185 -0.23429716
000170 7c ce 34 3d 93 c4 b0 bd 92 f7 7b be 70 1a a3 be
       0.04414223 -0.086312436 -0.2460616 -0.31856108
000180 c9 dd e0 be a3 29 ec bd f6 7f 5f be a9 2e 8a bd
       -0.4391921 -0.11531379 -0.21826157 -0.06747181
000190 bd c5 50 be d5 b4 44 bd 3f 34 1f bd 0c 70 23 be
       -0.20387931 -0.048024017 -0.038868185 -0.15960711
0001a0 7f 8a 4d 3d 50 98 6c be 3a b7 c1 3c 0c ea 12 be
       0.05018091 -0.23104978 0.02364694 -0.14347094
0001b0 f8 d7 0a bd 6c 52 b8 3d ad aa 4f 3e 5b 2e 59 be
       -0.03389737 0.09000096 0.20279951 -0.2120909
0001c0 fc 23 20 3d cd ec 8d 3e 8d 9e 75 bb 78 0a e9 be
       0.039096817 0.27719727 -0.0037478537 -0.455158
0001d0 ef e0 c5 be 7c 26 02 3d 7d 96 34 bd 16 9d 8e 3e
       -0.38648173 0.031774983 -0.04408883 0.27854222
0001e0 13 1c 16 3e 19 3c 09 be fa 83 cd 3d b9 eb f8 3b
       0.14659147 -0.13401832 0.10034938 0.0075964597
0001f0 8e 41 88 bd 34 03 14 bf 89 9d d9 bd d7 09 3b 3d
       -0.066531286 -0.5781739 -0.106257506 0.04566368
000200 3e 15 4a 3d f3 81 ac bd 20 26 df be 1a a1 d5 be
       0.049336664 -0.08423223 -0.43583775 -0.41724473
000210 21 f5 79 3e fd 05 d3 3d 9f 2e cf bd d8 e1 2a be
       0.24409916 0.103038765 -0.10116314 -0.16687715
000220 9d 23 b0 bd 7c 5e 8e bd 25 8a 94 3d 02 22 fb bd
       -0.08600543 -0.06951615 0.072529115 -0.12262346
000230 a4 7c 91 be 85 7e a6 be 32 d9 1c be 4b b7 e6 bd
       -0.28415406 -0.32518402 -0.15317228 -0.11265429
000240 41 ed ed be b3 b1 1b be fe 39 f7 3c bd 05 91 be
       -0.46470073 -0.15204506 0.03017902 -0.2832469
000250 ff 23 f9 bd ad 18 70 3c c4 bd ab bd ad e0 04 bd
       -0.12165069 0.014654321 -0.08385804 -0.03244083
000260 0e c2 98 3d 1b e8 2f be 6c e8 04 bd d8 4f 43 be
       0.07458888 -0.17178385 -0.032448217 -0.19073427
000270 b0 a2 08 3d e4 dd 2a 3e 40 fe b1 3a 5d f1 56 bd
       0.033358276 0.16686207 0.0013579801 -0.052476276
000280 1e 5b 16 be 62 46 9d 3e 1e 7c 7a 3e 5c d3 91 be
       -0.14683196 0.3071776 0.2446141 -0.28481567
000290 9c d0 b8 3d 06 38 71 be f0 3c d4 3d c1 de c0 be
       0.09024164 -0.23556527 0.103631854 -0.37669948
0002a0 ac 02 e4 bc cc 82 df be 39 89 af 3c db 7d 12 3e
       -0.027833305 -0.43654478 0.021427738 0.14305823
0002b0 32 73 e4 3d 6c 3a e4 ba 94 01 aa bd 58 cd a9 3d
       0.11154784 -0.0017412431 -0.08301082 0.08291119
0002c0 45 c4 22 3d 0a fe ae be 3d 04 08 be 0d 6d 56 bd
       0.03973796 -0.3417819 -0.13282867 -0.052350093
0002d0 77 fc 19 3d a7 1b a4 bd e4 86 8d be 60 eb ce 3d
       0.037594285 -0.08013087 -0.27641976 0.10103488
0002e0 7e 64 22 3c a0 e4 88 3e 64 ed 32 bd 1e 53 b3 3d
       0.0099116545 0.26736927 -0.043683425 0.08756088
0002f0 3c 14 54 bf cc 81 d0 3d 65 2d 05 bd 7d 99 33 3e
       -0.82843375 0.10181007 -0.032513995 0.1753902
000300 12 bb 54 bd 6e 8a e8 bd 6a 9c e9 bd a3 52 ff 3d
       -0.051936217 -0.11354528 -0.11406787 0.124669336
000310 fd 54 4f be 31 70 a6 bc b6 10 41 be f0 ee fb 3c
       -0.20247264 -0.020317169 -0.18854031 0.030753583
000320 c8 15 f8 be e4 24 95 be 9a 7b dc bd 75 b7 12 bd
       -0.48454118 -0.29129708 -0.107657626 -0.03581949
000330 67 be 2c bd c1 a1 97 3d bd 2e 97 bc 6d 78 1c 3e
       -0.04217377 0.07403899 -0.018454904 0.15280314
000340 79 94 ea 3b 2a 66 6a 3e f0 2f 07 3e 57 f0 2a 3e
       0.0071588126 0.22890535 0.1320188 0.16693245
000350 da 7e c6 3c db a8 ed bd 9b 96 9f bd 2f e9 fa 3d
       0.02423041 -0.11604472 -0.077923976 0.122515075
000360 36 dc 7f 3d c2 47 9d 3c 27 68 7e 3d 89 5a 72 3e
       0.06246587 0.019199256 0.062111046 0.23667349
000370 ed aa 2e 3e 47 2e 54 be bc f0 61 be f2 e6 fd bd
       0.1705739 -0.20720778 -0.22064489 -0.12397565
000380 f6 97 96 3e ef 85 8c 3e fa 18 71 be 47 6b f2 bd
       0.29412812 0.27445933 -0.23544684 -0.11836868
000390 b5 87 18 bd 9d ab af 3d b2 68 9f 3d 39 46 66 3e
       -0.037238795 0.085776545 0.07783641 0.22487725
0003a0 f8 3f 9c 3e c7 9d 4b 3e 32 6f eb bd 0e af 56 3e
       0.30517554 0.19884406 -0.11495818 0.20965216
0003b0 31 cf 1a be b0 a3 9d bd 17 d5 53 3d 71 3c 42 3e
       -0.151181 -0.076972365 0.05171689 0.18968369

out.bias f4 [3]
000000 9b 45 20 3f b1 05 00 40 62 57 c4 c0
       0.6260621 2.0003474 -6.135667
