Machine_Learning/Week_9_Prep/MLPW9.pt (torch, 355927 bytes, 6 tensors)

fc1.weight f4 [200, 360]
0	0x3da2068f	0.07911407
1	0x3cd22683	0.02565313
2	0x3d1b3efe	0.03790187
3	0x3d8d34fb	0.06894871
4	0xbc899e7c	-0.016799204
5	0x3cf14349	0.02945103
6	0x3d44611c	0.047944173
7	0xbcb22504	-0.021746166
8	0x3c8539cf	0.016262917
9	0xbb3c75e8	-0.00287568
10	0x3d7f4c79	0.06232879
11	0x3d277ce7	0.0408906
12	0x3daebdf8	0.085323274
13	0x3d2b7e3f	0.041868445
14	0x3d89fa9b	0.06737252
15	0x3cdc40fd	0.026886458
16	0x3df989f8	0.121845186
17	0xbc2a4d36	-0.010394385
18	0x3d496e31	0.049177352
19	0x3d3d12f9	0.04616067
20	0x3bfd0351	0.0077213426
21	0x3da244d7	0.079232864
22	0x3d4695a9	0.04848257
23	0x3d19c7a3	0.037543904
24	0x3dae5e86	0.08514123
25	0x3d40638b	0.04696993
26	0x3d097a47	0.03356388
27	0x3d287427	0.041126397
28	0x3d079cd3	0.033108544
29	0x3d90e9b7	0.070758276
30	0xbb4f69a4	-0.003164866
31	0x3d52c52e	0.051457576
32	0x3d6d2f34	0.057906345
33	0xbdb6ad0e	-0.08919726
34	0xbcee9f86	-0.029128801
35	0xbd03911f	-0.03212082
36	0x3d0dadda	0.034589626
37	0x3becc156	0.007225196
38	0xbcc78aad	-0.024358118
39	0x3d856ddc	0.06515095
40	0xbdbf0952	-0.093279496
41	0xbd440afa	-0.04786203
42	0xbc9689ba	-0.01837622
43	0xbddc452b	-0.1075538
44	0xbda8f1cf	-0.08249246
45	0x3d926c71	0.0714959
46	0x3d33ff21	0.04394448
47	0x3d014cf8	0.031567544
48	0x3d8de439	0.06928296
49	0x3d1a05c5	0.03760316
50	0x3dd03a43	0.101673625
51	0x3d04e701	0.032446865
52	0xbb5ec56a	-0.003399218
53	0xbca99b97	-0.020704074
54	0x3d0f51fc	0.034990296
55	0xbddb3047	-0.107025675
56	0xbdb060f5	-0.08612243
57	0xbd5a0d5b	-0.053235393
58	0x3c8aaf34	0.016929246
59	0xbce9bd29	-0.028532581
60	0x3d2c2a27	0.042032387
61	0xbd2b5ba4	-0.041835442
62	0xbc830142	-0.01599181
63	0xbd9b31ab	-0.07577833
64	0xbdaf127a	-0.08548446
65	0xbe12e985	-0.14346893
66	0xbc9b7173	-0.018974995
67	0xbb027bc6	-0.00199102
68	0x39d2676a	0.0004013137
69	0xbd0154e5	-0.031575102
70	0xbd6f3d70	-0.0584082
71	0x3ca8c7e0	0.02060312
72	0x399d4823	0.0002999912
73	0xbce3f721	-0.027827801
74	0xbd97198d	-0.0737792
75	0xbdcc25c5	-0.099681415
76	0xbcb43deb	-0.022002181
77	0xbcf7a43f	-0.030229686
78	0xbd9fbc4d	-0.077995874
79	0xbc46e12a	-0.012138644
80	0xbd57d274	-0.052690938
81	0xbd09880e	-0.033577017
82	0xbd0b3be1	-0.03399265
83	0xbdb66d80	-0.08907604
84	0xbd93a589	-0.07209308
85	0xbda75eb6	-0.081723616
86	0xbcb038a5	-0.021511385
87	0xbd6862f1	-0.056734983
88	0xbd834a57	-0.064106636
89	0xbd2df84a	-0.042473115
90	0xbd8fc562	-0.0702007
91	0xbcde9968	-0.02717276
92	0xbcf74175	-0.03018258
93	0xbd554d0a	-0.052075423
94	0x3c1c18bb	0.009527381
95	0x396525c4	0.0002185321
96	0x3b1a6710	0.0023559965
97	0xbce9dece	-0.028548624
98	0x3d0c0e35	0.034193236
99	0x3d7afb66	0.06127491
100	0x3b725e08	0.0036982317
101	0x3cd73da4	0.02627451
102	0xbd924ee6	-0.07143955
103	0x3d335e10	0.043790877
104	0xbd809b38	-0.062796056
105	0xbd12880d	-0.03577428
106	0x3cb7ba41	0.02242768
107	0xbcf85d83	-0.030318027
108	0xbd27534d	-0.040850926
109	0xbd955878	-0.07292265
110	0x3cb5b435	0.022180656
111	0x3d2ba4be	0.041905157
112	0xbc6ceffb	-0.014461513
113	0xbbab78a3	-0.005232887
114	0xbd601487	-0.054707076
115	0xbd9a73de	-0.07541631
116	0xbd8696a5	-0.06571702
117	0xbda81cf2	-0.08208646
118	0xbde6b7a0	-0.112654924
119	0xbda3ff9b	-0.08007737
120	0x3d0af382	0.033923633
121	0x3c1d9e5a	0.0096202735
122	0x3d196298	0.037447542
123	0x3d3cc7f8	0.046089143
124	0x3d56db6b	0.052455347
125	0x3c306097	0.010765216
126	0x3d74e120	0.05978501
127	0x3a898546	0.0010491989
128	0x3d219bf6	0.039455377
129	0x3dad3f19	0.084593005
130	0x3d919471	0.07108391
131	0x3d85f7da	0.065414146
132	0x3b5f5486	0.003407748
133	0xbce9f467	-0.028558923
134	0x3d234d0b	0.039868396
135	0x3d89e308	0.06732756
136	0x3d269651	0.040670697
137	0x3bb016bf	0.0053738053
138	0x3d30a4f3	0.043126058
139	0xbc5c9a42	-0.013464512
140	0xbc380a0e	-0.011232866
141	0xbca914c7	-0.02063979
142	0xbcfc90e4	-0.030830808
143	0x3a6cdfab	0.00090360147
144	0xbd7d0c9f	-0.061779615
145	0x3c31bd53	0.010848361
146	0xbdcb8ec6	-0.09939341
147	0xbd98fdad	-0.0747026
148	0xbd23d74b	-0.04000024
149	0xbd8d3d20	-0.06896424
150	0xbdb16a7f	-0.08662891
151	0xbde6f266	-0.112767026
152	0xbd1f5fbe	-0.038909666
153	0xbcf6f6df	-0.030147014
154	0xbd978ebe	-0.07400273
155	0xbdb304b8	-0.087411344
156	0xbd7ee103	-0.062226307
157	0xbda71960	-0.08159137
158	0xbcfeacc5	-0.031088242
159	0xbd361f6b	-0.044463556
160	0xbd178fa3	-0.037002217
161	0xbd80a818	-0.06282061
162	0xbba5f274	-0.005064303
163	0xbd6d7899	-0.05797634
164	0xbd16711e	-0.03672897
165	0xbd482643	-0.048864614
166	0xbd9efd35	-0.07763139
167	0xbe3310e2	-0.17486909
168	0xbe34b170	-0.17645812
169	0xbd578797	-0.052619543
170	0xbdc73a6e	-0.097279415
171	0xbd90af77	-0.07064717
172	0x3ccc4c2e	0.024938669
173	0x3b75382f	0.0037417521
174	0x3d1078eb	0.035271566
175	0x3ce823c3	0.028337365
176	0x3d7cf4a4	0.061756745
177	0xbc8a27d8	-0.016864702
178	0x3c3170af	0.0108300885
179	0xbd9eb8ba	-0.077500775
180	0xbdb7ae6a	-0.08968814
181	0xbd06f561	-0.032948855
182	0xbc97868d	-0.018496776
183	0x3cd602e0	0.026124418
184	0xbcc0efc7	-0.023551835
185	0x3b888661	0.00416641
186	0xbdc02146	-0.093813464
187	0xbe09ad4c	-0.13445014
188	0xbcbd55e7	-0.02311225
189	0x3c9742aa	0.018464405
190	0x3dcfdd2d	0.10149608
191	0x3dd34d0f	0.10317432
192	0xbb936187	-0.00449771
193	0x3cab87e8	0.020938829
194	0x3d03e189	0.03219751
195	0x3e12642a	0.14296022
196	0x3d3c466e	0.045965604
197	0x3df67811	0.120346196
198	0x3e04a181	0.12952234
199	0x3dcebf20	0.10095048
200	0xbd778cfe	-0.060437195
201	0xb8b7850b	-8.750901e-05
202	0xbd10909d	-0.035294164
203	0xbd5b37c0	-0.053519964
204	0xbd67eaae	-0.056620292
205	0xbe18a546	-0.14906797
206	0xbddde8f4	-0.10835448
207	0xbdc96bfb	-0.09835049
208	0xbe16a0bf	-0.14709757
209	0xbdeaf587	-0.11472612
210	0xbe0c8bcb	-0.13725202
211	0xbddada47	-0.10686164
212	0xbda3fb52	-0.0800692
213	0xbde28679	-0.11060805
214	0xbdffe0f4	-0.12494078
215	0xbd5d9311	-0.05409533
216	0xbdc3b556	-0.095560715
217	0xb943c77f	-0.00018670967
218	0xbc90d420	-0.017679274
219	0xbce878dc	-0.028377943
220	0xbd9fb7e9	-0.0779875
221	0x3c45f92b	0.012083332
222	0xbd9796cc	-0.07401809
223	0x3c4e5701	0.012593986
224	0xbc03a5df	-0.008035152
225	0x3b8caaff	0.0042928453
226	0x3da8e68c	0.08247098
227	0x3dfc604f	0.12323057
228	0x3df11dba	0.11773248
229	0x3e2b3850	0.167207
230	0x3dfaac03	0.1223984
231	0x3d9a0b67	0.07521706
232	0x3dfa131a	0.122106746
233	0x3de56db0	0.11202562
234	0x3e025501	0.12727739
235	0x3dd9841e	0.106209025
236	0x3d6ec81e	0.058296315
237	0x3da5f797	0.08103865
238	0x3df59763	0.11991765
239	0x3da4e4e9	0.08051474
240	0x3d39ec6b	0.04539148
241	0x3d009472	0.03139157
242	0x3d93d16e	0.0721768
243	0x3cda7fbf	0.026672242
244	0x3c84932f	0.016183464
245	0x3b0e1cbe	0.0021684612
246	0x3c8c2f19	0.017112302
247	0x3da4a568	0.08039361
248	0x3b5e06b3	0.0033878505
249	0x3cc5b274	0.024132945
250	0x3d8ba00d	0.06817637
251	0x3d1edf8c	0.03878741
252	0x3c350145	0.011047666
253	0x3ce79fd0	0.028274447
254	0x3d4c831d	0.049929727
255	0xbb87e0d3	-0.004146674

fc1.bias f4 [200]
0	0xbd84dbc0	-0.064872265
1	0xbcde1ea7	-0.027114226
2	0xbcce3cb0	-0.025175422
3	0x3db1f25a	0.08688803
4	0xbca2d165	-0.019875238
5	0xbbea86f4	-0.007157201
6	0xbc7f5559	-0.015584313
7	0xbb9a0353	-0.0047001033
8	0x3d19d60f	0.037557658
9	0x3c114a12	0.008867757
10	0xbd2d2e75	-0.042280633
11	0xbd302777	-0.043006387
12	0xbdadb5cd	-0.08481941
13	0xba149279	-0.0005667578
14	0xbdba9002	-0.091094986
15	0xbd82dc23	-0.06389644
16	0x3da3857f	0.07984447
17	0x3d949959	0.07255811
18	0x3d517330	0.051135242
19	0x3aa32ab0	0.0012448635
20	0x3dcd01d6	0.10010116
21	0xbc47a830	-0.012186095
22	0xbca1201f	-0.019668637
23	0x3cf85541	0.03031409
24	0xbba16513	-0.004925379
25	0xbd102a88	-0.03519681
26	0x3a4b8e9c	0.0007765086
27	0x3d6548cb	0.055977624
28	0x3b8aace9	0.0042320383
29	0xbc60f168	-0.013729431
30	0xbbfcce11	-0.0077149947
31	0xbdab8702	-0.0837536
32	0xbd2a6e80	-0.041609287
33	0xbd946532	-0.07245864
34	0x3df031c6	0.117282435
35	0x3ce6ac36	0.028158288
36	0xbcdf51d6	-0.027260702
37	0xbc1708c4	-0.0092183985
38	0xbdd90c5e	-0.10598062
39	0xbd94135c	-0.07230255
40	0x3d383ce0	0.04497993
41	0xbced6800	-0.028980255
42	0x3b4c4664	0.0031169886
43	0xbce56836	-0.028003793
44	0xbc6db583	-0.014508608
45	0x3ce6f6bf	0.02819383
46	0xbdb6b967	-0.089220814
47	0xbd79430f	-0.060854968
48	0x3de0a79d	0.1096947
49	0xbcd7d9b5	-0.026348928
50	0xbd74c0bf	-0.05975413
51	0x3d069ffd	0.03286742
52	0x3d470862	0.04859198
53	0x3b88ab56	0.0041708155
54	0x3cc0c0b3	0.023529386
55	0xbd87cfdb	-0.06631442
56	0x3d2ea385	0.042636413
57	0x3c8dc538	0.017305955
58	0xbd8169af	-0.06318986
59	0x3a85366b	0.0010163313
60	0x3c9c3c1d	0.019071633
61	0xbd6d2d4c	-0.057904527
62	0xbd9f81f8	-0.077884614
63	0xbcc6ac9f	-0.024252234
64	0xbdad1533	-0.08451309
65	0xbc4509af	-0.0120262345
66	0x3bfdbc69	0.0077434075
67	0x3dd553f3	0.10416403
68	0x3d487e08	0.048948318
69	0x3cb89635	0.022532562
70	0xbda53118	-0.080660045
71	0x3b4988d8	0.0030751731
72	0x3b905b03	0.0044053807
73	0xbd510a11	-0.05103499
74	0xbda57451	-0.08078826
75	0x3c5dbce7	0.013533807
76	0x3ceb9bb4	0.028760768
77	0x3c2b56bc	0.010457691
78	0x3c264942	0.010149302
79	0xbd3f2ed1	-0.046675507
80	0xbd41d738	-0.04732439
81	0xbd4b5445	-0.049640913
82	0xbc6596f6	-0.014013043
83	0x3d2e76c7	0.042593744
84	0x3d9edc74	0.07756892
85	0xbdc2d44f	-0.09513151
86	0xbd02cda1	-0.031934384
87	0x3d127ad3	0.035761666
88	0xbcc0f401	-0.02355385
89	0x3c03e35f	0.008049815
90	0x3ca0334f	0.019555716
91	0x3ccba05c	0.024856739
92	0xbdb3707e	-0.087616906
93	0x3d46a7ae	0.048499756
94	0x3c30e342	0.01079637
95	0xbd229c63	-0.039699923
96	0xbd67da34	-0.05660458
97	0xbc984b3c	-0.018590562
98	0x3d5f3a5f	0.054499026
99	0xbd55dc35	-0.05221196
100	0xbd014f1a	-0.031569578
101	0x3c0873e2	0.00832841
102	0xbd8b6563	-0.06806447
103	0xbde32fab	-0.11093076
104	0xbcae3e9d	-0.02127009
105	0xbcb202bf	-0.021729825
106	0x3d1794d6	0.037007175
107	0xbbea5e08	-0.0071523227
108	0xbd94a785	-0.07258514
109	0xbb2141fc	-0.002460598
110	0xbc27ecd7	-0.010249338
111	0xbc53c1e5	-0.012924646
112	0x3dc6d94d	0.097094156
113	0x3cc68d6f	0.024237363
114	0xbd7215cd	-0.059102822
115	0x3d554cd8	0.052075237
116	0xbb3b0ab0	-0.0028540306
117	0xbceb8a4f	-0.028752474
118	0xbd169aa3	-0.036768567
119	0x3ce4a93e	0.027912732
120	0xbcb8eb0f	-0.022573022
121	0xbce9a858	-0.028522655
122	0xbd61dbe4	-0.055141345
123	0x3d10593d	0.035241354
124	0x3bd4f301	0.006498695
125	0x3d0143a5	0.03155865
126	0xbcf3f5f7	-0.029780371
127	0xbb9d6163	-0.004802869
128	0xbd88d675	-0.066815294
129	0x3d51b9b1	0.05120248
130	0x3d61da2f	0.055139717
131	0xbc2792b9	-0.0102278525
132	0xbc621d6f	-0.013800963
133	0x3cf60490	0.030031472
134	0xbc1a7233	-0.009426641
135	0x3d99bc14	0.07506576
136	0xbdc6d355	-0.09708277
137	0xbd687d17	-0.05675992
138	0xbd26b762	-0.04070223
139	0xbd9250e0	-0.07144332
140	0xbc161556	-0.00916036
141	0x3d04b20d	0.032396365
142	0xbc86709c	-0.016411118
143	0xbdd4a787	-0.10383516
144	0xbcc70d7d	-0.024298424
145	0x3d6a7fce	0.05725079
146	0xbcf2ea6c	-0.029652797
147	0x3a848194	0.0010109418
148	0xbdca1cfd	-0.0986881
149	0xbb857948	-0.0040732957
150	0xbd176b94	-0.03696783
151	0x3ca3fec9	0.020018952
152	0xbb6450b0	-0.0034838133
153	0x3d9c33a2	0.07627036
154	0x3c5d0233	0.013489294
155	0xba2690e1	-0.0006353986
156	0xbcc0abbd	-0.023519391
157	0xbc8c06c2	-0.017093066
158	0x3c9c87f0	0.019107789
159	0xbcc35899	-0.023845958
160	0x3cd8c66a	0.026461799
161	0x3ca756d2	0.020427141
162	0x3b790464	0.0037997002
163	0x3cf93231	0.030419441
164	0x3cc90bae	0.024541702
165	0xbcbf6bfe	-0.023366924
166	0xbda0af09	-0.07845885
167	0xbd382573	-0.04495759
168	0xbd3cdfec	-0.046111986
169	0xbd3762b1	-0.044771854
170	0xbd3a305b	-0.04545627
171	0x3dc1cfb5	0.09463445
172	0xbcef88c7	-0.029240025
173	0xbcdd9384	-0.02704788
174	0xbced66f5	-0.028979758
175	0xbd91a302	-0.071111694
176	0xbcc34089	-0.023834484
177	0xbd3a3e8c	-0.045469806
178	0x3c46830e	0.012116207
179	0x3baf4e29	0.0053498936
180	0x3c61de22	0.013785871
181	0x3c92de9e	0.017928418
182	0x3d348c67	0.04407921
183	0x3d139b6c	0.036036894
184	0x3cc03ca5	0.023466418
185	0xbc01aabe	-0.007914243
186	0x3ba64b6a	0.005074908
187	0xbcb4ba11	-0.02206138
188	0xbd308e3d	-0.0431044
189	0x3cab5ebd	0.020919198
190	0x3bee08f7	0.0072642523
191	0xbb8e37c9	-0.004340146
192	0xbdfe95f5	-0.12430946
193	0xbd3250dd	-0.04353415
194	0xbd10975e	-0.035300605
195	0x3cdb68a9	0.026783304
196	0xbc48dffd	-0.012260434
197	0xbcea2cbe	-0.028585788
198	0x3b63e6fc	0.0034775129
199	0xbdc1f75e	-0.0947101

fc2.weight f4 [80, 200]
0	0xbddf28f5	-0.10896484
1	0xbe14ec4c	-0.14543265
2	0x3dad8f9b	0.08474656
3	0x3d484dbe	0.048902266
4	0x3d906111	0.07049764
5	0x3d680b8a	0.05665163
6	0x3c4056b2	0.01173942
7	0x3de1d9d4	0.110278755
8	0xbb99b55c	-0.004690809
9	0x3b03706e	0.0020056027
10	0x3daea08c	0.08526716
11	0x3d419f62	0.04727114
12	0x3cb69b33	0.022290802
13	0x3d1c996b	0.03823225
14	0xbbea372f	-0.0071476917
15	0xbc562b24	-0.013071809
16	0x3da9dc9c	0.08294031
17	0x3d80e1f0	0.06293094
18	0x3cd528d7	0.02602045
19	0x3df2fba7	0.11864405
20	0x3d81e655	0.063427605
21	0x3bfd98ec	0.007739177
22	0x3d90d21b	0.070713244
23	0x3d6d969c	0.05800496
24	0xbda6282c	-0.08113131
25	0xbd04a066	-0.03237953
26	0xbc8d4027	-0.017242504
27	0xbd18e060	-0.037323356
28	0xbd41728b	-0.047228377
29	0xbc970984	-0.018437155
30	0xbd7f6634	-0.062353328
31	0xbdee5ed2	-0.11639179
32	0x3e0224a3	0.12709288
33	0x3dcf1912	0.10112204
34	0xbd244449	-0.040104184
35	0x3b7eac82	0.0038860147
36	0xbdae024e	-0.08496533
37	0x3d9267b8	0.07148689
38	0x3de6c340	0.1126771
39	0x3de31457	0.11087864
40	0xbcb00191	-0.021485122
41	0xbdbf2328	-0.093328774
42	0xbdf08c8e	-0.11745559
43	0xbe2853fc	-0.16438287
44	0x3dd6e7f8	0.10493463
45	0x3daa5d85	0.08318619
46	0xbe106e4e	-0.14104578
47	0xbdbaf5d1	-0.09128917
48	0x3d494f8c	0.049148127
49	0xbdbedd93	-0.09319606
50	0x3d9b1e20	0.07574105
51	0x3d57a7fe	0.052650444
52	0xbde1f0b4	-0.110322386
53	0xbd09be57	-0.033628788
54	0xbd8d558b	-0.06901082
55	0xbdf7df23	-0.12103107
56	0xbd967904	-0.07347301
57	0xbd4ac5bf	-0.04950499
58	0x3d1380f5	0.036011655
59	0xbe401009	-0.18756117
60	0xbdfa6ef9	-0.122281976
61	0x3c106f62	0.008815618
62	0x3d8a031e	0.06738876
63	0x3ccd441a	0.025056887
64	0xbe36514d	-0.17804451
65	0x3d6ab9e0	0.05730617
66	0xbc7e7c6f	-0.015532597
67	0xbd39b03a	-0.04533408
68	0xbd07c89d	-0.033150304
69	0x3d6d5fa5	0.05795254
70	0x3d9e073f	0.07716226
71	0x3dd6262f	0.10456502
72	0x3afca260	0.0019274466
73	0x3db84be3	0.08998849
74	0xbc6746d8	-0.014116012
75	0x3b3cc9c5	0.0028806787
76	0x3d08279c	0.0332409
77	0xbdedaf6f	-0.11605727
78	0x3db9c194	0.09070125
79	0xb9c04eeb	-0.00036679892
80	0x3dc7645d	0.0973594
81	0x3e22a284	0.15882307
82	0x3ccd124c	0.025033139
83	0xbe3453f1	-0.17610146
84	0x3d9569c1	0.072955616
85	0x3bdfff47	0.0068358514
86	0xbca9a690	-0.020709306
87	0x3dbd4efa	0.09243579
88	0x3dd4bf5d	0.10388062
89	0x3cb053c8	0.021524325
90	0x3c3b6b73	0.011439192
91	0xbd98d1e9	-0.07461912
92	0x3d9775b0	0.07395494
93	0x3dad564f	0.08463728
94	0xbdc1457e	-0.09437083
95	0xbe2b139b	-0.16706698
96	0xbdd2f68d	-0.10300932
97	0xbcbcd067	-0.023048593
98	0xbd2a015b	-0.0415052
99	0x3de9bf79	0.11413474
100	0x3d7c08bd	0.06153177
101	0x3da1d0b3	0.07901134
102	0x3d39fa76	0.045404874
103	0xbca39030	-0.019966215
104	0xbc0a98e0	-0.0084593
105	0xbe2d0a5a	-0.1689848
106	0x3dedbc84	0.11608222
107	0x3ddfeb15	0.1093351
108	0xbcdb7320	-0.026788294
109	0xbe0928c8	-0.13394463
110	0x3d83d28f	0.06436645
111	0xbddcc7ee	-0.10780321
112	0x3e058229	0.13037933
113	0x3d2f4843	0.042793524
114	0x3da18f77	0.07888692
115	0xbd43be7d	-0.047789086
116	0xbe3440d7	-0.1760286
117	0x3d5475cf	0.051870164
118	0x3d8b8fab	0.06814512
119	0x3cdf7e49	0.027281897
120	0xba805177	-0.0009789903
121	0xbe809bc2	-0.25118834
122	0x3da9021c	0.082523555
123	0x3d3f3293	0.04667909
124	0x3ca9371d	0.020656163
125	0xbd5f0309	-0.054446254
126	0xbd6b859c	-0.057500467
127	0xbe152bc3	-0.14567475
128	0xbd807b55	-0.06273524
129	0x3d7a2ad7	0.06107601
130	0x3d9b1959	0.07573194
131	0xbe0454d4	-0.12922984
132	0x3d8ad752	0.0677935
133	0x3ae7a99c	0.0017674449
134	0x3d193ef1	0.03741354
135	0xba0c1104	-0.00053431117
136	0xbd98181e	-0.07426475
137	0x3e08b78d	0.13351269
138	0x3d956cd2	0.072961465
139	0xbe13c4a0	-0.14430475
140	0xbcea20e6	-0.02858014
141	0x3c83da97	0.016095443
142	0x3db0267e	0.08601092
143	0x3d72cc9d	0.059277166
144	0xbe5be52b	-0.2147414
145	0x3ddd87c3	0.1081691
146	0x3dead197	0.11465757
147	0x3d26a1e1	0.040681724
148	0x3d8a8d92	0.06765284
149	0x3d6bd2e7	0.05757418
150	0x3d084745	0.033271093
151	0xbc701315	-0.014652987
152	0xbe1c3067	-0.15252839
153	0x3d180f63	0.03712405
154	0xbc80c8df	-0.015720783
155	0xbe03a7bb	-0.12856953
156	0xbc1a7e15	-0.009429474
157	0x3de9672f	0.11396634
158	0xbd9ac69d	-0.07557414
159	0x3ddf9ab4	0.10918179
160	0x3c100f05	0.008792643
161	0xbda6df07	-0.08148008
162	0xbda4bd7c	-0.08043954
163	0xbd2a5b29	-0.041590843
164	0x3c360fba	0.011112148
165	0xbd9c9f85	-0.076476134
166	0x3d820f0a	0.06350525
167	0x3d072b4f	0.033000287
168	0x3da46777	0.08027547
169	0x3e036bd2	0.12834099
170	0x3d8fa03c	0.07012984
171	0x3dd214ee	0.10257898
172	0xbe187b88	-0.14890873
173	0xbe0cd3cd	-0.1375267
174	0x3cbeedd2	0.023306761
175	0x3d23daac	0.040003464
176	0x3c557b26	0.013029849
177	0xbe12b77c	-0.14327806
178	0xbdba6309	-0.09100921
179	0x3d9af2e1	0.07565857
180	0xbd821543	-0.063517116
181	0xb8cd7bce	-9.798222e-05
182	0x3d52b2c2	0.051440008
183	0xbd051268	-0.032488257
184	0x3da3e5f7	0.08002847
185	0xbc3c4236	-0.011490395
186	0xbd698b44	-0.05701758
187	0x3b0cb911	0.0021472613
188	0xbe452ae4	-0.19254643
189	0x3daaf566	0.08347587
190	0x3cc49c40	0.024000287
191	0x3d2a808b	0.041626494
192	0x3dff376a	0.12461741
193	0x3dbc47a8	0.09193355
194	0x3cda5a0c	0.026654266
195	0xba2653a2	-0.000634486
196	0x3dc37721	0.095442064
197	0xbd55a5fd	-0.052160252
198	0x3da46e70	0.08028877
199	0x3c5f9d27	0.013648308
200	0xbd3973d6	-0.045276485
201	0x3cb5e94a	0.022205967
202	0x3d7ba898	0.06144008
203	0xbd8b729f	-0.068089716
204	0x3cd215f8	0.025645241
205	0x3bf88f7f	0.0075854654
206	0xbce58075	-0.028015355
207	0x3d0e8639	0.034795973
208	0x3d00bf76	0.03143259
209	0xbd2fd375	-0.04292627
210	0x3d8a20d8	0.06744546
211	0x3d83ee03	0.064418815
212	0x3e2e91bd	0.17047782
213	0x3da8a3da	0.08234377
214	0x3b3bbb4c	0.0028645573
215	0x3d9eec9e	0.07759975
216	0x3d91e75f	0.07124209
217	0x3d750f6c	0.05982916
218	0xbd2e3975	-0.042535264
219	0x3d0305b4	0.03198786
220	0xbc84c69e	-0.01620799
221	0x3dbfce97	0.09365576
222	0x3dd450e8	0.10366994
223	0x3d1f2354	0.03885205
224	0x3e216ec3	0.15764908
225	0xbd881ac2	-0.06645729
226	0x3cd9ec86	0.026602041
227	0xbda44742	-0.08021404
228	0x3b825054	0.003976861
229	0x3b8f191f	0.0043670083
230	0x3e026e4e	0.1273739
231	0x3dfcbad3	0.123403214
232	0x3d3913d8	0.04518494
233	0x3cf259c8	0.029583827
234	0xbdc78884	-0.09742835
235	0x3db364f0	0.08759487
236	0x3c5f02ee	0.013611538
237	0x3d50a0d7	0.05093464
238	0x3e1e1dea	0.15441099
239	0x3e27b5e9	0.16377987
240	0x3c1d5125	0.009601866
241	0xbd5f1f88	-0.05447343
242	0x3d319361	0.043353442
243	0x3d391950	0.045190156
244	0x3b95877d	0.0045632706
245	0xbcb26ea0	-0.021781266
246	0x3db9f157	0.09079235
247	0x3c95bf32	0.018279646
248	0xbd70111e	-0.058610074
249	0xbd8246c6	-0.06361155
250	0x3dad83e3	0.08472421
251	0x3a97de3a	0.0011586614
252	0x3ccd5068	0.025062755
253	0xbdd3a803	-0.1033478
254	0xbd2c40f0	-0.042054117
255	0xbd1cea34	-0.03830929

fc2.bias f4 [80]
0	0xbb60fb2e	-0.0034329402
1	0xbd42262a	-0.047399677
2	0xbd6e34f2	-0.05815596
3	0x3d37c601	0.044866566
4	0x3cc44f93	0.023963725
5	0xbcbcb093	-0.023033416
6	0x3dfa9062	0.1223457
7	0x39ef8413	0.00045684035
8	0x3c86c66e	0.01645204
9	0x3c59d177	0.013294569
10	0x3d611919	0.054955576
11	0x3cedf3f1	0.029046984
12	0x3d8b1622	0.06791331
13	0x3ca53613	0.020167386
14	0x3d978865	0.07399062
15	0x3d968c7b	0.07351013
16	0x3e297f4f	0.1655247
17	0xbd8ba624	-0.06818798
18	0x3d0b70d7	0.03404316
19	0x3d81b04d	0.06332455
20	0x3d635624	0.055502072
21	0x3ad58b31	0.0016292093
22	0xbc17b4a2	-0.009259375
23	0x3d0d5940	0.034508944
24	0xba4b8d98	-0.00077649346
25	0x3d80d860	0.0629127
26	0xbc38b0f6	-0.0112726595
27	0xbc6afbec	-0.014342289
28	0x3e0af253	0.13569002
29	0x3d397557	0.04527792
30	0x3c976b80	0.018483877
31	0x3cc38814	0.023868598
32	0x3cf2c1b3	0.029633379
33	0x3d74a09f	0.059723493
34	0xbd0cf1c4	-0.034410253
35	0x3d6404a3	0.055668484
36	0x3cd35716	0.025798362
37	0x3d693b81	0.056941513
38	0x3e01e4db	0.12684958
39	0x3e0052f3	0.12531643
40	0x3cc044a7	0.023470236
41	0x3c9464b8	0.018114433
42	0x3dee3abb	0.11632296
43	0xbce6b599	-0.028162764
44	0x3bc7c0b6	0.006095971
45	0xbd4aea36	-0.049539767
46	0x3d3b7cba	0.045773245
47	0x3b96971d	0.004595651
48	0x3d479d4a	0.048733987
49	0x3cf652ba	0.030068744
50	0x3d0eafef	0.034835752
51	0x3d3b6ca0	0.04575789
52	0xbd197253	-0.037462544
53	0x3d306518	0.04306516
54	0x3dc2a53d	0.09504173
55	0xbd4c27f4	-0.04984279
56	0xbb58d751	-0.0033087323
57	0xbaaa6dfc	-0.0013002749
58	0xbc1fe482	-0.00975907
59	0xbcf585fa	-0.029971112
60	0x3c9d5a6f	0.019208161
61	0x3df24f5f	0.11831545
62	0x3d9b1f36	0.075743124
63	0x3dae72d1	0.08517993
64	0x3ca59c18	0.020216033
65	0xbd598000	-0.053100586
66	0xbcae0a9d	-0.021245295
67	0x3c6fa9b2	0.014627861
68	0x3ca62841	0.020282866
69	0x3d78122d	0.06056421
70	0xbcdabde1	-0.02670187
71	0x3c915b37	0.01774369
72	0x3cc4d1bf	0.024025796
73	0xbd6f2115	-0.05838116
74	0x3a7d4b7a	0.0009662431
75	0xbcd4302c	-0.025901876
76	0xba2d1194	-0.00066020456
77	0xbd62f723	-0.05541147
78	0x3d1ec490	0.038761675
79	0x3dd85d75	0.105647005

out.weight f4 [3, 80]
0	0xbe4187fb	-0.18899529
1	0x3dd7d9ec	0.10539612
2	0x3e0c9a09	0.13730635
3	0xbedbc423	-0.42923078
4	0x3dc78176	0.097414896
5	0xbdb222ca	-0.08698042
6	0x3dba0371	0.09082688
7	0x3dcbdfe3	0.099548124
8	0x3e194da5	0.14971025
9	0xbb5b73cf	-0.0033485775
10	0x3d99086e	0.07472311
11	0xbe15ca03	-0.14627843
12	0xbe49139a	-0.19636384
13	0x3dc9839e	0.09839557
14	0x3e0774cb	0.13228147
15	0xbd9939d1	-0.07481731
16	0xbe831f9f	-0.25610062
17	0xbd87ee49	-0.06637246
18	0xbdf74e32	-0.120754614
19	0xbe89857d	-0.26859656
20	0x3de9a420	0.114082575
21	0x3d056d8a	0.032575168
22	0x3e43b3f3	0.19111614
23	0x3d8a46ee	0.0675181
24	0x3e5281aa	0.20557275
25	0xbe151c12	-0.14561489
26	0xbf1ff6ac	-0.62485766
27	0xbe56cb2b	-0.2097594
28	0xbe49a13d	-0.19690414
29	0xbe060cc5	-0.13090809
30	0x3e68f2e7	0.2274891
31	0xbdffd10a	-0.12491043
32	0xbe174f52	-0.14776352
33	0x3ca9fea9	0.020751314
34	0x3da4b8da	0.0804307
35	0xbe3d1f0e	-0.18468878
36	0xbe50232a	-0.20325914
37	0xbdfb9f0a	-0.12286194
38	0x3d43d257	0.047808018
39	0xbe54a7b0	-0.20767093
40	0xbe1b7fd5	-0.15185483
41	0xbde70a7d	-0.11281297
42	0x3e123758	0.14278924
43	0xbc9a4ae7	-0.018834544
44	0x3d56ae4d	0.05241232
45	0xbe7889e4	-0.24271351
46	0x3dcaa7e8	0.09895307
47	0xbddb5a53	-0.10710587
48	0xbe15645e	-0.14589068
49	0x3d9e96fb	0.07743641
50	0xbe7f7011	-0.24945094
51	0xbe7e2ec0	-0.24822521
52	0xbe10cc89	-0.14140524
53	0xbe334331	-0.175061
54	0xbdad41d0	-0.08459818
55	0xbc739671	-0.014867411
56	0x3dc02ea5	0.09383897
57	0xbe1ece83	-0.15508465
58	0xbe58f224	-0.2118612
59	0x3db9f26f	0.09079444
60	0xbe56d172	-0.20978335
61	0x3e0cbe78	0.13744533
62	0x3e50ef0b	0.20403688
63	0x3e2374ef	0.15962575
64	0xbd7a2d1c	-0.061078176
65	0x3d3527b0	0.044227302
66	0x3e29b6c3	0.16573624
67	0x3e376706	0.17910394
68	0x3bd7358f	0.006567664
69	0xbca9b10d	-0.020714307
70	0xbda4e408	-0.08051306
71	0x3d4163dc	0.047214374
72	0x3e54df36	0.20788273
73	0x3d25f7a6	0.04051938
74	0xbe585ef1	-0.21129967
75	0x3be4840e	0.00697375
76	0x3daa9744	0.08329633
77	0x3e195df5	0.14977248
78	0x3dde6a3e	0.10860108
79	0x3e12528d	0.14289303
80	0xbd28943e	-0.041157
81	0xbd5c0eea	-0.05372516
82	0xbe376de7	-0.17913018
83	0x3e23ea68	0.16007388
84	0x3ddd509d	0.108063914
85	0xbe691697	-0.22762524
86	0x3da72673	0.081616305
87	0x3c76dd52	0.015067415
88	0xbdeee775	-0.11665241
89	0xbe558e87	-0.20855151
90	0xbe23a223	-0.15979819
91	0x3e0798f1	0.13241936
92	0x3e434819	0.19070472
93	0xbdbbc7d7	-0.09168976
94	0xbe436c51	-0.19084288
95	0xbe23d455	-0.15998967
96	0x3d8a3d97	0.067500286
97	0xbd84a59a	-0.064768985
98	0xbe258f5b	-0.16167967
99	0x3d995e1a	0.074886516
100	0xbe377fa8	-0.1791979
101	0xbdec30da	-0.11532755
102	0xbe1da9ec	-0.15396851
103	0x3d9b1a57	0.07573383
104	0xbdd5a8fe	-0.10432623
105	0xbb6a508d	-0.0035753578
106	0x3ef0303c	0.469118
107	0xbe001263	-0.12507014
108	0x3db4c545	0.08826689
109	0x3e372af4	0.17887479
110	0x3cc99a43	0.02460969
111	0xbdc1e929	-0.094683
112	0x3e776947	0.24161254
113	0x3e1b9788	0.15194523
114	0xbdfab436	-0.12241404
115	0xbe5e5401	-0.21711732
116	0x3dfcadeb	0.1233786
117	0x3e677265	0.22602232
118	0x3d5128ae	0.051064186
119	0x3e4029d2	0.18765953
120	0x3e36e3d0	0.17860341
121	0x3e47009c	0.19433826
122	0x3dce9b03	0.1008816
123	0x3d63a54a	0.055577554
124	0xbde87145	-0.113497294
125	0xbe4c261e	-0.19936416
126	0xbe06e7e2	-0.13174394
127	0xbd4af68e	-0.04955154
128	0x3e62f98a	0.22165504
129	0xbe17e902	-0.14834979
130	0xbbdb77fd	-0.0066976533
131	0xbdb057f9	-0.086105295
132	0x3d0309e9	0.031991873
133	0xbdd61b2d	-0.10454402
134	0x3e2d5af6	0.1692923
135	0xbe6a84fc	-0.22902292
136	0xbe0c9b41	-0.137311
137	0xbccfc988	-0.025364652
138	0xbd210d99	-0.03931961
139	0xbe0710fa	-0.1319007
140	0xbe004bbb	-0.12528889
141	0x3dc8af4b	0.097990595
142	0x3cdfc23a	0.027314294
143	0xbe1b212d	-0.15149374
144	0xbe23f10d	-0.16009922
145	0xbe047fe4	-0.12939411
146	0x3dcc6ec4	0.09982064
147	0xbe1d7181	-0.1537533
148	0xbe330fc4	-0.17486483
149	0x3e1d9fe2	0.15393022
150	0xbd98d09f	-0.07461666
151	0xbcbd737a	-0.023126353
152	0x3d34461a	0.044012167
153	0xbe1d47e1	-0.15359451
154	0xbe140d0c	-0.14458102
155	0xbdf67579	-0.12034125
156	0xbde6124d	-0.11233959
157	0xbe66c542	-0.22536185
158	0xbdab2da5	-0.083583154
159	0x3dd498f8	0.10380739
160	0x3e473c87	0.19456683
161	0x3decd0f7	0.115632944
162	0x3cdee996	0.027210992
163	0x3e7a69ca	0.24454418
164	0xbe660f50	-0.22466779
165	0xbcc4aff8	-0.02400969
166	0xbe2a1e4b	-0.16613118
167	0xbe6e0e06	-0.23247537
168	0xbd91d63a	-0.071209386
169	0xbd668df0	-0.056287706
170	0xbd515eaa	-0.05111567
171	0x3d688a87	0.056772735
172	0xbd2ec71a	-0.042670347
173	0x3d9d61ed	0.076846935
174	0xbd335ab2	-0.043787666
175	0x3e212c85	0.15739639
176	0xbe21183e	-0.15731904
177	0xbcdb9207	-0.02680303
178	0x3daa1e9a	0.08306618
179	0x3dea23e9	0.114326306
180	0xbdbe66a4	-0.09296921
181	0x3dd33255	0.103123344
182	0xbe81e355	-0.25368753
183	0xbe9600c6	-0.29297465
184	0xbd2fc5f0	-0.042913377
185	0x3e53ed43	0.20695977
186	0xbe92d6ad	-0.2867941
187	0x3e4f1ea7	0.20226537
188	0xbe36b1f3	-0.1784132
189	0xbe0c57d6	-0.13705382
190	0xbe26e722	-0.16299108
191	0x3e23146f	0.15925764
192	0xbde900e4	-0.11377123
193	0xbe609730	-0.21932673
194	0x3d19eb0f	0.037577685
195	0x3e145c6d	0.14488383
196	0xbde7b3af	-0.11313569
197	0xbd5dcfc5	-0.054153223
198	0xbe6ffbb7	-0.23435865
199	0xbd685358	-0.056720108
200	0xbe226ca0	-0.1586175
201	0xbe283248	-0.16425431
202	0xbe58d38c	-0.21174449
203	0x3cecbc6a	0.028898437
204	0x3d1e01c9	0.03857592
205	0x3dcf3e26	0.10119276
206	0xbe74cff3	-0.23907451
207	0x3e606551	0.21913649
208	0x3b5c400c	0.003360751
209	0x3d390cc9	0.04517821
210	0x3e31dc31	0.17369153
211	0x3e31ac46	0.17350873
212	0x3e32f1e4	0.17475086
213	0x3e0964a8	0.13417304
214	0xbe4227c8	-0.18960488
215	0xbd9c84c8	-0.076425135
216	0xbce83a15	-0.028348008
217	0x3e3960f0	0.18103385
218	0x3e60cd90	0.21953416
219	0x3d938b27	0.072042756
220	0x3e385b03	0.18003468
221	0xbe25c7ae	-0.16189453
222	0xbe4998f1	-0.19687249
223	0xbe5ab748	-0.21358979
224	0x3df472cd	0.11935959
225	0x3e160ffc	0.14654535
226	0xbe27a6b1	-0.16372181
227	0xbe356ae8	-0.17716563
228	0x3e00e9f4	0.12589246
229	0xbd860a2b	-0.06544908
230	0x3e05d86d	0.13070841
231	0x3e231b4c	0.15928382
232	0xbe79c3c1	-0.2439108
233	0x3d30c726	0.043158673
234	0x3dc3bf6f	0.095579974
235	0x3de0ee0a	0.10982902
236	0xbe531e18	-0.20616949
237	0xbde0c4dc	-0.10975048
238	0xbcd7f3b2	-0.02636132
239	0xbe304275	-0.17212851

out.bias f4 [3]
0	0xbdc497c2	-0.09599258
1	0x3d7edd43	0.06222273
2	0x3d9cbbe5	0.076530255
