Machine_Learning/Week_9_Prep/MLPW9.pt (torch, 169239 bytes, 6 tensors)

fc1.weight f4 [80, 480]
0	0x3e1d2e01	0.1534958
1	0xbef4bf25	-0.47802082
2	0xbf227075	-0.63452846
3	0xbedbbed4	-0.42919028
4	0xbed82335	-0.4221436
5	0xbeea36bf	-0.45744893
6	0xbefec22c	-0.49757516
7	0xbe9b6315	-0.3034903
8	0x3d3dfae8	0.04638186
9	0x3ed0eec0	0.40807152
10	0x3f072690	0.52793217
11	0x3e1447d9	0.14480533
12	0x3c15e4ad	0.009148759
13	0xbd0051a9	-0.031327877
14	0x3e778ec4	0.24175555
15	0x3e736061	0.23767234
16	0x3f082540	0.5318184
17	0xbd36d39b	-0.044635396
18	0x3ee2806e	0.4423861
19	0x3e00dfa6	0.12585315
20	0x3e9bf1b3	0.3045784
21	0xbe9f250a	-0.31082946
22	0xbe2b6f8c	-0.1674177
23	0xbe8426c1	-0.25810817
24	0x3d9ff0d3	0.078096054
25	0x3e13c9d4	0.1443246
26	0x3deb0741	0.11475993
27	0x3e6e99d2	0.23300865
28	0x3dec707f	0.115448944
29	0xbd0df0cf	-0.03465348
30	0xbe299c79	-0.16563596
31	0xbeb47ad3	-0.35249957
32	0x3ddd1d0c	0.10796556
33	0xbe99c5b6	-0.30033654
34	0x3e255fea	0.1614987
35	0x3ec4c2b3	0.38429794
36	0xbe7a2c45	-0.2443095
37	0xbf0cf88f	-0.5506677
38	0xbef02bc4	-0.4690839
39	0xbc78adb0	-0.015178129
40	0x3d0ba926	0.03409686
41	0xbcdecb2c	-0.02719649
42	0x3e59a821	0.21255542
43	0xbeda213c	-0.4260348
44	0xbea2f4a1	-0.31827262
45	0xbf56e9e8	-0.8395066
46	0xbf7d6cc6	-0.989941
47	0xbf299fe7	-0.66259617
48	0xbf6ad315	-0.91728336
49	0xbe94ef0f	-0.29088637
50	0x3d42de25	0.047575135
51	0x3eef663f	0.46757695
52	0x3f575c22	0.8412496
53	0x3f8c8331	1.0977536
54	0x3f869d01	1.0516664
55	0x3f46ab52	0.77605164
56	0x3eda6025	0.42651477
57	0x3ebb82d2	0.36623245
58	0x3e992572	0.2991138
59	0xbed3b977	-0.41352436
60	0xbf031055	-0.51196796
61	0xbf015f9f	-0.5053653
62	0xbe89a2f6	-0.26882142
63	0xbd969dc0	-0.07354307
64	0x3ec49450	0.38394403
65	0x3f29c4a9	0.66315705
66	0x3ed440bd	0.4145564
67	0x3ef6d5ae	0.482099
68	0xbe46dc10	-0.19419885
69	0xbf133098	-0.57496023
70	0xbe3dd668	-0.1853882
71	0xbe41948b	-0.18904321
72	0xbef15039	-0.47131518
73	0xbeb675bf	-0.35636708
74	0xbe57feab	-0.21093242
75	0xbcaddcda	-0.021223474
76	0xbe103cd1	-0.140857
77	0x3f087504	0.5330355
78	0x3ea300d3	0.31836566
79	0x3e971025	0.29504505
80	0x3f2f8dda	0.68575823
81	0x3f12320e	0.5710763
82	0x3ee5e026	0.44897574
83	0x3ed35c0a	0.41281158
84	0x3ebc07ca	0.36724693
85	0xbe3f0028	-0.18652403
86	0xbe8a010e	-0.2695393
87	0xbf25cb72	-0.6476356
88	0xbefef329	-0.4979489
89	0xbed99c1c	-0.42501915
90	0xbe82775d	-0.25481692
91	0xbe991960	-0.29902172
92	0xbf6269e3	-0.8844282
93	0xbf0d7b5a	-0.55266345
94	0xbdd291e2	-0.10281731
95	0xbf007a96	-0.5018705
96	0xbee029f0	-0.43781996
97	0xbded9c8e	-0.11602126
98	0x3e579989	0.21054663
99	0xbe3127b7	-0.17300306
100	0x3e3644d9	0.17799701
101	0xbc653da6	-0.013991749
102	0xbe0ca389	-0.13734259
103	0x3ee7e56e	0.45292228
104	0x3f16e9ef	0.58950704
105	0xbe1a0ea4	-0.15044647
106	0xbf2b3b23	-0.6688711
107	0x3ea6a584	0.32548153
108	0x3ec6344b	0.3871177
109	0x3e8c7ed7	0.2744052
110	0x3e9169f1	0.2840114
111	0x3e695cbe	0.22789285
112	0xbe8b7bc1	-0.27242854
113	0xbf46868b	-0.77549046
114	0xbf7fe11f	-0.9995288
115	0xbf7b9b90	-0.98284245
116	0xbf145f70	-0.57958126
117	0xbe6feab5	-0.23429377
118	0xbd93c0c9	-0.07214505
119	0xbe9ddfdb	-0.3083485
120	0x3ccd2d0f	0.0250459
121	0x3c0cc338	0.008591466
122	0x3d35a4d6	0.044346653
123	0x3d9eb400	0.07749176
124	0x3dd46beb	0.10372146
125	0x3d9c3429	0.07627136
126	0x3e1d3dae	0.1535556
127	0x3e08ebd0	0.13371205
128	0x3e2c1cea	0.16807905
129	0x3e523a57	0.20530067
130	0x3e4d0385	0.20020874
131	0x3e521f4a	0.20519748
132	0x3e388cf0	0.18022513
133	0x3e3279bc	0.1742925
134	0x3e6c3292	0.23066166
135	0x3e849e7f	0.25902173
136	0x3e815841	0.25262645
137	0x3e7296db	0.2369036
138	0x3e8ce3a7	0.27517435
139	0x3e65f26d	0.2245576
140	0x3e6602fc	0.22462076
141	0x3e65b6fb	0.22433083
142	0x3e6183c3	0.2202292
143	0x3e77fc03	0.24217229
144	0x3e4b3af6	0.1984671
145	0x3e8b8a54	0.27253973
146	0x3e43f52a	0.19136491
147	0x3e584def	0.2112348
148	0x3e7c443d	0.24635406
149	0x3e6125ba	0.21987048
150	0x3e49f9e8	0.19724238
151	0x3e2c1376	0.16804299
152	0x3e69d17a	0.22833815
153	0x3e718aa7	0.23588048
154	0x3e4012cc	0.1875717
155	0x3e2099ea	0.15683714
156	0x3e1e2b44	0.15446192
157	0x3df7cebe	0.1209998
158	0x3e21a03e	0.15783784
159	0x3e1d0d37	0.15337072
160	0x3d4ed14b	0.050492566
161	0x3d882850	0.06648314
162	0x3e0df7da	0.13864079
163	0x3e07264c	0.13198203
164	0x3e1e7697	0.15474926
165	0x3e28606d	0.16443034
166	0x3e4e5cbd	0.20152564
167	0x3e25ab47	0.16178618
168	0x3e1d14a0	0.15339899
169	0x3e5381e3	0.20655017
170	0x3e3061ad	0.1722476
171	0x3e32190d	0.17392369
172	0x3e825698	0.2545669
173	0x3e61a0fc	0.22034067
174	0x3e838985	0.25690857
175	0x3e7d2aec	0.24723405
176	0x3e878d04	0.26474774
177	0x3e6e9241	0.23297979
178	0x3e867775	0.26263013
179	0x3e49e87b	0.1971759
180	0x3e38bcf8	0.18040836
181	0x3e49e55f	0.19716404
182	0x3e353338	0.1769532
183	0x3e4b868f	0.19875549
184	0x3e16bfd2	0.14721611
185	0x3e0bbf45	0.13647182
186	0x3dab08e9	0.08351309
187	0x3d292b98	0.04130134
188	0x3d7cf2ce	0.061754994
189	0xbc36a059	-0.011146628
190	0x3c9b4690	0.018954545
191	0xbc8ab404	-0.016931541
192	0xbe090f4c	-0.13384742
193	0xbe167627	-0.14693509
194	0xbe41a19f	-0.1890931
195	0xbe16026f	-0.14649366
196	0xbe7aca21	-0.24491169
197	0xbe52ce7f	-0.20586585
198	0xbe73ec95	-0.23820718
199	0xbe9bc1e0	-0.30421352
200	0x3e947f8d	0.29003564
201	0x3ea98358	0.3310802
202	0x3e917439	0.28408983
203	0x3e8e4e48	0.277941
204	0x3e925701	0.28582004
205	0x3e694d51	0.227834
206	0x3e85b2d8	0.2611301
207	0x3e8eeffd	0.27917472
208	0x3e6a5f31	0.22887875
209	0x3e711a59	0.23545207
210	0x3e50cf55	0.20391591
211	0x3e5f0bc3	0.2178183
212	0x3e751cd7	0.23936783
213	0x3e53982e	0.2066352
214	0x3e2c777c	0.16842455
215	0x3e516d00	0.20451736
216	0x3e1d64cb	0.1537048
217	0x3e627dc5	0.2211829
218	0x3e458ee8	0.19292796
219	0x3e3133c8	0.17304909
220	0x3e033344	0.12812525
221	0x3e5038e4	0.20334202
222	0x3de2b408	0.110694945
223	0x3e18ed4a	0.14934269
224	0x3de29e8b	0.11065396
225	0x3ddd7904	0.108140975
226	0x3e1fa59c	0.15590519
227	0x3e3234ae	0.17402908
228	0x3e230b83	0.1592236
229	0x3e3eca59	0.18631877
230	0x3e10038b	0.14063852
231	0x3de7527f	0.11295032
232	0x3e22daa3	0.15903716
233	0x3e173e4a	0.14769855
234	0x3e257c65	0.16160734
235	0x3e1f59f5	0.1556166
236	0x3dfd2dd0	0.12362254
237	0x3e1de5e2	0.15419725
238	0x3e60fe68	0.21972048
239	0x3e56dc3d	0.20982452
240	0x3f840e13	1.0316795
241	0x3f6359b0	0.8880873
242	0x3f5ea7bf	0.8697471
243	0x3f4bcc77	0.79608864
244	0x3f1da3e7	0.6157822
245	0x3f0d3632	0.5516082
246	0x3f19017f	0.5976791
247	0x3e9d53b8	0.30727935
248	0xbe144cba	-0.14482394
249	0xbefb5562	-0.4908858
250	0xbef67bfd	-0.4814147
251	0xbf3af404	-0.7302859
252	0xbf5741a5	-0.8408454
253	0xbf42994e	-0.76015174
254	0xbf2f5380	-0.68486786
255	0xbf1abb4a	-0.6044203

fc1.bias f4 [80]
0	0xbe78c2a4	-0.24293
1	0xbd90b262	-0.07065274
2	0xbe67e778	-0.22646892
3	0xbc1ee852	-0.009698944
4	0xbe8a5104	-0.27014935
5	0x3d8b7f50	0.06811392
6	0xbd6721e1	-0.056428794
7	0xbd121430	-0.035663784
8	0xbcb67f8f	-0.022277622
9	0xbd8fd16c	-0.07022366
10	0x3e7a82ad	0.24463911
11	0xbeb33400	-0.3500061
12	0xbd832446	-0.06403403
13	0x3e092390	0.13392472
14	0xbe11a4ae	-0.14222977
15	0x3ca15c68	0.019697383
16	0xbdb72301	-0.08942223
17	0x3dcf83ab	0.101325355
18	0xbefcb06f	-0.49353358
19	0x3d99bbed	0.07506547
20	0x3ea9f76c	0.3319658
21	0xbed62cf1	-0.41831163
22	0xbd72bdab	-0.059262913
23	0xbdb98356	-0.090582535
24	0x3d37c067	0.044861224
25	0xbdc917a3	-0.098189615
26	0xbe891be6	-0.26779097
27	0xbd14db5d	-0.036342014
28	0xbdd5474a	-0.10413988
29	0xbec484fb	-0.38382706
30	0xbdd2b17b	-0.10287758
31	0xbebd3159	-0.36951712
32	0x3d8d4a49	0.068989344
33	0xbdb899db	-0.090137206
34	0xbe1fa6e1	-0.15591003
35	0xbdbe798f	-0.09300529
36	0xbeb17dd8	-0.34666324
37	0xbe7aaeb0	-0.244807
38	0xbdfb6762	-0.12275578
39	0x3e434a23	0.1907125
40	0xbe0dca08	-0.138466
41	0xbd2a6c88	-0.04160741
42	0xbeba8011	-0.36425832
43	0xbd501957	-0.050805416
44	0xbe5f54e8	-0.21809733
45	0xbd0d010c	-0.034424827
46	0xbe996ba9	-0.2996495
47	0xbd363453	-0.044483494
48	0xbd5e5bd4	-0.054286793
49	0xbf039b8f	-0.5140924
50	0x3ec25e9e	0.37962812
51	0xbe8b217b	-0.2717398
52	0xbca1a43a	-0.01973163
53	0xbc96cb31	-0.018407436
54	0xbe553bb1	-0.20823552
55	0xbeab3690	-0.33440065
56	0xbd69f03c	-0.05711387
57	0xbed180e5	-0.4091865
58	0x3d0a134c	0.03370981
59	0xbdc101a1	-0.09424139
60	0xbd93394d	-0.07188664
61	0x3e9d90ae	0.30774444
62	0xbd5da304	-0.054110542
63	0xbf0b3758	-0.5438132
64	0xbd001ab9	-0.031275485
65	0xbda4d8cd	-0.08049164
66	0xbd7236fe	-0.059134476
67	0xbdc80860	-0.097672224
68	0xbe5aef6f	-0.21380399
69	0x3e80049b	0.25003514
70	0xbeb8b0a8	-0.36072278
71	0x3df99a69	0.121876545
72	0xbf023e44	-0.5087626
73	0xbda93ffe	-0.08264159
74	0xbf2433be	-0.6414145
75	0x3c9ccc32	0.019140337
76	0xbe5edfad	-0.21765013
77	0xbde96203	-0.113956474
78	0xbd57a5ab	-0.052648228
79	0xbed6e4aa	-0.41971332

fc2.weight f4 [40, 80]
0	0xbf443fd9	-0.76659924
1	0xbd3d6dce	-0.046247296
2	0x3ea85748	0.3287909
3	0x3f325dca	0.6967436
4	0xbceefaab	-0.029172262
5	0xbdbaca7b	-0.09120651
6	0x3d211849	0.0393298
7	0x3d91e84d	0.07124386
8	0x3ebf32fc	0.37343585
9	0x3d3a0c81	0.04542208
10	0x3e927719	0.2860649
11	0xbe965332	-0.29360348
12	0xbc54b835	-0.0129833715
13	0xbe0e75cf	-0.13912128
14	0x3e94aac1	0.29036525
15	0xbe54ec69	-0.20793308
16	0xbd8227de	-0.0635526
17	0xbcd66457	-0.026170893
18	0xbf51428e	-0.8174218
19	0xbe3ede10	-0.18639398
20	0xbdabf428	-0.083961785
21	0xbec9bf68	-0.39403844
22	0x3cb50a4a	0.022099633
23	0xbdcba225	-0.09943036
24	0x3dd7f0cd	0.10543976
25	0xbea876b1	-0.32903054
26	0xbf3799db	-0.7171914
27	0xbd405f0a	-0.046965636
28	0xbe206421	-0.15663196
29	0xbe2a75fd	-0.16646571
30	0x3e8e243c	0.2776202
31	0x3d22bf6b	0.03973333
32	0x3f0aa9e8	0.54165506
33	0x3e4513af	0.1924579
34	0x3f07b65f	0.5301265
35	0xbbe3dcf9	-0.006953832
36	0xbf20801f	-0.626955
37	0xbf47931f	-0.77958864
38	0x3ed398ff	0.41327664
39	0x3eb7c82b	0.35894904
40	0x3ef61782	0.4806481
41	0x3d8afe20	0.06786752
42	0x3dd1a4bb	0.10236498
43	0xbe0cc5bc	-0.13747305
44	0x3d91e40e	0.07123576
45	0xbe01c2b9	-0.12671937
46	0xbe7fe6ca	-0.24990383
47	0x3daa91c7	0.08328586
48	0xbdc75e41	-0.097347744
49	0xbe039def	-0.12853216
50	0x3de12de3	0.1099508
51	0x3da3ba3d	0.079945065
52	0x3dc2159c	0.09476778
53	0x3f6407e3	0.89074534
54	0x3e8e3bbb	0.27779946
55	0xbf7e263f	-0.9927711
56	0x3c417d16	0.011809608
57	0xbe23bb5e	-0.15989444
58	0x3e244a77	0.16044031
59	0xbd981281	-0.07425404
60	0xbc265158	-0.01015123
61	0xbc2f5d75	-0.010703434
62	0x3e1e2e2d	0.15447302
63	0xbeb17195	-0.3465697
64	0xbd863951	-0.06553901
65	0xbd0abc74	-0.03387113
66	0x3e87ded2	0.26537186
67	0x3e2ad26b	0.1668183
68	0x3e5564ad	0.20839186
69	0xbe095457	-0.1341108
70	0xbf0dcf39	-0.5539432
71	0x3f1c6208	0.61087084
72	0xbf10690c	-0.5641029
73	0xbe7cd602	-0.24691013
74	0xbe8f2a8a	-0.27962142
75	0xbca3f30b	-0.020013353
76	0x3ead126b	0.33803114
77	0x3e3acb39	0.18241586
78	0x3ee00edd	0.4376134
79	0xbf023668	-0.5086427
80	0x3f060db6	0.5236467
81	0x3d356a0e	0.044290595
82	0x3e3aa09d	0.18225332
83	0xbd3247de	-0.04352557
84	0xbee07ae4	-0.43843758
85	0xbdebea6e	-0.11519323
86	0xbd368859	-0.044563625
87	0x3d8e92f3	0.06961622
88	0x3d3a3b25	0.04546656
89	0x3c9db3e4	0.019250818
90	0x3d0c84fe	0.03430652
91	0x3e893a03	0.26802072
92	0xbd849a26	-0.06474714
93	0xbe2fb642	-0.1715937
94	0x3dcf9ded	0.10137544
95	0xbe315dab	-0.17320888
96	0xbd29f8ac	-0.041496918
97	0x3d26be2f	0.040708717
98	0xbe110cf6	-0.141651
99	0x3ee5cb1d	0.44881526
100	0x3ca3f959	0.02001636
101	0x3ef3afdf	0.47595116
102	0xbd42504f	-0.04743987
103	0x3d172b5d	0.03690659
104	0xbf10fa80	-0.5663223
105	0xbcb4fa79	-0.02209209
106	0x3f029e0f	0.5102243
107	0x3ceb1e21	0.02870089
108	0x3db8b654	0.09019151
109	0x3e48ed2f	0.19621728
110	0x3e29c307	0.16578303
111	0xbea3c82c	-0.31988657
112	0x3bfd5113	0.007730612
113	0xbe97e5ca	-0.29667503
114	0xbf521312	-0.8206035
115	0x3d035df4	0.032072023
116	0xbe980c64	-0.29696953
117	0x3ca760bb	0.020431867
118	0x3e231195	0.15924676
119	0xbe05ef1b	-0.13079493
120	0x3c2e3f5b	0.010635222
121	0xbdf42b3b	-0.11922308
122	0x3dcf9723	0.10136249
123	0x3b85aaf4	0.004079217
124	0xbe380b15	-0.17972977
125	0x3df520f8	0.11969179
126	0x3e2c4ff1	0.1682737
127	0x3cb24c52	0.021764908
128	0x3d9a3297	0.075291805
129	0x3e9237d8	0.2855823
130	0xbe33912c	-0.17535847
131	0x3ded687e	0.11592196
132	0xbdace628	-0.08442336
133	0xbeafdc2e	-0.3434767
134	0x3e5fa3e7	0.21839868
135	0xbe3ce300	-0.18445969
136	0xbdc31cfc	-0.09527013
137	0x3df6c0cb	0.12048491
138	0xbcda5392	-0.026651178
139	0x3e0f3471	0.13984849
140	0xbdac143c	-0.08402297
141	0xbe953fa4	-0.29150116
142	0xbdba1137	-0.09085315
143	0x3f16d3a8	0.5891671
144	0x3d056ace	0.03257256
145	0x3d7b0be5	0.06129064
146	0x3e3a076d	0.18166895
147	0x3e224034	0.15844804
148	0xbde462be	-0.11151646
149	0xbea32e67	-0.3187134
150	0x3de377e3	0.11106851
151	0xbdee9a57	-0.11650532
152	0xbeaf04ec	-0.34183443
153	0x3e743aa6	0.23850498
154	0x3d215d87	0.039395835
155	0x3d985888	0.07438761
156	0x3dc56e73	0.09640207
157	0x3db17163	0.08664205
158	0xbd0774e6	-0.033070467
159	0x3df8f96d	0.12156949
160	0xbf0b9f17	-0.54539627
161	0xbcabd030	-0.020973295
162	0xbcb89266	-0.022530746
163	0xbe6e2773	-0.23257236
164	0xbe4f028a	-0.20215812
165	0x3e6268d5	0.22110303
166	0xbd2521e4	-0.040315524
167	0xbdc8ea94	-0.09810367
168	0xbe2cf336	-0.16889653
169	0xbc201adf	-0.009772032
170	0xbe91c778	-0.28472495
171	0xbf091ca0	-0.53559303
172	0x3c8d64e1	0.017260017
173	0x3eb5a56c	0.3547777
174	0xbe038d7f	-0.12846945
175	0xbf00f256	-0.50369775
176	0xbdc7b667	-0.09751587
177	0xbdb52382	-0.08844663
178	0x3e63e8d6	0.22256789
179	0x3f013f4b	0.504872
180	0x3ea6c394	0.3257109
181	0x3e3a5d27	0.18199597
182	0xbdfbd67e	-0.122967705
183	0x3d712eb4	0.05888243
184	0xbf7a7a30	-0.97842693
185	0x3c265bbd	0.010153708
186	0xbf074e67	-0.5285401
187	0xbd7394fb	-0.05946825
188	0xbde5f9e6	-0.11229305
189	0x3d134ec4	0.03596379
190	0xbdbc51f0	-0.09195316
191	0x3c0831ca	0.008312652
192	0xbe507fba	-0.20361224
193	0xbe98b70f	-0.29827163
194	0x3d376af1	0.04477972
195	0xbd9a4ee3	-0.07534578
196	0x3ec5ec7f	0.38656995
197	0xbe0cc207	-0.1374589
198	0xbcecc2de	-0.028901514
199	0xbf0f08e8	-0.55872965
200	0xbf1717f4	-0.59020925
201	0x3dbc2daa	0.09188397
202	0xbf0263f6	-0.5093378
203	0xbe1c6e1a	-0.15276375
204	0xbde8a48b	-0.11359509
205	0xbc3bb329	-0.011456289
206	0x3e9322e5	0.2873756
207	0x3d382828	0.04496017
208	0xbba0e3e4	-0.004909979
209	0xbd80e9e2	-0.062946096
210	0x3f3183c2	0.6934167
211	0xbfacbdc3	-1.3495411
212	0xbd35a240	-0.044344187
213	0xbed4192d	-0.41425458
214	0xbebba531	-0.3664947
215	0x3f889b03	1.0672306
216	0xbd531511	-0.051533762
217	0xbebf2bfc	-0.37338245
218	0xbf0d5441	-0.55206686
219	0x3d40c19f	0.04705965
220	0xbcb7d748	-0.022441521
221	0x3f0e5fa9	0.55614716
222	0xbec224a2	-0.37918574
223	0x3d15d882	0.03658343
224	0xbe1491aa	-0.14508691
225	0xbdb654a1	-0.089028604
226	0x3b911dc1	0.004428596
227	0xba454380	-0.0007525012
228	0xbddcc87a	-0.10780425
229	0xbde4c60f	-0.11170589
230	0xbeb03cfb	-0.34421524
231	0xbdbcec45	-0.09224752
232	0x3f3c2f8d	0.73510057
233	0x3e1d9427	0.15388547
234	0x3fd7c4af	1.6856898
235	0xbdaa2256	-0.0830733
236	0x3d3a0673	0.045416307
237	0xbdcfb868	-0.101425946
238	0xbef9a125	-0.48755756
239	0xbf5d69ce	-0.8648957
240	0xbe9a2c98	-0.30112147
241	0x3d83f70a	0.06443603
242	0x3c8cd05e	0.017189201
243	0x3e9f2b5b	0.31087765
244	0x3da65bdb	0.08122989
245	0xbc13a59b	-0.009011651
246	0x3bb18983	0.005418004
247	0x3dd560ef	0.10418879
248	0xbd9b1b08	-0.07573515
249	0xbd1751b4	-0.036943153
250	0x3ecabc03	0.39596567
251	0xbea062e8	-0.3132546
252	0xbd1ff746	-0.039054178
253	0xbd2f40f9	-0.042786572
254	0xbce32e59	-0.027732061
255	0x3e6ceb36	0.23136601

fc2.bias f4 [40]
0	0x3ecf3e17	0.40477058
1	0xbeb98222	-0.36232096
2	0xbda44bf5	-0.080223
3	0x3eeed647	0.46647856
4	0x3d30541f	0.043048974
5	0x3ec8b504	0.39200604
6	0xbe27346b	-0.1632859
7	0xbee96fe1	-0.4559317
8	0xbec878d4	-0.39154685
9	0xbedf9690	-0.43669558
10	0xbe67dd51	-0.2264302
11	0x3ebf53f3	0.37368736
12	0xbf459dfd	-0.77194196
13	0xbe9bec26	-0.30453604
14	0x3f2d3b34	0.6766846
15	0xbf1b07ad	-0.6055859
16	0x3f002354	0.50053906
17	0xbd05af87	-0.0326381
18	0xbe7a7f2c	-0.24462575
19	0xbd31e3cc	-0.043430135
20	0xbea854bc	-0.32877147
21	0xbec31015	-0.38098207
22	0x3e8d7e5d	0.2763547
23	0xbddf2ba5	-0.108969964
24	0x3d1d7e12	0.03845031
25	0xbf0b3dc1	-0.54391104
26	0xbf14d7e7	-0.5814194
27	0xbd5289d5	-0.051400978
28	0xbe989547	-0.2980139
29	0xbe4ca0f2	-0.19983271
30	0x3ee2d425	0.44302478
31	0x3dba14c5	0.09085993
32	0x3f0b1fac	0.543452
33	0xbf04c34a	-0.5186049
34	0x3eb3a09d	0.35083476
35	0xbb5a320d	-0.0033293993
36	0xbebeef54	-0.37291968
37	0x3e700911	0.23440959
38	0x3dd0de5d	0.101986624
39	0xbf19070d	-0.59776384

out.weight f4 [3, 40]
0	0x3e2c6f5d	0.16839357
1	0xbe4a036a	-0.19727865
2	0xbf1eb8a6	-0.620005
3	0x3e5923d5	0.21205075
4	0x3c2f7778	0.010709636
5	0x3daec058	0.085327804
6	0x3d4d7352	0.050158806
7	0xbcc2ec0f	-0.023794202
8	0x3d81deff	0.06341361
9	0xbe3a3771	-0.18185212
10	0xbd69fe6b	-0.057127398
11	0xbe150bc6	-0.14555272
12	0xbd1bf05c	-0.03807102
13	0x3e1e4490	0.15455842
14	0x3e66edeb	0.22551696
15	0xbdb39bfb	-0.08769985
16	0x3de33e26	0.11095838
17	0x3da66949	0.0812555
18	0x3ca8f53e	0.020624753
19	0x3e7e6cd1	0.24846198
20	0xbd909e36	-0.07061426
21	0xbd7b7458	-0.06139025
22	0xbe00d41d	-0.12580915
23	0x3e1ade08	0.1512376
24	0xbf19ec83	-0.60126513
25	0xbd85fa1f	-0.065418474
26	0xbe0a95f6	-0.13533768
27	0x3c27488d	0.010210169
28	0x3d63d12f	0.055619415
29	0x3ded683b	0.11592146
30	0x3e42815e	0.18994662
31	0xbc900d89	-0.017584579
32	0x3e9f6a87	0.3113596
33	0x3d1e1940	0.0385983
34	0xbde4de6c	-0.11175236
35	0x3e09057a	0.13380995
36	0xbe48bb39	-0.1960267
37	0x3d5deeb4	0.054182723
38	0xbdb9a5f6	-0.09064858
39	0xbdc6cd89	-0.097071715
40	0xbe1fd222	-0.15607503
41	0xbe6ce185	-0.23132904
42	0x3e38b59c	0.18038028
43	0xbee0663e	-0.43828005
44	0x3d3926e3	0.0452031
45	0xbe6c557e	-0.23079488
46	0x3e04b1cd	0.1295845
47	0xbe943bc0	-0.28951836
48	0xbd5c0bae	-0.053722076
49	0x3db8f456	0.090309784
50	0x3daaec3e	0.08345841
51	0x3e2e6a17	0.17032658
52	0xbeb386a6	-0.35063666
53	0xbe07be63	-0.1325622
54	0xbd772bd8	-0.060344547
55	0xbf10494f	-0.5636186
56	0xbf04cf33	-0.5187866
57	0xbe49ec1a	-0.19718972
58	0xbe1f3aff	-0.15549849
59	0xbe982600	-0.29716492
60	0x3d8cd9a9	0.06877453
61	0xbe6004ae	-0.21876785
62	0x3deb9c4c	0.11504421
63	0xbce01521	-0.027353825
64	0x3e317781	0.17330743
65	0xbea46b1b	-0.32112965
66	0xbea47b77	-0.32125446
67	0xbd252864	-0.040321723
68	0x3da5acd5	0.08089606
69	0xbe1c7e17	-0.15282474
70	0x3e8e5645	0.27800193
71	0x3e1f0899	0.15530623
72	0xbd1a3146	-0.037644647
73	0xbeda4422	-0.42630106
74	0x3e4583a2	0.19288495
75	0xbc41f474	-0.011838067
76	0xbc51be47	-0.012801713
77	0xbe8cf92c	-0.27533853
78	0xbc6df70e	-0.014524234
79	0x3dc1f256	0.0947005
80	0xbdde2649	-0.10847146
81	0x3e86a62d	0.26298657
82	0xbe50eac8	-0.20402062
83	0xbe19c58a	-0.15016761
84	0xbe29e780	-0.16592216
85	0xbdd9e5ca	-0.10639532
86	0x3e06f726	0.13180217
87	0x3d6632dd	0.05620085
88	0x3dc276ad	0.09495292
89	0x3dd90c13	0.10598006
90	0xbe272ee0	-0.16326475
91	0xbeb208d1	-0.3477235
92	0x3e507a10	0.20359063
93	0xbe19710e	-0.14984533
94	0xbec40343	-0.38283738
95	0x3e820ece	0.2540192
96	0xbd3c98db	-0.04604421
97	0x3c0a1d8c	0.008429896
98	0xbd28e1b3	-0.04123087
99	0xbe912d57	-0.28354904
100	0x3d7e8168	0.06213513
101	0x3c8fd604	0.017558105
102	0xbdcf21d1	-0.10113872
103	0xbe0f9b2f	-0.14024042
104	0xbee7270c	-0.45146978
105	0x3de66fa7	0.11251765
106	0xbc0d2dfb	-0.00861692
107	0xbd96b126	-0.07358007
108	0x3dd1eea6	0.10250597
109	0x3e6a16bb	0.22860233
110	0xbed59ba1	-0.41720298
111	0xbe3c0900	-0.18362808
112	0xbe701acd	-0.23447724
113	0x3e172c4a	0.14762989
114	0xbe3d242e	-0.18470833
115	0x3d160d1f	0.036633607
116	0x3dc825eb	0.09772857
117	0xbd9e664b	-0.077343546
118	0xbe0fac8c	-0.14030665
119	0x3e0e46fb	0.13894264

out.bias f4 [3]
0	0x3f019a01	0.50625616
1	0xbda10303	-0.078619026
2	0xbf156e7a	-0.583717
