Machine_Learning/Week_9_Prep/MLPW9.pt (torch, 171287 bytes, 6 tensors)

fc1.weight f4 [100, 360]
0	0x3f413738	0.7547488
1	0x3f3570f3	0.7087547
2	0x3f835a2d	1.0261894
3	0x3f83c32a	1.0293934
4	0x3f37e7df	0.7183818
5	0x3f634c28	0.8878808
6	0x3f30185d	0.68787175
7	0x3f336ec6	0.700909
8	0x3f1ed553	0.62044257
9	0x3e7bca3b	0.24588864
10	0x3ed05b53	0.40694675
11	0x3eba228d	0.36354485
12	0x3f095e7c	0.53659797
13	0x3edbf3be	0.42959398
14	0x3e3310d9	0.17486896
15	0xbe271d50	-0.16319776
16	0x3e5a1007	0.21295176
17	0xbc59ec7d	-0.013301012
18	0xbc57192b	-0.013128559
19	0xbe7bf035	-0.2460335
20	0x3ecf3f7f	0.4047813
21	0x3f3f6e67	0.74777836
22	0x3f79e4a8	0.97614527
23	0x3f9bd6df	1.2174948
24	0x3fb2bc8f	1.3963794
25	0x3fd552f4	1.666594
26	0x3fbcbb4f	1.4744662
27	0x3fade626	1.3585861
28	0x3fa80906	1.3127754
29	0x3fae36a6	1.3610427
30	0x3f4f9ae0	0.81095695
31	0x3f37e08f	0.71827024
32	0x3f1442e6	0.5791458
33	0x3e5939bd	0.21213432
34	0x3e613f91	0.21996905
35	0x3e38d589	0.18050207
36	0x3e885ff2	0.266357
37	0x3e9162e5	0.28395763
38	0x3e929220	0.2862711
39	0xbdc13f14	-0.09435859
40	0xbe275a4f	-0.16343044
41	0xbe2e23d2	-0.17005852
42	0x3cf6ac1c	0.030111365
43	0xbeda73df	-0.42666528
44	0xbf349da3	-0.70553035
45	0xbe5b0f44	-0.21392542
46	0x3eb4d056	0.35315198
47	0xbed6a573	-0.41923103
48	0xbf3eb64c	-0.7449691
49	0xbdc050cd	-0.093904115
50	0x3da82660	0.082104445
51	0xbd68c8ee	-0.056832246
52	0xbee44046	-0.44580287
53	0xbf301531	-0.68782336
54	0xbe745e2d	-0.2386405
55	0xbf151008	-0.58227587
56	0xbdb9ddf6	-0.09075539
57	0xbf29c6ca	-0.66318953
58	0x3d7bfbfe	0.061519615
59	0x3e18e381	0.14930536
60	0x3ea4849b	0.3213242
61	0x3f0ed4f1	0.5579367
62	0x3e85e012	0.26147515
63	0xbd8f1d50	-0.06988013
64	0xbead4804	-0.33844006
65	0xbf5ae1d8	-0.8550086
66	0x3e95c9d7	0.29255554
67	0x3ecd206b	0.40063795
68	0xbe025562	-0.12727883
69	0x3e12ef67	0.14349137
70	0x3f368e2c	0.7131069
71	0x3f10c13f	0.5654487
72	0x3f62bc14	0.88568234
73	0x3f61a03d	0.8813513
74	0x3f49d9ac	0.78847766
75	0x3f7361cc	0.950711
76	0x3ef3369b	0.47502598
77	0xbe6bfeb6	-0.23046383
78	0x3ddb34d9	0.10703439
79	0xbf0b28b5	-0.5435899
80	0xbf0a50d1	-0.54029566
81	0xbf7b926f	-0.98270315
82	0xbf6df5f2	-0.9295341
83	0x3e403e42	0.1877375
84	0x3f25537c	0.6458051
85	0x3f2652e2	0.6497022
86	0x3f062792	0.5240413
87	0x3d7373b4	0.059436515
88	0xbf194fc8	-0.5988736
89	0xbf1c43e5	-0.610411
90	0xbf3057ad	-0.6888378
91	0xbefea2da	-0.4973362
92	0xbecad9e9	-0.39619377
93	0xbf41ffb7	-0.75780815
94	0xbf19ca41	-0.6007424
95	0xbedb225a	-0.42799646
96	0xbd0c02b6	-0.034182273
97	0x3cd946ac	0.026522957
98	0xbdfc7d2d	-0.12328563
99	0x3dff4aba	0.12465425
100	0xbea50066	-0.32226866
101	0xbdb6e547	-0.0893045
102	0xbe21dae4	-0.15806156
103	0x3df48cab	0.11940893
104	0x3e001c2a	0.12510744
105	0x3c102474	0.008797754
106	0xbe79dc6c	-0.2440049
107	0xbed4fbc1	-0.41598323
108	0xbe655752	-0.22396591
109	0x3da0fad8	0.07860345
110	0xbcb8a882	-0.022541288
111	0x3f58cf98	0.8469176
112	0x3f23cb79	0.6398235
113	0x3f649060	0.892828
114	0x3ed5001d	0.4160165
115	0x3f3d9f01	0.74070746
116	0x3df5c1f1	0.11999882
117	0xbee4f73c	-0.44719875
118	0xbf1062bf	-0.56400675
119	0xbeae8d20	-0.34092045
120	0xbf10a091	-0.56495005
121	0xbf1496ec	-0.5804279
122	0xbefa7c9a	-0.48923188
123	0xbe4fe44a	-0.20301929
124	0x3e65d7d4	0.22445613
125	0x3eba320d	0.3636631
126	0x3ea46cde	0.3211431
127	0x3db52c84	0.08846381
128	0x3e8420d4	0.25806296
129	0x3ed05ed0	0.40697336
130	0x3f0369b9	0.51333195
131	0x3f1e80cb	0.6191527
132	0x3f332731	0.69981676
133	0x3f2908c0	0.66028976
134	0x3f403004	0.75073266
135	0x3f487498	0.7830291
136	0x3f1731d3	0.590604
137	0x3f48ee3b	0.7848851
138	0x3f8d196c	1.1023383
139	0x3f8368cf	1.026636
140	0x3f1ef532	0.6209289
141	0x3f02caaf	0.5109052
142	0x3e99091c	0.29889762
143	0x3d0fece4	0.035138026
144	0xbe840db4	-0.25791705
145	0xbe3df03e	-0.18548676
146	0xbed501ac	-0.41602838
147	0xbee6aac5	-0.45052162
148	0xbe8c93bc	-0.27456462
149	0x3e87e56f	0.2654223
150	0x3f474f06	0.77854955
151	0x3f106193	0.56398886
152	0x3d88e929	0.06685097
153	0xbe5025e5	-0.20326956
154	0xbe88a0ec	-0.26685274
155	0xbea3b143	-0.31971177
156	0xbdbd4d5d	-0.092432715
157	0xbe744334	-0.23853761
158	0xbebb86e8	-0.36626363
159	0xbf0e2148	-0.55519533
160	0x3eee70e6	0.4657051
161	0x3e1de8fa	0.15420905
162	0x3e7218f6	0.23642334
163	0x3e9eae13	0.30992183
164	0x3f20e673	0.6285164
165	0x3f6eb6f4	0.93247914
166	0x3f0dcbad	0.5538891
167	0x3e9867a7	0.2976658
168	0x3ed43de7	0.41453478
169	0x3f2b6eb7	0.6696581
170	0x3eba6a98	0.3640945
171	0x3ed98bb9	0.42489412
172	0x3e89f707	0.2694628
173	0xbe9d05ac	-0.3066839
174	0xbc930b15	-0.01794962
175	0xbf087d19	-0.53315884
176	0xbf08a238	-0.53372526
177	0xbe5d1673	-0.21590595
178	0xbe085153	-0.13312273
179	0xbea25f75	-0.31713453
180	0xbf492b86	-0.78582036
181	0xbf008a6b	-0.5021121
182	0xbec8105e	-0.39074987
183	0xbf16962e	-0.58822906
184	0xbf3ae3ca	-0.7300383
185	0xbf588e3b	-0.84592026
186	0xbf30b13b	-0.6902043
187	0xbf5917cc	-0.84801936
188	0xbf5d0f7b	-0.86351746
189	0xbf22f06f	-0.6364812
190	0x3d05dbdd	0.03268038
191	0x3ee35bb0	0.4440589
192	0x3f723173	0.94606704
193	0x3f8e2b08	1.1106882
194	0x3f8365d2	1.0265448
195	0x3f7650c1	0.9621697
196	0x3fa71f11	1.3056356
197	0x3fd45538	1.6588507
198	0x3fbf0615	1.4923731
199	0x3fdafe2b	1.7108816
200	0xbf24d392	-0.6438533
201	0xbf4705d2	-0.77743256
202	0xbf5fd459	-0.8743339
203	0xbf44b581	-0.76839453
204	0xbee2d9c8	-0.4430678
205	0xbe6ee2c8	-0.23328698
206	0xbe322a5a	-0.17398968
207	0xbeb9f1da	-0.3631733
208	0xbf03afa8	-0.51439905
209	0xbeea439b	-0.45754704
210	0xbf06775a	-0.52525866
211	0xbf07489c	-0.5284517
212	0xbf228557	-0.6348471
213	0xbf2409c1	-0.64077383
214	0xbf3f4210	-0.7471018
215	0xbf271a04	-0.6527407
216	0xbf5318de	-0.8245982
217	0xbf1ecdc7	-0.6203274
218	0xbf1f6ce8	-0.6227555
219	0xbf44c062	-0.7685605
220	0xbf53cc30	-0.8273344
221	0xbf25080e	-0.64465415
222	0xbf2e322a	-0.68045294
223	0xbf44c30b	-0.7686011
224	0xbf7ae88a	-0.98011076
225	0xbf825cca	-1.0184567
226	0xbf500f07	-0.8127293
227	0xbf085d31	-0.532672
228	0xbe0701a4	-0.1318422
229	0x3ee01f9b	0.43774113
230	0x3f6667bd	0.9000204
231	0x3fa7c9db	1.3108476
232	0x3fc05416	1.5025661
233	0x3fc1e91f	1.5149268
234	0x3fd0fdd4	1.6327462
235	0x3fc3d013	1.5297874
236	0x3fa1ef4d	1.2651154
237	0x3f8756e4	1.0573392
238	0x3f7b04a8	0.9805398
239	0x3f67dd3c	0.9057195
240	0xbf29196b	-0.6605441
241	0xbf0d1d9e	-0.5512332
242	0xbf0bbd37	-0.54585594
243	0xbf237ea2	-0.638651
244	0xbf2707de	-0.6524638
245	0xbe94af12	-0.29039818
246	0xbe3e3ebf	-0.18578623
247	0xbd9fa1d9	-0.07794542
248	0xbe85ce52	-0.26133972
249	0xbe56b2a6	-0.20966586
250	0xbe5d0fe5	-0.21588095
251	0xbe787202	-0.2426224
252	0xbe8c5f3a	-0.27416402
253	0xbee062e9	-0.43825462
254	0xbf09b7d3	-0.5379612
255	0xbf238a10	-0.6388254

fc1.bias f4 [100]
0	0xbf106f68	-0.5641999
1	0xbe918c2e	-0.2842726
2	0xbef884f4	-0.48538935
3	0xbee665e5	-0.44999614
4	0xbf8bb575	-1.0914751
5	0xbf65bc1f	-0.89740175
6	0xbf856b3c	-1.042335
7	0xbf6fc888	-0.9366536
8	0xbd747841	-0.059684996
9	0xbebe05e9	-0.37113884
10	0xbea0c007	-0.31396505
11	0xbf08e56f	-0.5347509
12	0xbf6928e0	-0.91077995
13	0xbef13994	-0.4711424
14	0xbf0017ed	-0.5003651
15	0xbf835689	-1.0260783
16	0xbf17b228	-0.5925622
17	0xbf7a3023	-0.977297
18	0xbf80e6e7	-1.0070466
19	0xbe9e0281	-0.30861285
20	0xbee1a6da	-0.4407261
21	0x3e947bad	0.29000607
22	0xbeec0d0c	-0.46103704
23	0xbf40da8b	-0.7533347
24	0xbf635f71	-0.8881751
25	0xbf7ec365	-0.995169
26	0x3dd37721	0.103254564
27	0xbedc32f2	-0.43007618
28	0xbf49df6f	-0.7885656
29	0x3e9233ac	0.28555048
30	0xbf145147	-0.5793652
31	0xbf8f5903	-1.1199039
32	0xbf9c12d2	-1.2193244
33	0xbfa9dacf	-1.32699
34	0x3df3cbcd	0.11904106
35	0xbf2dec5a	-0.6793877
36	0xbf25a5e0	-0.6470623
37	0xbf95ec60	-1.1712761
38	0xbf1c73ae	-0.61114013
39	0xbd025498	-0.031818956
40	0x3ed2f347	0.4120123
41	0xbea16fff	-0.3153076
42	0xbf48bba6	-0.7841133
43	0xbf36b2f9	-0.7136684
44	0xbefde4df	-0.49588677
45	0xbfc29fca	-1.5205014
46	0xbf9e2949	-1.2356349
47	0xbdc77224	-0.097385675
48	0xbf982e05	-1.1889044
49	0xbf6d8271	-0.9277716
50	0xbf87f4ac	-1.0621543
51	0xbe6c9311	-0.23102976
52	0xbf5857d9	-0.84509045
53	0xbf317dc4	-0.6933253
54	0xbe9403e0	-0.28909206
55	0xbf75e11d	-0.9604662
56	0xbea70aaa	-0.32625324
57	0xbf1e3139	-0.6179386
58	0xbf6ba2c7	-0.92045254
59	0xbf1ad519	-0.6048141
60	0xbf045576	-0.51692903
61	0xbef4c94b	-0.47809824
62	0xbf85d49d	-1.045551
63	0xbf0f697d	-0.5602034
64	0x3dea397e	0.11436747
65	0xbf8453a9	-1.0338031
66	0xbeb75677	-0.35808155
67	0xbf92a382	-1.1456149
68	0x3d505f7a	0.050872304
69	0xbf35aebb	-0.7096974
70	0xbdb68bf0	-0.0891341
71	0xbf2b30d9	-0.6687141
72	0xbef2859c	-0.4736756
73	0xbf0b9b44	-0.5453379
74	0xbf25d5d7	-0.6477942
75	0xbf15c53c	-0.5850408
76	0xbec04404	-0.37551892
77	0xbef3fd0e	-0.47654003
78	0xbe1ae6f8	-0.1512717
79	0xbea2af10	-0.31774187
80	0xbec6d91d	-0.3883752
81	0xbeea969b	-0.45818028
82	0xbd9cda76	-0.076588556
83	0xbf1dcef1	-0.6164389
84	0xbeeb5ae7	-0.4596779
85	0xbf939b99	-1.153186
86	0x3e1c95f6	0.1529158
87	0xbef67e12	-0.4814306
88	0xbf84ec59	-1.0384628
89	0xbd59d6a9	-0.05318323
90	0xbfa78a73	-1.3089126
91	0xbf3b19ac	-0.7308605
92	0xbf0d7972	-0.55263436
93	0xbef7a6a4	-0.48369324
94	0xbefcdd83	-0.4938775
95	0xbf2926c8	-0.660748
96	0xbf53e8fa	-0.8277737
97	0xbf61506d	-0.88013345
98	0xbe5c652f	-0.21522973
99	0xbe749783	-0.23885922

fc2.weight f4 [60, 100]
0	0x3d4f62a1	0.05063117
1	0xbde81e46	-0.11333899
2	0x3b0afd00	0.0021207929
3	0x3cbfe4b3	0.023424482
4	0xbd55fde1	-0.05224407
5	0xbd84b63d	-0.06480072
6	0xbdbe1de1	-0.09283043
7	0xbc4108e9	-0.0117819095
8	0xbe056fe8	-0.1303097
9	0xbcb42b45	-0.021993289
10	0xbdd234bf	-0.10263967
11	0x3d009284	0.03138973
12	0xbd82d72f	-0.06388699
13	0xbd872fd3	-0.066009186
14	0xbc5e308e	-0.013561381
15	0xbe27d07d	-0.16388126
16	0xbdc6ebab	-0.09712919
17	0xbd50fcdc	-0.051022395
18	0x3cf3a05f	0.029739557
19	0xbe0a2690	-0.13491273
20	0xbcf7e3e7	-0.03026004
21	0xbd34204b	-0.04397611
22	0xbd48b712	-0.049002714
23	0xbc98a8fe	-0.01863527
24	0xbe2bfc7b	-0.16795532
25	0xbbec0d29	-0.0072037173
26	0xbc494bf3	-0.012286174
27	0xbdb1ab87	-0.08675294
28	0xbe11375c	-0.14181274
29	0xbe16c683	-0.14724164
30	0x3c9d4d83	0.019202
31	0xbda7e05f	-0.08197092
32	0xbdbd9f28	-0.09258872
33	0xbdfc5fa9	-0.12322933
34	0xbdd3cff9	-0.10342402
35	0xba87c711	-0.0010359009
36	0x3ad79f43	0.0016450662
37	0x3c5cd098	0.013477467
38	0x3ba93fbd	0.005165069
39	0xbdd2c383	-0.10291197
40	0xbdee3e65	-0.116329946
41	0xbd749e40	-0.05972123
42	0xbdfff3d4	-0.124976784
43	0x3c5506f5	0.013002147
44	0xbd425713	-0.04744632
45	0xbd97dd35	-0.07415239
46	0x3c9b75f3	0.018977141
47	0xbe1b1dd7	-0.15148102
48	0x3c88987a	0.016674269
49	0xbd866000	-0.06561279
50	0xbd239d67	-0.039945032
51	0xbc97699e	-0.01848298
52	0xbd11ed31	-0.035626594
53	0xbd3c3684	-0.045950428
54	0xbd5bc5ed	-0.053655554
55	0xbd907752	-0.070540085
56	0xbe341ae1	-0.17588378
57	0xbd946054	-0.07244936
58	0xbcd54652	-0.026034508
59	0xbde88709	-0.11353881
60	0xbd977d70	-0.07396972
61	0xbd1ee820	-0.03879559
62	0xbdfdac10	-0.12386334
63	0xbdf26ada	-0.118367866
64	0xbd1ea93d	-0.038735617
65	0xbdcca51c	-0.099924296
66	0x3c17aec1	0.009257973
67	0xbd8d1521	-0.06888796
68	0xbe16c1a5	-0.14722307
69	0xbcba5ec5	-0.022750268
70	0x3d14f430	0.036365688
71	0x3bcfee30	0.006345533
72	0xbc287657	-0.010282121
73	0xbd2e5916	-0.042565428
74	0x3ccc9e18	0.024977729
75	0xbd933920	-0.0718863
76	0x3de6fca3	0.112786554
77	0xbd87784f	-0.06614744
78	0x3c94da9e	0.018170651
79	0xbbc5cc3d	-0.00603631
80	0xbe133489	-0.1437551
81	0x3d441652	0.04787285
82	0xbd588410	-0.05286032
83	0xbe11faed	-0.14255877
84	0xbbab4956	-0.005227248
85	0xbdf0b99b	-0.117541514
86	0xbda30859	-0.079605766
87	0xbdf3f33b	-0.11911627
88	0xbc985460	-0.01859492
89	0xbcf24998	-0.029576108
90	0xbe06a547	-0.13148986
91	0xbdca1070	-0.098664165
92	0xbc3e3a3b	-0.011610563
93	0xbe104b54	-0.14091235
94	0xbd7e54c2	-0.06209255
95	0xbdcff36c	-0.10153851
96	0x3cd35e66	0.025801849
97	0x3bf7a1c6	0.0075571267
98	0xbcf9e4d6	-0.030504625
99	0xbe13d508	-0.14436734
100	0xbebd2239	-0.36940172
101	0xbf75c533	-0.9600403
102	0x3e3f74ff	0.18696974
103	0xbb4b7a20	-0.0031048134
104	0xbc65916b	-0.014011721
105	0xbeaadb48	-0.33370423
106	0xbf31c142	-0.69435513
107	0x3e589845	0.21151836
108	0x3d53c27e	0.051699154
109	0xbd45c6d7	-0.04828533
110	0xbe927750	-0.28606653
111	0x3e63f53b	0.22261517
112	0xbe731688	-0.23739064
113	0xbf26a8a4	-0.65101075
114	0xbedcdeb7	-0.43138668
115	0xbe455832	-0.19271925
116	0xbf0dc64b	-0.55380696
117	0xbc9aaf8c	-0.018882535
118	0x3e75f60c	0.2401964
119	0x3e4d9272	0.20075396
120	0xbf30b30c	-0.69023204
121	0xbd827c59	-0.06371374
122	0xbea76049	-0.32690647
123	0xbf28da75	-0.6595834
124	0xbe541093	-0.20709448
125	0xbe5e69f2	-0.21720102
126	0x3e21d6d4	0.15804607
127	0xbe83c52e	-0.25736374
128	0xbdb4d841	-0.0883031
129	0x3e077ad5	0.1323045
130	0x3dd151ae	0.10220657
131	0xbe785c80	-0.24254036
132	0xbec00420	-0.37503147
133	0xbe3aa802	-0.18228152
134	0xbed0582e	-0.40692276
135	0xbeb00684	-0.3437997
136	0xbe0aa41b	-0.13539164
137	0xbec39cd0	-0.38205576
138	0xbeb05a06	-0.34443682
139	0x3d045946	0.0323117
140	0x3ac14234	0.0014744462
141	0xbed9afb9	-0.42516878
142	0x3ddfa822	0.10920741
143	0xbe98e81a	-0.2986458
144	0x3e25daad	0.161967
145	0xbf14e0f9	-0.5815578
146	0xbdb0d3e6	-0.086341664
147	0x3dce541f	0.100746386
148	0xbca5328a	-0.0201657
149	0xbd9b2b77	-0.0757665
150	0xbef10a62	-0.47078234
151	0xbdbd5561	-0.092448
152	0x3e67a324	0.22620827
153	0xbf2447a8	-0.6417184
154	0xbeb5905b	-0.35461697
155	0xbf0c6b09	-0.5485082
156	0xbdfd65ac	-0.12372908
157	0x3e15a421	0.14613391
158	0xbe8bc7c9	-0.2730086
159	0xbf213ab5	-0.62980205
160	0xbf4160d7	-0.7553839
161	0x3d2e37cf	0.042533692
162	0xbe92d26e	-0.2867617
163	0xbf33a0c4	-0.70167184
164	0x3e0c8afd	0.13724895
165	0xbefe234c	-0.49636304
166	0xbf15cf0b	-0.5851905
167	0xbe9c3a10	-0.30513048
168	0x3a8d2ef8	0.0010771444
169	0xbead25b7	-0.33817837
170	0xbe949077	-0.29016468
171	0xbf28bdc0	-0.65914536
172	0xbef08411	-0.4697576
173	0xbed649d5	-0.41853204
174	0xbebc6707	-0.36797354
175	0xbd4f182c	-0.05056016
176	0xbef71896	-0.48260945
177	0x3c40d699	0.011769914
178	0xbd439f25	-0.047759194
179	0xbe603387	-0.21894656
180	0xbeabcd07	-0.3355486
181	0xbe5293a3	-0.20564131
182	0xbbb17889	-0.0054159802
183	0xbf1ce3ca	-0.6128508
184	0x3e4ab5f6	0.19795975
185	0x3d4dc264	0.050234213
186	0x3dc3cae4	0.09560183
187	0x3e0649d4	0.131141
188	0xbec935f4	-0.39298975
189	0x3e750157	0.23926292
190	0xbe050d77	-0.12993418
191	0xbe0fdd7f	-0.14049338
192	0xbeec2a5d	-0.4612607
193	0xbedc2466	-0.4299652
194	0xbe9d03f7	-0.30667087
195	0xbe4ce4ae	-0.2000911
196	0xbeb06598	-0.3445251
197	0xbe68996c	-0.22714776
198	0x3e26da91	0.16294314
199	0xbf0e8e9d	-0.5568636
200	0xbd6859c5	-0.056726236
201	0xbe87b486	-0.26504916
202	0xbe359b60	-0.17735052
203	0xbf05c370	-0.5225134
204	0xbe50370c	-0.20333499
205	0x3e2a02a2	0.16602567
206	0xbeb78515	-0.3584372
207	0xbf1260c1	-0.57178885
208	0x3e1278ca	0.1430389
209	0xbeff7797	-0.49895927
210	0x3e8a89ae	0.27058166
211	0xbeff5545	-0.49869743
212	0xbd8eb703	-0.069685005
213	0x3e3cf78f	0.18453811
214	0xbeb87372	-0.36025578
215	0xbefc2f28	-0.49254727
216	0xbe029650	-0.12752652
217	0xbe128ae8	-0.14310801
218	0xbeb34153	-0.35010776
219	0xbefb95a4	-0.49137604
220	0xbf045a4a	-0.5170027
221	0xbeafcc1e	-0.34335417
222	0xbe0a20e1	-0.13489105
223	0xbedb36ba	-0.4281519
224	0xbf51b9f4	-0.81924367
225	0xbf01ea5c	-0.5074823
226	0xbebe7444	-0.3719808
227	0xbea0abc6	-0.31381053
228	0xbdc3ae03	-0.095546745
229	0xbf125df1	-0.57174593
230	0xbdc63be1	-0.0967939
231	0x3d2e42f3	0.042544317
232	0xbd048dea	-0.032361902
233	0xbe9c0a49	-0.30476597
234	0xbf5b83a7	-0.8574776
235	0xbf0192a5	-0.50614387
236	0xbeb34c9f	-0.35019395
237	0x3ef9d58f	0.48795745
238	0xbea363d1	-0.3191209
239	0xbde64ded	-0.11245332
240	0xbeb46f66	-0.3524124
241	0x3dcf376b	0.10117992
242	0x3e77ccfd	0.2419929
243	0xbeb28742	-0.3486882
244	0xbec79471	-0.3898044
245	0xbe0806f4	-0.13283902
246	0xbef2fef7	-0.47460148
247	0xbecafaf9	-0.39644602
248	0x3d722d85	0.059125442
249	0xbe78ebff	-0.24308775
250	0x3e57d648	0.21077836
251	0xbe689745	-0.22713955
252	0x3e972c77	0.2952611
253	0xbe910341	-0.28322795
254	0xbec44d4e	-0.3834023
255	0xbee69085	-0.45032135

fc2.bias f4 [60]
0	0xbe261fcd	-0.16223069
1	0x3cad936a	0.021188457
2	0xbea8de46	-0.3298208
3	0xbea26a67	-0.31721804
4	0x3e6e0728	0.23244917
5	0xbe81f004	-0.2537843
6	0xbe30b5ca	-0.17256847
7	0xbe393350	-0.1808598
8	0xbd9b1ba8	-0.075736344
9	0xbe973e4c	-0.29539716
10	0x3e89dcec	0.26926363
11	0xbf0b426c	-0.54398227
12	0xbe2d0f97	-0.16900478
13	0xbe34583c	-0.17611784
14	0xbe1fb854	-0.1559766
15	0xbf13aacd	-0.57682496
16	0x3f222ebe	0.6335257
17	0xbe57eb6c	-0.210859
18	0xbf4df903	-0.80458087
19	0xbe5a67c5	-0.21328647
20	0xbea5428b	-0.3227733
21	0xbe05694f	-0.13028453
22	0xbf041f72	-0.5161048
23	0xbd705b6b	-0.058680933
24	0xbe7644b1	-0.24049641
25	0xbe84e844	-0.25958455
26	0xbe969863	-0.29413137
27	0xbd68598f	-0.056726035
28	0xbe8a74e8	-0.27042317
29	0xbeeb7858	-0.45990252
30	0xbdb6994f	-0.0891596
31	0xbf03f64c	-0.51547694
32	0xbf04aa46	-0.51822317
33	0xbe8a2d2a	-0.26987582
34	0xbf354835	-0.70813304
35	0xbe8339e9	-0.2563012
36	0xbcf3d5b9	-0.029764997
37	0xbe843639	-0.2582262
38	0xbef09b19	-0.4699333
39	0x3cc07fa5	0.023498366
40	0xbdcecf26	-0.10098104
41	0xbf134002	-0.57519543
42	0xbedec647	-0.4351065
43	0xbead257c	-0.3381766
44	0xbecff32a	-0.40615207
45	0x3d1754d4	0.036946133
46	0xbe7e7a88	-0.2485143
47	0xbf3c3428	-0.73517084
48	0xbe5f90a5	-0.21832521
49	0xbe145c87	-0.14488421
50	0x3f010c77	0.50409645
51	0xbd7ca90f	-0.061684664
52	0xbe810ed1	-0.25206617
53	0xbdca4d5a	-0.09878035
54	0xbdc8ac3a	-0.097984746
55	0xbe2c479e	-0.16824195
56	0xbef8bfe8	-0.48583913
57	0xbea62a1b	-0.32454
58	0xbd2f7697	-0.042837705
59	0xbf1ffeeb	-0.6249835

out.weight f4 [3, 60]
0	0x3d630100	0.055420876
1	0xbdba23b9	-0.09088845
2	0x3d4c5f99	0.049895857
3	0xbe45719b	-0.19281618
4	0xbe09bff9	-0.13452138
5	0x3d3f3ba7	0.04668775
6	0xbe068a78	-0.13138759
7	0xbc40e310	-0.011772886
8	0xbdd45913	-0.10368552
9	0xbe56ec31	-0.20988537
10	0xbdce2875	-0.1006631
11	0xbe29c65c	-0.16579574
12	0x3cc54036	0.02407847
13	0xbdecb225	-0.11557416
14	0xbe0474af	-0.12935136
15	0x3ed2eddd	0.411971
16	0xbe07daba	-0.13267031
17	0xbd18a633	-0.037267875
18	0x3ddd2988	0.10798937
19	0xbd003d30	-0.031308353
20	0xbe1238e2	-0.14279512
21	0x3d8e20ee	0.069398746
22	0x3ed388c9	0.41315296
23	0xbd814b44	-0.06313184
24	0xbd9984b2	-0.07496013
25	0x3e6ee13b	0.23328106
26	0xbe0e2100	-0.13879776
27	0xbd20dabd	-0.039271105
28	0xbd3f95b4	-0.046773627
29	0x3dd165b5	0.10224477
30	0xbb1891aa	-0.0023280182
31	0x3e86c582	0.26322562
32	0x3e3b4bcb	0.18290631
33	0x3e0d49b2	0.13797644
34	0xbe5142d9	-0.20435657
35	0xbe649efa	-0.2232627
36	0xbd577511	-0.052601878
37	0xbdf77dc4	-0.12084535
38	0xbcd76170	-0.026291579
39	0x3e385c17	0.1800388
40	0xbda048c5	-0.0782638
41	0xbcf91580	-0.03040576
42	0x3d5655ad	0.0523278
43	0xbc1d632f	-0.009606167
44	0x3d411e89	0.04714826
45	0xbcc038e5	-0.02346463
46	0x3e8f3093	0.27966747
47	0x3eb21020	0.34777927
48	0x3e50c801	0.20388795
49	0xbded23f2	-0.11579122
50	0xbec36339	-0.38161638
51	0xbe7bd1af	-0.24591707
52	0x3f29e782	0.6636888
53	0xbd98ac63	-0.07454755
54	0x3e17fe72	0.14843157
55	0x3e038af3	0.12845974
56	0x3e2ad3cd	0.16682358
57	0x3e845462	0.2584563
58	0xbd5aa1a2	-0.0533768
59	0xbd9902a9	-0.074712105
60	0x3cb83315	0.022485295
61	0x3e13dbfc	0.14439386
62	0xbe98ed88	-0.29868722
63	0xbe063aeb	-0.13108413
64	0x3e2a02c3	0.16602616
65	0xbe2c4268	-0.16822207
66	0x3e25bfab	0.16186397
67	0xbdce2f50	-0.10067618
68	0x3e6cd909	0.23129667
69	0xbe81a070	-0.25317717
70	0x3e8659e8	0.26240468
71	0xbea6c2c9	-0.32570484
72	0xbd11baa6	-0.035578392
73	0x3e6a6987	0.22891818
74	0x3bac4bb6	0.005258049
75	0xbf1d2ff8	-0.6140132
76	0x3e747464	0.23872524
77	0x3e4dacff	0.20085524
78	0xbf02f3c1	-0.5115319
79	0x3e8f2523	0.2795802
80	0xbe6da1ff	-0.23206328
81	0x3d93e642	0.072216526
82	0xbec467b1	-0.3836036
83	0xbca1c132	-0.019745443
84	0xbf0a0104	-0.539078
85	0xbd8f91f7	-0.070102625
86	0xbdb14155	-0.08655039
87	0x3db40c47	0.08791404
88	0xbd80f3ae	-0.06296478
89	0xbecb1ef2	-0.39672047
90	0x3bfbea20	0.007687822
91	0xbde50b9b	-0.11183854
92	0xbd9cf91d	-0.07664702
93	0x3cae3c66	0.021269035
94	0xbeab5a0f	-0.33467147
95	0x3dd892d2	0.10574879
96	0x3ca89359	0.020578073
97	0x3d1e7eb7	0.038695063
98	0xbed93300	-0.42421722
99	0x3d3f54a3	0.046711575
100	0xba29e658	-0.0006481162
101	0xbf08a1df	-0.53371996
102	0xbe27396f	-0.16330503
103	0xbd0d1f28	-0.03445354
104	0xbe2980c4	-0.16553026
105	0xbc12ba63	-0.008955571
106	0xbe31b1eb	-0.17353027
107	0xbeebc0f5	-0.46045652
108	0xbed730dd	-0.42029467
109	0xbecb64cb	-0.39725336
110	0x3e31807c	0.17334169
111	0xbe1620b0	-0.14660907
112	0xbe9bf51b	-0.30460438
113	0x3e009fce	0.1256096
114	0xbd9124fb	-0.070871316
115	0xbe7fa82c	-0.24966496
116	0xbe281094	-0.16412574
117	0xbe426100	-0.18982315
118	0x3c5c384f	0.013441159
119	0xbf0d314c	-0.55153346
120	0xbd12f2b0	-0.035875976
121	0xbe114efa	-0.14190283
122	0x3dedd4cf	0.11612856
123	0x3ddee6bf	0.10883855
124	0xbef53dea	-0.478988
125	0x3dd41d29	0.10357124
126	0xbdc902bc	-0.09814975
127	0x3da8066c	0.0820435
128	0xbe0b6355	-0.13612111
129	0x3ea69e1c	0.32542503
130	0xbe9387b1	-0.28814462
131	0x3e902b55	0.2815806
132	0x3dcf0284	0.10107902
133	0xbbf5f357	-0.007505815
134	0xbd7a27cc	-0.06107311
135	0xbe12f736	-0.14352116
136	0xbe6aed1f	-0.22942017
137	0x3e61866b	0.22023933
138	0xbd0e62ba	-0.03476212
139	0xbd65ca88	-0.056101352
140	0x3e231a63	0.15928034
141	0x3d700d04	0.058606163
142	0xbe87c81c	-0.2651986
143	0xbddd9887	-0.10820108
144	0x3d39bfbc	0.045348868
145	0xbd8a4e05	-0.06753162
146	0x3d754253	0.059877705
147	0xbe82c746	-0.2554266
148	0x3e2c2f9d	0.16815038
149	0x3d4525f5	0.0481319
150	0x3e70e75e	0.2352576
151	0xbe26a6dd	-0.16274591
152	0xbe863269	-0.26210335
153	0x3e910e76	0.28331345
154	0x3dd764e0	0.10517287
155	0xbdada0da	-0.084779456
156	0x3c0f3e16	0.00874283
157	0x3e3dc62c	0.18532628
158	0x3cd3a5f2	0.025835965
159	0xbe4753fa	-0.19465628
160	0x3bdfb650	0.0068271533
161	0x3d5fb4bc	0.05461572
162	0xbd9e6fd7	-0.077361755
163	0xbdcd5e8e	-0.100278005
164	0x3e221954	0.15829974
165	0xbbc66851	-0.006054916
166	0xbe8aed53	-0.2713419
167	0xbe2580c8	-0.16162407
168	0xbee0e5e5	-0.43925396
169	0x3e1e7c94	0.1547721
170	0xbe306c95	-0.17228921
171	0x3de72411	0.11286176
172	0xbf26dd1e	-0.6518115
173	0x3e30ad9b	0.17253725
174	0x3daf0a40	0.08546877
175	0x3c18ad34	0.009318639
176	0xbe315995	-0.17319329
177	0xbd55edc5	-0.052228708
178	0xbc757d90	-0.01498355
179	0x3e573ff2	0.21020487

out.bias f4 [3]
0	0xc0e483ba	-7.14108
1	0xbf21971a	-0.6312119
2	0x401ab911	2.4175456
