Machine_Learning/Week_9_Prep/MLPW9.pt (torch, 355927 bytes, 6 tensors)

fc1.weight f4 [200, 360]
0	0x3d3faec4	0.04679753
1	0xbe92d81b	-0.286805
2	0xbd1eb478	-0.038746327
3	0x3eaaee1d	0.3338479
4	0x3f051f5f	0.52000993
5	0x3f95df9e	1.1708868
6	0x3f90b4c7	1.1305169
7	0x3f8fb427	1.1226853
8	0x3f8046b0	1.0021572
9	0x3fa1678f	1.2609729
10	0x3f7bc379	0.9834514
11	0x3f91614b	1.1357816
12	0x3f40ab1f	0.7526111
13	0x3f8e6e9d	1.1127506
14	0x3fb3c724	1.4045148
15	0x3fb75a04	1.4324346
16	0x3fbc61e0	1.4717369
17	0x3f8e2c94	1.1107354
18	0x3f0d7c18	0.5526748
19	0x3f2b3ed1	0.66892725
20	0x3f816d5a	1.0111496
21	0x3f75cc52	0.96014893
22	0x3f5f571b	0.8724229
23	0x3f2b3f5e	0.66893566
24	0x3ee045e2	0.43803316
25	0x3e8e3f3c	0.2778262
26	0xbdbf8865	-0.09352187
27	0x3e192cc8	0.14958489
28	0xbcbd32ec	-0.02309557
29	0x3e1ad073	0.1511858
30	0x3ec2fdda	0.38084298
31	0x3f1a7771	0.60338503
32	0x3f17300d	0.59057695
33	0x3b90423f	0.0044024284
34	0x3db18bca	0.08669241
35	0xbd5e3744	-0.054251924
36	0x3f0ddcef	0.5541524
37	0x3f502a11	0.8131419
38	0x3f96b39b	1.1773561
39	0x3f9092ef	1.129484
40	0xbe53c68b	-0.20681207
41	0x3ea1e4d5	0.31619897
42	0x3e8ea296	0.27858418
43	0xbeab03b6	-0.3340127
44	0xbf72fd97	-0.949182
45	0xbf21fd8f	-0.63277525
46	0xbdb41904	-0.08793834
47	0xbe7e7ff0	-0.24853492
48	0xbef579a8	-0.4794438
49	0xbe90f99e	-0.28315443
50	0x3e4951e2	0.19660142
51	0xbc260669	-0.010133364
52	0xbe5f7d0a	-0.21825042
53	0xbebeda42	-0.37275892
54	0x3e8b8560	0.27250195
55	0xbe34ffbd	-0.17675681
56	0x3f13a894	0.57679105
57	0x3eac2fc6	0.33630198
58	0x3e98a745	0.29815117
59	0xbf038e93	-0.51389426
60	0xbe2b7bc6	-0.16746435
61	0xbe84ea65	-0.2596008
62	0x3c1ea1dd	0.009682146
63	0xbd460ed4	-0.048353985
64	0xbef076af	-0.46965548
65	0xbf405c69	-0.75141007
66	0xbee6233e	-0.44948763
67	0xbe99cc58	-0.30038714
68	0x3e9afb1c	0.30269706
69	0xbbcbda27	-0.006221074
70	0x3e0dcc21	0.138474
71	0xbde49c3e	-0.11162613
72	0x3d448b42	0.04798437
73	0x3e6a754b	0.22896306
74	0x3e182bce	0.1486046
75	0x3e519226	0.20465907
76	0x3ea3a0b4	0.31958544
77	0xbd3c92f8	-0.046038598
78	0x3e4534a9	0.1925837
79	0xbc889ed0	-0.01667729
80	0x3dfe9aff	0.12431907
81	0x3e8807b2	0.2656837
82	0xbdadda3c	-0.084888905
83	0xbcc9636e	-0.024583545
84	0xbd8e8be3	-0.06960275
85	0xbee3d33d	-0.444971
86	0xbf073bf0	-0.5282583
87	0xbed7cec6	-0.42149943
88	0xbe22d96d	-0.15903254
89	0xbec6d87d	-0.38837042
90	0xbe17b408	-0.1481477
91	0xbe78b000	-0.24285889
92	0xbe523f05	-0.20531853
93	0x3ec19203	0.3780671
94	0x3f039166	0.51393735
95	0x3ee08355	0.43850198
96	0x3d51cfbf	0.051223513
97	0xbc71aed8	-0.014751159
98	0x3db46d85	0.08809952
99	0x3ea2a5bf	0.3176708
100	0x3d1cf2a0	0.038317323
101	0x3e8166dc	0.25273788
102	0xbe1a8ae8	-0.15092051
103	0xbe06772f	-0.13131402
104	0xbeea5f11	-0.45775655
105	0xbb1eebee	-0.0024249512
106	0x3e462651	0.19350554
107	0x3dd95ad7	0.106130295
108	0x3d944b00	0.072408676
109	0xbeee1dec	-0.46507204
110	0xbefbc1a3	-0.4917117
111	0xbebf78d1	-0.37396863
112	0xbe14d0c6	-0.14532766
113	0x3d78a2cc	0.06070213
114	0xbef4a86b	-0.47784743
115	0xbe8f8ad3	-0.28035602
116	0xbe3d16f3	-0.18465786
117	0xbe8ed37c	-0.27895725
118	0xbf15d967	-0.58534855
119	0xbdf4d594	-0.11954799
120	0x3e824d58	0.25449634
121	0x3f1db394	0.6160214
122	0x3f094958	0.5362754
123	0x3ec5eadc	0.38655746
124	0x3e0d25fd	0.13784023
125	0x3e076965	0.13223799
126	0x3ea8cf34	0.32970583
127	0x3e79217c	0.2432918
128	0x3e69168b	0.22762506
129	0x3e7a71a3	0.24457411
130	0x3e57e2bc	0.21082586
131	0x3e87634c	0.26442945
132	0x3e91427e	0.28371042
133	0x3e7e793a	0.24850932
134	0x3eb6f8cd	0.35736695
135	0x3ea25ac1	0.31709865
136	0x3d316c8d	0.043316413
137	0xbd310162	-0.04321421
138	0x3e00dc91	0.1258414
139	0x3e700f64	0.23443371
140	0x3e2f9240	0.17145634
141	0x3e2b20f1	0.16711785
142	0x3d4d992f	0.050194915
143	0x3d0d517b	0.034501534
144	0xbd23cdf5	-0.039991338
145	0x3db29854	0.087204605
146	0xbe675203	-0.22589879
147	0xbe766e16	-0.24065432
148	0xbe2a6756	-0.16640982
149	0xbe81c759	-0.25347403
150	0xbebc75d0	-0.36808634
151	0xbf076807	-0.5289311
152	0xbf0d3fb6	-0.5517534
153	0xbed120d3	-0.40845355
154	0xbea721fc	-0.32643116
155	0xbe36e879	-0.17862119
156	0xbe26f876	-0.16305718
157	0xbe9fa19a	-0.3117798
158	0xbefe4124	-0.49659073
159	0xbf0d4455	-0.5518239
160	0xbe2f6355	-0.17127736
161	0xbe4be721	-0.19912387
162	0xbdfde4c8	-0.12397152
163	0xbec54b86	-0.38534182
164	0xbed2c75d	-0.41167727
165	0xbe280121	-0.1640668
166	0xbd880b43	-0.06642773
167	0xbe74325e	-0.23847339
168	0xbf0e0554	-0.5547688
169	0xbee9c714	-0.45659697
170	0xbea075bd	-0.31339827
171	0xbef280d5	-0.47363916
172	0xbeec1784	-0.4611169
173	0xbe6b9c61	-0.23008873
174	0xbeda3a6e	-0.42622703
175	0xbef167c6	-0.47149485
176	0xbeb7b926	-0.35883445
177	0xbf055770	-0.52086544
178	0xbecf7110	-0.40515947
179	0xbe71f2fb	-0.23627846
180	0x3e1ae0f5	0.15124877
181	0x3f016365	0.5054229
182	0x3f37e9c2	0.7184106
183	0x3f865e18	1.0497465
184	0x3f9919c3	1.1960987
185	0x3f76c20f	0.9638986
186	0x3f225d6c	0.634238
187	0x3efd018a	0.49415237
188	0x3f532521	0.8247853
189	0x3f4d5ddc	0.80221343
190	0x3f0985c3	0.5371973
191	0x3efafc53	0.49020633
192	0x3dc831a7	0.097750954
193	0xbd467faf	-0.048461612
194	0x3d6399ea	0.055566706
195	0x3e00d07e	0.12579533
196	0xbe4f17c6	-0.20223913
197	0x3edff2d5	0.43739954
198	0x3f206f5d	0.62669927
199	0x3f1e1d7b	0.61763734
200	0xbec3e61f	-0.38261506
201	0xbe453d9c	-0.19261783
202	0xbf04bd4b	-0.5185134
203	0xbf5863aa	-0.84527075
204	0xbf4cc512	-0.79988205
205	0xbf706110	-0.93898106
206	0xbf5cb0b7	-0.86207145
207	0xbf7baab4	-0.9830735
208	0xbf739f05	-0.9516452
209	0xbf5f555b	-0.8723962
210	0xbf667f5f	-0.900381
211	0xbf11de95	-0.5698026
212	0xbeae0111	-0.3398519
213	0xbe187f20	-0.14892244
214	0x3d28711d	0.0411235
215	0x3df3ab86	0.1189795
216	0x3d17b794	0.037040308
217	0x3e471522	0.19441655
218	0x3eb87ce1	0.36032775
219	0x3f16b875	0.5887521
220	0x3f025879	0.5091625
221	0x3f387c26	0.72064435
222	0x3f0e75e8	0.5564866
223	0x3f1666d1	0.58750635
224	0x3f1f49a6	0.62221754
225	0x3f1bf9ea	0.60928214
226	0x3f058aa2	0.5216466
227	0x3f0c62a1	0.54837996
228	0x3f249e5c	0.6430414
229	0x3f42845a	0.759832
230	0x3f1616ed	0.5862873
231	0x3ed24861	0.41070846
232	0x3ec89114	0.39173186
233	0x3ea4957d	0.321453
234	0x3eb24193	0.34815654
235	0x3ecb3490	0.3968854
236	0x3e9edb08	0.31026483
237	0xbd9c3ea9	-0.07629139
238	0xbb42a47c	-0.002970009
239	0xba825440	-0.0009943321
240	0x3eb0bde3	0.34519872
241	0x3ef39224	0.47572434
242	0x3effc36f	0.49953791
243	0x3edf8bbe	0.43661302
244	0x3eaec2b2	0.34132916
245	0x3e94c16a	0.29053813
246	0x3e0b21fd	0.13587184
247	0xbc074b47	-0.008257694
248	0xbdc98c19	-0.09841175
249	0xbd3f6c1d	-0.046733964
250	0x3e400348	0.18751252
251	0x3e18c64a	0.14919391
252	0x3dfe94b5	0.12430707
253	0x3e0f50e9	0.13995709
254	0x3e127a89	0.14304556
255	0xbd7fb0c2	-0.06242443

fc1.bias f4 [200]
0	0xbfa6cc99	-1.3031188
1	0xbf3f21b4	-0.746608
2	0xbf0b119a	-0.5432373
3	0xbeacfcc4	-0.33786595
4	0xbf83c01c	-1.0293002
5	0xbf49dbde	-0.78851116
6	0xbf6b9e33	-0.9203827
7	0xbf8bc0de	-1.0918233
8	0x3e6ec992	0.2331908
9	0xbed651fc	-0.41859424
10	0xbed51821	-0.4161997
11	0xbf82f731	-1.0231687
12	0xbfb20fd6	-1.3911083
13	0xbf14c15a	-0.5810753
14	0xbf33e3b4	-0.7026932
15	0xbf7fcd83	-0.9992296
16	0xbf0cf103	-0.55055255
17	0xbf832253	-1.024485
18	0xbe214469	-0.15748753
19	0xbf3694f7	-0.7132105
20	0x3ee8e0b1	0.45483926
21	0xbf7ffaa8	-0.99991846
22	0xbf991a0f	-1.1961077
23	0xbf25dc87	-0.64789623
24	0xbf3ef58d	-0.7459343
25	0xbf648449	-0.8926435
26	0xbe21a58d	-0.15785809
27	0xbed4d6c2	-0.41570097
28	0xbf9bbd90	-1.2167225
29	0xbed73a17	-0.42036507
30	0xbf7fee46	-0.9997295
31	0xbf772802	-0.9654542
32	0xbf9ca5e8	-1.223813
33	0xbf27d43c	-0.6555822
34	0xbfab11df	-1.3364829
35	0xbf304f53	-0.6887104
36	0xbf9cfb12	-1.226412
37	0xbf68435c	-0.9072778
38	0xbf094294	-0.53617215
39	0xbf845258	-1.0337629
40	0xbe918bb2	-0.28426892
41	0xbf951fcb	-1.1650327
42	0xbfa0d09e	-1.2563665
43	0xbf3d9336	-0.7405275
44	0xbf15cee3	-0.5851881
45	0xbe60036d	-0.21876307
46	0xbf8d4765	-1.1037413
47	0xbec9b5d9	-0.3939655
48	0x3ec965dd	0.39335528
49	0xbf81ea46	-1.014962
50	0xbee33fd2	-0.4438463
51	0x3e95e3f8	0.2927549
52	0xbf04c795	-0.5186704
53	0xbf4411df	-0.7658977
54	0xbf1c884c	-0.6114547
55	0xbe2ac4c5	-0.16676624
56	0xbec3e307	-0.38259146
57	0xbdcd12d3	-0.10013356
58	0xbf2461b8	-0.64211607
59	0xbf2d54db	-0.67707604
60	0xbed01e6a	-0.40648204
61	0xbf41c36f	-0.75688833
62	0xbf4954d8	-0.78645086
63	0xbf1d819f	-0.6152591
64	0xbf75bc46	-0.9599041
65	0xbf3dc029	-0.7412134
66	0xbe8801cf	-0.2656388
67	0xbe890fd6	-0.26769894
68	0x3f05e797	0.52306503
69	0x3f025f87	0.50927013
70	0xbf5c9297	-0.8616118
71	0xbf75ed2e	-0.9606503
72	0xbf63b81e	-0.88952816
73	0xbf87ad0a	-1.0599682
74	0xbf74f53e	-0.9568671
75	0xbf96f0cc	-1.1792235
76	0xbf5fe218	-0.87454367
77	0x3e20664a	0.1566402
78	0xbf779e81	-0.9672623
79	0xbf84d3d4	-1.0377145
80	0xbf5e5f03	-0.86863726
81	0xbef93afb	-0.4867781
82	0xbfb94ee0	-1.4477196
83	0xbf62c229	-0.88577515
84	0x3f1a8344	0.60356545
85	0xbf420761	-0.7579251
86	0xbee6107d	-0.44934455
87	0xbf591f54	-0.8481343
88	0xbf7bcadf	-0.9835643
89	0xbf3da322	-0.74077046
90	0xbf5ed9ff	-0.87051386
91	0xbf1d0aa1	-0.61344343
92	0xbfca9b31	-1.5828611
93	0xbf179fd7	-0.5922827
94	0xbf3eb867	-0.74500126
95	0xbf9f8cfe	-1.2464902
96	0xbf95f5a1	-1.1715585
97	0xbf7f99b2	-0.99843895
98	0x3f0b8ad1	0.5450869
99	0xbf44937d	-0.7678755
100	0xbf3f85c6	-0.748135
101	0xbf854462	-1.0411494
102	0xbf97aeff	-1.185028
103	0xbf818efc	-1.012176
104	0xbf9c1441	-1.2193681
105	0xbf3c6294	-0.7358792
106	0xbf582064	-0.84424424
107	0xbf9211af	-1.1411647
108	0xbf73bee6	-0.9521316
109	0xbf838a65	-1.027661
110	0xbf8f69d0	-1.1204166
111	0xbd08b3b9	-0.033374522
112	0xbeb68a95	-0.35652605
113	0xbead4876	-0.33844346
114	0xbf39ff8a	-0.72655547
115	0x3f407b52	0.7518817
116	0xbef2607a	-0.4733923
117	0xbf50dc30	-0.8158598
118	0x3ecff9d5	0.40620294
119	0xbf6503a1	-0.8945866
120	0xbf9121e3	-1.1338466
121	0xbc5ce3f6	-0.0134820845
122	0xbf4b2f3c	-0.7936895
123	0xbf2d90f1	-0.6779929
124	0xbf148cbe	-0.58027256
125	0xbf43644b	-0.7632491
126	0xbf8c20b9	-1.0947486
127	0xbf468d87	-0.77559704
128	0xbf5bc12b	-0.85841626
129	0xbebc3d00	-0.3676529
130	0xbf285a2c	-0.6576259
131	0xbf89081b	-1.0705599
132	0xbf8ca022	-1.0986369
133	0xbf2ae087	-0.6674885
134	0xbf06a70c	-0.52598643
135	0xbf8ea8a9	-1.1145221
136	0xbf8cc125	-1.0996443
137	0xbfadc117	-1.3574551
138	0xbf9904d7	-1.1954602
139	0xbf7e06f5	-0.99229366
140	0xbf169dd9	-0.58834606
141	0xbf2eaa68	-0.6822877
142	0xbf5fa999	-0.8736816
143	0xbf5248ea	-0.8214251
144	0xbf528dd5	-0.8224767
145	0x3dd465f2	0.10371007
146	0xbf49737b	-0.78691834
147	0xbf6d9d84	-0.92818475
148	0xbf61aec2	-0.88157284
149	0xbe17ebd0	-0.14836049
150	0xbebc9fbb	-0.36840615
151	0xbf811f27	-1.0087632
152	0xbfb350eb	-1.4009069
153	0xbf27aff3	-0.6550285
154	0xbf26cb45	-0.65153915
155	0xbeb3f48b	-0.3514751
156	0xbeebb206	-0.4603426
157	0xbf943922	-1.1579936
158	0xbf0a21e9	-0.5395799
159	0xbfc5d00d	-1.5454117
160	0xbe9e1f3c	-0.30883205
161	0xbf3f98c1	-0.7484246
162	0x3dc287cc	0.094985574
163	0xbdebcc51	-0.1151358
164	0xbf7fffa3	-0.99999446
165	0xbf759446	-0.9592937
166	0xbf62f33a	-0.88652384
167	0xbf3c1d45	-0.7348216
168	0xbfa26188	-1.2686014
169	0xbf5a43ba	-0.8525959
170	0xbf28540d	-0.6575325
171	0x3f155725	0.58336097
172	0xbe95dfe3	-0.29272375
173	0xbf0d6a71	-0.5524054
174	0xbf41b6f1	-0.7566977
175	0xbf11013c	-0.5664251
176	0xbeeaf69f	-0.45891282
177	0xbf813107	-1.0093087
178	0xbf356469	-0.7085634
179	0xbf2e29db	-0.68032616
180	0xbe578434	-0.21046525
181	0xbf68f147	-0.9099316
182	0xbf350a75	-0.7071908
183	0xbf6643ba	-0.8994709
184	0xbf9b0dff	-1.2113646
185	0xbf94bf71	-1.1620923
186	0xbecebc5e	-0.40378088
187	0xbf8d8bf0	-1.105833
188	0xbf657f26	-0.8964714
189	0xbfa089d2	-1.254206
190	0xbf8b420d	-1.0879532
191	0xbf9220f7	-1.141631
192	0xbf8d3ad6	-1.103358
193	0xbfc06f93	-1.503405
194	0xbf67b0b9	-0.9050403
195	0xbf4a1fa5	-0.78954536
196	0xbf34e686	-0.7066425
197	0xbf20ff8d	-0.6288994
198	0xbf385fb7	-0.7202105
199	0xbf51f6f7	-0.82017463

fc2.weight f4 [80, 200]
0	0xbdae3590	-0.0850631
1	0xbf365509	-0.71223503
2	0xbcbea314	-0.023271121
3	0xbeb97c90	-0.36227846
4	0xbe63f7b7	-0.22262464
5	0x3e80ebc0	0.25179863
6	0xbacde141	-0.001570739
7	0x3e57ff10	0.21093392
8	0xbf05dbdd	-0.5228861
9	0xbf677229	-0.9040857
10	0x3eecd674	0.46257365
11	0xbf2496db	-0.6429269
12	0xbf01d59b	-0.5071656
13	0x3eaec243	0.34132585
14	0xbed648bd	-0.4185237
15	0x3e7772e6	0.24164924
16	0x3e88a414	0.26687682
17	0x3e3e77af	0.18600343
18	0xbe927c8f	-0.28610656
19	0x3f0610c9	0.5236936
20	0xbee463f2	-0.44607502
21	0x3cc82fc1	0.024436833
22	0xbe7dd39a	-0.24787751
23	0xbe2f1303	-0.17097096
24	0x3e5ee8ac	0.21768445
25	0xbe58170d	-0.21102543
26	0xbb9bf66c	-0.0047596004
27	0xbf721068	-0.94556284
28	0xbeb469af	-0.3523688
29	0xbeffeeba	-0.4998682
30	0x3e4a42a9	0.19751991
31	0x3eafd494	0.34341872
32	0xbe98ff78	-0.29882407
33	0x3e0cba67	0.13742982
34	0x3db7e884	0.08979896
35	0xbd33db7c	-0.04391049
36	0x3e57448e	0.21022245
37	0xbec7bc50	-0.3901086
38	0x3e739e33	0.23790817
39	0x3ca05fe2	0.01957697
40	0x3f159124	0.5842459
41	0xbf315517	-0.6927046
42	0x3e1c5a80	0.15268898
43	0xbf445ad9	-0.7670112
44	0x3ede6bfb	0.43441758
45	0xbedb11b7	-0.42786953
46	0xbde8fc81	-0.11376286
47	0xbf6096c7	-0.8773007
48	0xbeee5680	-0.4655037
49	0xbf24fc3c	-0.6444738
50	0x3e891275	0.26771894
51	0xbf2e63f9	-0.68121296
52	0xbf793cff	-0.973587
53	0xbf2ac271	-0.66702944
54	0x3e67f97a	0.22653762
55	0xbf0473eb	-0.51739377
56	0xbf5cc0c6	-0.8623165
57	0xbe941c6a	-0.28927928
58	0x3e1931ba	0.14960375
59	0xbed6902a	-0.41906863
60	0xbedd6751	-0.43242887
61	0x3f23f11b	0.6403977
62	0x3eca0da4	0.39463532
63	0x3e9d0cb7	0.30673763
64	0xbf3b806f	-0.7324285
65	0x3e498425	0.19679315
66	0xbd90f845	-0.07078604
67	0xbe8f3c8d	-0.27975884
68	0xbe6b7150	-0.22992444
69	0xbec5c99a	-0.38630372
70	0x3e4adce6	0.19810829
71	0xbec53dc6	-0.38523692
72	0xbf7acebf	-0.9797172
73	0xbeeb3025	-0.4593517
74	0xbd1473b8	-0.03624317
75	0xbf0ef517	-0.5584273
76	0xbf32274e	-0.69591224
77	0xbf279015	-0.65454227
78	0x3de0231e	0.10944198
79	0xbcca61bd	-0.024704808
80	0xbec2ec95	-0.38071123
81	0x3f510f2c	0.81663775
82	0xbe923c19	-0.28561476
83	0xbf48a6e7	-0.7837967
84	0xbe9e5b1b	-0.30928883
85	0xbee4e30a	-0.44704467
86	0xbec2bc21	-0.38034156
87	0x3f41a87c	0.7564771
88	0x3ee499e1	0.4464865
89	0x3ef0599e	0.46943372
90	0xbf3873a1	-0.72051436
91	0xbf6df13b	-0.92946213
92	0xbea86632	-0.3289047
93	0x3e95e179	0.29273584
94	0xbf7dc0c1	-0.99122244
95	0xbe8064ec	-0.25076997
96	0xbf191925	-0.5980399
97	0xbe735795	-0.23763879
98	0xbe6a63a1	-0.22889568
99	0x3d1602e6	0.036623858
100	0x3eacf193	0.33778057
101	0xbe3fa9cf	-0.1871712
102	0x3f0c8f1e	0.5490588
103	0x3dac749f	0.08420681
104	0xbf06fbb0	-0.52727795
105	0xbf1e232e	-0.6177243
106	0x3f170107	0.5898594
107	0x3ec5a00a	0.38598663
108	0xbec2e2b9	-0.380636
109	0xbf176196	-0.5913328
110	0x3e97dcfc	0.29660785
111	0xbf38d85a	-0.72205126
112	0x3e5f246f	0.21791242
113	0xbec0a9e7	-0.37629625
114	0xbb89a0ce	-0.0042000776
115	0xbeba6dd9	-0.36411932
116	0xbf0dbd86	-0.55367315
117	0x3ed7bab0	0.4213462
118	0x3ed8e942	0.42365462
119	0xbe531615	-0.20613892
120	0x3da62eda	0.08114405
121	0xbf54dfd1	-0.83154017
122	0x3cbdb029	0.023155289
123	0xbf010251	-0.5039416
124	0xbe4d89ab	-0.20072047
125	0xbfac4476	-1.3458393
126	0xbedb5a87	-0.42842504
127	0x3d5072c1	0.050890688
128	0xbf2b4578	-0.66902876
129	0x3ea13bf1	0.31491044
130	0xbe9739ae	-0.29536194
131	0xbe95dd2e	-0.2927031
132	0x3d00ad2a	0.031415142
133	0x3eec6e1a	0.4617775
134	0xbe6a8afb	-0.2290458
135	0x3f327185	0.6970447
136	0xbf1b262b	-0.60605115
137	0x3f0e37af	0.55553716
138	0xbee694ad	-0.45035306
139	0xbefcde0a	-0.49388152
140	0xbf100696	-0.5626005
141	0xbe2d917b	-0.16950028
142	0xbe14826e	-0.1450288
143	0xbe9c281a	-0.30499345
144	0xbe2ae990	-0.1669066
145	0xbef4f3a8	-0.47842145
146	0xbe610b0b	-0.21976869
147	0x3f36c4e0	0.7139416
148	0xbd055115	-0.03254803
149	0xbf048113	-0.5175945
150	0xbf4d5319	-0.8020492
151	0xbeaf5b5f	-0.34249398
152	0xbe901f59	-0.28148916
153	0x3eab7325	0.33486286
154	0xbf4b2f0d	-0.7936867
155	0xbf424277	-0.7588267
156	0xbe9f52de	-0.3111791
157	0xbd98ad10	-0.07454884
158	0xbd87711e	-0.06613372
159	0xbef8d5e2	-0.4860068
160	0x3e6c4a39	0.23075189
161	0xbf24ab8c	-0.6432426
162	0xbf78039b	-0.968805
163	0xbec47e23	-0.38377485
164	0xbf33edff	-0.7028503
165	0xbe214914	-0.15750533
166	0x3e0d7e79	0.13817777
167	0x3e1de6c0	0.15420055
168	0x3d93be09	0.07213981
169	0x3e4c9eae	0.19982406
170	0xbce740d0	-0.028229147
171	0xbf02a079	-0.5102611
172	0xbf4670d4	-0.7751591
173	0xbee59b14	-0.44844878
174	0xbe94fa88	-0.2909739
175	0x3eb9b4c6	0.36270732
176	0x3dd9ff6a	0.106444195
177	0xbeff9454	-0.49917853
178	0xbf73203f	-0.9497108
179	0xbe959b75	-0.29220167
180	0xbf12e85a	-0.5738579
181	0xbebb9ea8	-0.36644483
182	0xbcc2368f	-0.023707656
183	0xbce85f5b	-0.028365782
184	0xbd4948d4	-0.04914172
185	0xbf1599a9	-0.5843759
186	0xbf176559	-0.5913902
187	0x3dab4525	0.08362798
188	0xbe97a567	-0.2961838
189	0xbe013f63	-0.12621836
190	0x3ea1c1ce	0.31593174
191	0x3ec3ce44	0.38243306
192	0x3e9c3f32	0.30516964
193	0xbf268d0a	-0.6505896
194	0xbe681d51	-0.22667433
195	0xbdfed537	-0.12443011
196	0x3ce288b6	0.02765308
197	0xbe9a88bc	-0.30182445
198	0x3ec3f90d	0.38275948
199	0x3f1101b7	0.5664324
200	0xbed0a5cc	-0.40751493
201	0xbefd393c	-0.4945773
202	0xbee42062	-0.44555956
203	0xbde509b5	-0.11183492
204	0x3eb1f6fb	0.34758744
205	0xbf212835	-0.62951976
206	0xbef8ca72	-0.48591954
207	0xbea0a194	-0.31373274
208	0xbe542c18	-0.20719945
209	0xbe921a1d	-0.28535548
210	0xbed6c748	-0.41948915
211	0xbeb0fd8f	-0.3456845
212	0xbe83abb9	-0.2571695
213	0xbea63bc8	-0.32467484
214	0xbf270fe1	-0.65258604
215	0xbe944d84	-0.2896539
216	0xbd8f65af	-0.070018165
217	0xbd7186ae	-0.05896633
218	0xbeb88605	-0.3603975
219	0xbdeda6c7	-0.11604076
220	0xbe26b938	-0.16281593
221	0xbdb3dd5a	-0.08782454
222	0xbe89463e	-0.26811403
223	0xbeab8e8f	-0.335072
224	0xbedfe8e7	-0.43732378
225	0xbe7914f4	-0.24324399
226	0xbceb304b	-0.028709551
227	0xbea88827	-0.32916376
228	0x3c310153	0.010803538
229	0xbec59130	-0.38587332
230	0xbe828cd2	-0.25498062
231	0xbd3e4690	-0.046454012
232	0xbe6f19eb	-0.2334973
233	0xbe491bca	-0.19639507
234	0x3debb1ab	0.11508497
235	0xbf1b99b8	-0.6078143
236	0xbf271cb4	-0.6527817
237	0xbee2a75e	-0.44268316
238	0xbe9efd9e	-0.3105287
239	0xbd92da06	-0.07170491
240	0xbe353b66	-0.1769844
241	0xbeed4240	-0.46339607
242	0xbe07857e	-0.13234517
243	0x3c0282a4	0.007965717
244	0xbe7da2be	-0.24769112
245	0xbec96903	-0.3933793
246	0xbe1ea567	-0.15492783
247	0xbf1395ad	-0.5765026
248	0xbe20a89a	-0.15689316
249	0xbf1b8180	-0.60744476
250	0xbe9ff4fd	-0.312416
251	0xbf0d7db2	-0.5526992
252	0xbeac4467	-0.33645937
253	0x3e0f96f3	0.14022426
254	0x3d95995a	0.0730464
255	0xbe822408	-0.25418115

fc2.bias f4 [80]
0	0xbe9aaf56	-0.30211896
1	0xbf6f7cb7	-0.93549675
2	0xbec75bc6	-0.38937205
3	0xbe029da8	-0.12755454
4	0xbdf2f40e	-0.11862956
5	0xbed44202	-0.4145661
6	0x3d25b382	0.040454395
7	0xbeda0685	-0.425831
8	0xbe4e1cf3	-0.20128231
9	0xbea6b97c	-0.32563388
10	0xbf19b350	-0.60039234
11	0xbee68cb3	-0.4502922
12	0x3f0c3e7d	0.5478285
13	0xbec8449f	-0.39114854
14	0xbd3caa4e	-0.046060853
15	0xbe620027	-0.2207037
16	0xbbbc0834	-0.0057382826
17	0xbdeb764b	-0.11497172
18	0xbdbe3cfe	-0.09288977
19	0xbdc05ef2	-0.093931094
20	0xbea94d16	-0.33066624
21	0xbecf532a	-0.40493137
22	0xbe869a35	-0.26289526
23	0xbe1d5a29	-0.15366425
24	0xbd2c5590	-0.042073786
25	0xbec51c5b	-0.38498196
26	0xbde97cf1	-0.11400784
27	0xbeb7ad40	-0.35874367
28	0x3e52b911	0.2057841
29	0xbdc71600	-0.09720993
30	0xbe1d0ad5	-0.15336163
31	0xbe8f4c9a	-0.2798813
32	0xbdea1606	-0.11429982
33	0x3f19814a	0.59962904
34	0xbeb5a65d	-0.35478488
35	0xbea46930	-0.32111502
36	0x3e867b05	0.2626573
37	0xbdc60a28	-0.09669906
38	0x3e6cbabf	0.23118113
39	0xbdc0d361	-0.09415317
40	0x3f13316e	0.574973
41	0x3d9c5ad3	0.07634511
42	0xbee36778	-0.44414878
43	0xbd9a4f7c	-0.07534692
44	0xbef085a7	-0.4697697
45	0xbf38c484	-0.7217486
46	0xbe844754	-0.2583567
47	0xbeede5ad	-0.4646429
48	0xbdcd471c	-0.10023329
49	0xbef4549b	-0.477208
50	0xbe8348b5	-0.2564141
51	0xbe75a3f7	-0.23988329
52	0xbf16884e	-0.58801734
53	0xbd26e2d3	-0.04074366
54	0x3e1d6c66	0.15373382
55	0xbec6304b	-0.3870872
56	0xbf2adffb	-0.6674802
57	0xbf0ed6ce	-0.55796516
58	0xbefae5a4	-0.49003327
59	0xbefe158d	-0.49625817
60	0xbeb2af29	-0.34899262
61	0xbf4db247	-0.80350155
62	0xbe5eeb9f	-0.2176957
63	0x3da63b32	0.08116759
64	0xbf047d1e	-0.51753414
65	0xbe898c63	-0.2686492
66	0xbedb2848	-0.4280417
67	0xbe8d2dc8	-0.2757399
68	0xbe8d7c37	-0.2763383
69	0xbdb457c5	-0.08805803
70	0xbf25313e	-0.6452826
71	0xbf5eae01	-0.8698426
72	0x3d2b0cf5	0.041760404
73	0xbf5b11d3	-0.8557407
74	0xbe8b4275	-0.2719914
75	0xbe931ed7	-0.28734466
76	0xbdbf9478	-0.0935449
77	0xbe746b4b	-0.23869054
78	0xbea31282	-0.31850058
79	0x3e13e080	0.14441109

out.weight f4 [3, 80]
0	0xbe1fbe42	-0.15599921
1	0xbadc5ccb	-0.0016812322
2	0xbc82ebb4	-0.015981533
3	0xbc7deed1	-0.015498833
4	0x3e149c95	0.14512856
5	0xbd773bd8	-0.060359806
6	0x3db4464b	0.0880247
7	0x3cabdd24	0.020979472
8	0x3e339373	0.17536716
9	0x3cd87941	0.026425006
10	0x3e198bc2	0.1499472
11	0xbd09184a	-0.03347043
12	0xbe2c6de3	-0.16838793
13	0x3d824beb	0.063621365
14	0x3e6dbd55	0.23216756
15	0xbe7e23fc	-0.24818414
16	0xbd1b52a7	-0.03792062
17	0xbbc9eb9b	-0.0061621196
18	0xbce15e56	-0.027510803
19	0xbcec4aff	-0.028844355
20	0xbb8dfdb6	-0.004333223
21	0xbdb40b4b	-0.087912165
22	0xbdbbc447	-0.09168296
23	0xbcb4b726	-0.022059988
24	0x3dbb3ba9	0.09142239
25	0x3dc8dddb	0.098079406
26	0xb9292e6a	-0.00016134387
27	0xbd74a401	-0.05972672
28	0xbdbb40f2	-0.09143247
29	0x3d6be7d9	0.057594154
30	0x3dfa8b18	0.12233561
31	0xbe03af5a	-0.1285986
32	0x3d7c3d95	0.061582167
33	0xbea7c091	-0.32764104
34	0x3c3d428b	0.01155151
35	0xbe41fa4c	-0.18943137
36	0x3dc3b435	0.09555856
37	0x3d9a60f6	0.07538025
38	0x3d9b4587	0.07581621
39	0xbd8b37a6	-0.067977235
40	0xbe55fc23	-0.20896964
41	0xbdf17aa6	-0.117909715
42	0xbcbd3d30	-0.023100466
43	0x3cf826ee	0.030292
44	0x3cf0dd14	0.029402293
45	0xbde5bdbe	-0.11217831
46	0xbe0db54e	-0.13838693
47	0x3df84eeb	0.121244274
48	0x3d3e5e86	0.046476863
49	0x3e4dd091	0.20099093
50	0xbdc40858	-0.09571904
51	0xbe547576	-0.20747933
52	0xbca56c29	-0.020193176
53	0xbb302a54	-0.0026880698
54	0x3d822901	0.06355477
55	0x3d0a0fd1	0.03370649
56	0xbe4f9ef4	-0.2027548
57	0xbe3da776	-0.18520913
58	0xbe0d2afe	-0.13785931
59	0xb97ce657	-0.00024118401
60	0xbdff0cf7	-0.12453645
61	0x3e9382a1	0.288106
62	0x3e53ed10	0.20695901
63	0x3e717ac4	0.23581988
64	0xbd242016	-0.040069662
65	0x3dbeb570	0.0931195
66	0x3e85ce62	0.2613402
67	0x3e9acb05	0.30233017
68	0x3d82d17f	0.063876145
69	0x3dd05474	0.10172358
70	0x3dd9eda2	0.10641028
71	0x3e15c859	0.14627208
72	0x3d578a5e	0.05262219
73	0xbdce1281	-0.10062123
74	0xbc4eee4c	-0.012630057
75	0x3cf90d67	0.030401899
76	0xbbde873d	-0.006791024
77	0x3de20445	0.110359706
78	0xbd42bba3	-0.047542226
79	0x3d80ae6e	0.0628327
80	0xbdf76cde	-0.12081312
81	0x3cd03862	0.02541751
82	0x3df8dbbf	0.12151288
83	0xbdb394b8	-0.087686
84	0xbd2f7d4c	-0.0428441
85	0xbdaba538	-0.08381122
86	0x3c70c2eb	0.01469491
87	0xbd513e60	-0.051084876
88	0xbdab3a87	-0.083607726
89	0xbe929465	-0.2862884
90	0xbe648fc9	-0.22320475
91	0x3e830b71	0.25594667
92	0x3e23e24b	0.16004293
93	0x3e461441	0.19343664
94	0xbec9f264	-0.39442742
95	0x3e7f98a6	0.24960575
96	0xbe09f9d0	-0.13474202
97	0xbe08fb11	-0.13377024
98	0xbe4c5b5c	-0.19956726
99	0xbd8a2e8c	-0.06747159
100	0x3dfd662e	0.12373005
101	0xbd70e63d	-0.058813322
102	0x3e1c4428	0.15260375
103	0x3e09f937	0.13473974
104	0xbdf8da3f	-0.12151002
105	0x3db0dd6d	0.086359836
106	0x3cc1b730	0.02364692
107	0xbd7e6912	-0.06211192
108	0xbcb0420f	-0.021515874
109	0xbc43c75b	-0.0119493855
110	0x3cd22d9f	0.02565652
111	0xbe4ad38e	-0.19807264
112	0x3d2020f0	0.03909391
113	0x3eb9ea0f	0.36311385
114	0x3da0db8a	0.07854374
115	0xbf176c1e	-0.5914935
116	0xbdadc6e9	-0.08485205
117	0x3d7e6d43	0.06211592
118	0xbbb5d86f	-0.0055494825
119	0xbd21fca7	-0.03954759
120	0x3e972715	0.29522005
121	0x3de943f5	0.11389915
122	0xbca626ff	-0.020282267
123	0x3bf8ebb9	0.0075964597
124	0xbdbe5177	-0.09292882
125	0xbe631aa1	-0.22178127
126	0xbdcbc0d9	-0.09948892
127	0xbe17ce9b	-0.14824907
128	0x3d4a153b	0.049336653
129	0xbe4f773f	-0.20260333
130	0xbdeb9eda	-0.11504908
131	0xbeaa3512	-0.33243614
132	0xbc28f1e4	-0.0103115775
133	0xbde8706d	-0.113495685
134	0x3d1f6570	0.038915098
135	0xbe529fa2	-0.20568708
136	0xbda28662	-0.07935788
137	0x3cd632d1	0.026147278
138	0xbdd0d95d	-0.10197709
139	0x3d5a324e	0.05327063
140	0xbe81bf2e	-0.2534117
141	0xbdcb5152	-0.0992762
142	0xbea7e9d3	-0.3279558
143	0xbe751906	-0.23935327
144	0xbdb00449	-0.08594567
145	0xbe0406cf	-0.12893222
146	0x3d1a16f2	0.03761954
147	0xbe6b2952	-0.22964981
148	0xbd42456f	-0.0474295
149	0x3c72ab93	0.014811414
150	0xbece5882	-0.403019
151	0xbe6ca921	-0.23111393
152	0x3d5f307d	0.0544896
153	0xbe454628	-0.19265044
154	0xbdcea6de	-0.10090421
155	0xbdcfcdf8	-0.10146707
156	0x3d08a0a6	0.03335633
157	0xbd2a6cfb	-0.041607838
158	0xbc8c05ec	-0.017092668
159	0x3d36cd34	0.04462929
160	0x3e25fa3f	0.16208743
161	0x3e5f1eec	0.2178914
162	0x3d97abf3	0.074058436
163	0x3db7332f	0.08945309
164	0xbdbf8aed	-0.0935267
165	0xbe28b8c3	-0.16476731
166	0xbd46d751	-0.048545185
167	0xbda50156	-0.080568954
168	0xbdf2a655	-0.118481316
169	0xbc518151	-0.012787179
170	0xbe41968d	-0.18905087
171	0xbdb062e7	-0.08612614
172	0xbe3d5b75	-0.1849192
173	0x3bc0eca5	0.005887585
174	0xbdb1e477	-0.08686154
175	0x3e819cff	0.2531509
176	0xbc236f20	-0.009975225
177	0xbd969082	-0.073517814
178	0x3b31d612	0.0027135652
179	0xbd566ce6	-0.052349947
180	0xbddb257a	-0.107005075
181	0x3e4dadbc	0.20085806
182	0xbe5364a5	-0.20643862
183	0xbe2aa656	-0.16665015
184	0x3e031033	0.12799148
185	0x3c96d1e3	0.018410629
186	0xbd32ed3f	-0.043683287
187	0x3d89d2c9	0.06729657
188	0xbe1ba021	-0.15197803
189	0xbdc0649a	-0.09394188
190	0xbc451197	-0.0120281195
191	0x3dbd162f	0.09232747
192	0xbd54bd25	-0.051938195
193	0xbe6c4442	-0.23072913
194	0x3d039615	0.03212555
195	0x3e3bc88d	0.18338223
196	0xbe86ef13	-0.26354274
197	0xbca67115	-0.020317594
198	0xbea98b9d	-0.3311433
199	0x3e53c253	0.20679598
200	0xbf156ad4	-0.5836613
201	0xbd1cb22b	-0.03825585
202	0x3e025c4c	0.12730521
203	0xbd12adcd	-0.03581028
204	0x3d5eba6b	0.054377
205	0xbd39368d	-0.04521804
206	0x3cfd7b8d	0.030942703
207	0x3ce96da9	0.028494673
208	0x3bea233b	0.007145313
209	0xbdca9940	-0.09892511
210	0x3e11763e	0.14205262
211	0x3e14eeeb	0.14544265
212	0x3d21acb5	0.039471347
213	0xbcb5a9eb	-0.02217575
214	0xbe2b2085	-0.16711624
215	0xbe0b7a5b	-0.13620894
216	0x3db4468b	0.088025175
217	0x3e59e5fb	0.21279137
218	0x3e167357	0.14692436
219	0x3d81bcff	0.06334876
220	0x3e513dfe	0.20433804
221	0xbe0d2475	-0.13783439
222	0xbdf7424a	-0.120731905
223	0xbe46952e	-0.19392845
224	0x3d43c26a	0.04779283
225	0x3dd3c2c2	0.103398815
226	0xbd96e41a	-0.07367726
227	0xbe2f34d9	-0.17110004
228	0x3d59a6ba	0.05313752
229	0xbd10a9f1	-0.03531832
230	0x3c28245d	0.010262576
231	0x3d6d1aa5	0.05788674
232	0x3c513e44	0.012771193
233	0x3e3a8ef2	0.18218592
234	0xbd5078eb	-0.050896566
235	0x3d9689ec	0.07350525
236	0xbcfec415	-0.031099359
237	0xbe060cb3	-0.13090782
238	0x3db55847	0.08854728
239	0x3c8c4a45	0.017125258

out.bias f4 [3]
0	0xc04ebed1	-3.2303965
1	0x40fc91b2	7.892785
2	0xc058f3cb	-3.38988
