Machine_Learning/Week_9_Prep/MLPW9.pt (torch, 355927 bytes, 6 tensors)

fc1.weight f4 [200, 360]
0.028770834 -0.028919596 -0.010145438 0.025267035 -0.05456267 -0.0058391416 0.0012166672 -0.070506215
0.0016530566 -0.042373348 0.004129095 -0.05189477 0.021748295 -0.006914232 0.0330924 -0.049976163
0.036651477 -0.026266167 0.041867252 0.023963105 0.013114702 0.06478466 0.018599853 0.0038133617
0.03331559 -0.027264785 -0.08183047 -0.0781542 -0.069930434 -0.004864543 -0.051658336 0.020849653
0.0481698 -0.023650298 0.025700275 -0.016148366 0.024899786 -0.008908579 -0.03581595 0.048009694
-0.042737495 0.024470152 0.07895286 0.045564137 0.055073813 0.09268101 0.0037083388 0.0045906445
0.07485353 0.023166398 0.11676145 0.04749003 0.013558439 -0.004860144 0.03166405 -0.06328678
-0.066857755 -0.020847807 0.07290613 -0.0049371384 0.07415515 -0.02646355 -0.0040285946 -0.05822946
-0.03177152 -0.0017367902 0.043367215 0.0064202817 0.0029789605 -0.00044295928 0.006186227 0.022402428
-0.013254086 -0.06414882 -0.07724373 -0.11462703 0.00942713 0.06655167 0.013671659 0.013720426
-0.060150288 -0.035205983 -0.056204833 -0.033515062 -0.02258154 -0.06449831 -0.00695432 -0.03699468
-0.05527943 -0.029821362 -0.045642436 -0.0012037797 0.023776561 -0.075822994 -0.049612675 -0.046466444
-0.09431907 -0.092740424 -0.03375363 -0.044184893 -0.0560312 0.031194884 -0.051629387 0.035973568
-0.067308575 -0.035450213 0.018526694 -0.025456032 -0.03190265 -0.059496917 -0.0072342805 0.0014615224
-0.007175138 0.042669218 -0.057026934 -0.06450718 -0.054671723 -0.049139347 -0.07386567 -0.079734825
0.05192068 0.00075273594 0.016138708 0.033002812 0.027597815 -0.02887005 0.0318161 -0.024162514
-0.011129707 0.023426447 0.020028552 0.01665948 -0.057375103 -0.071270265 -0.0027402535 0.029270943
0.0044110096 -0.041780822 0.0019291689 -0.05775462 -0.04510763 -0.050359793 -0.061916437 -0.03994866
-0.10119186 -0.021150842 -0.11981503 -0.09882493 -0.060216602 -0.08618329 -0.10548665 -0.116981655
-0.03363446 -0.009683132 -0.049698807 -0.06641079 -0.06931572 -0.10132527 -0.04858357 -0.038314834
-0.13353403 -0.15641582 -0.10682946 -0.11869109 -0.06255856 -0.04785179 -0.030991888 -0.089540996
-0.044213466 0.033964653 -0.003896843 -0.0050062654 0.031729057 -0.020272894 0.047571898 0.059244473
0.103367016 0.06718541 0.106965706 0.035332303 -0.03986282 -0.03115604 -0.060196534 0.0065649175
0.00038335472 0.047733404 0.019565633 -0.027536158 0.032252267 -0.027619753 0.11396294 0.0960243
-0.014518753 0.030416107 0.071146205 0.16466406 0.09621004 0.1913278 0.17275515 0.120558105
-0.06341804 -0.009867676 -0.059970353 -0.061916925 -0.040986832 -0.09903625 -0.034225177 -0.0006853512
-0.04378013 -0.022487383 -0.038139943 -0.02174773 0.008907457 -0.029202651 -0.05776895 -0.014632299
-0.0699312 0.0075683836 -0.006510092 -0.012133376 -0.030997902 0.08495759 -0.0004952261 0.056408912
0.024333244 0.039291266 0.10699789 0.1330455 0.10121419 0.13536423 0.08776155 0.043669175
0.0787096 0.04300945 0.0529697 0.04358296 -0.0070330114 0.0034629449 0.04067191 -0.00040277638
0.059295163 0.038785122 0.076620944 0.033970337 -0.0052154353 -0.011883766 -0.03040545 0.025214683
-0.04794642 -0.02489188 0.010771579 -0.041548487 -0.064557925 -0.044996496 -0.022593495 -0.083081186
00000000: d0b0 eb3c cae8 ecbc 0d39 26bc d0fc ce3c
00000010: 1b7d 5fbd 4556 bfbb 9478 9f3a 9065 90bd
00000020: 60ab d83a ad8f 2dbd 5c4d 873b 9c8f 54bd
00000030: 7b29 b23c c890 e2bb e58b 073d ceb3 4cbd
00000040: dc1f 163d 252c d7bc ff7c 2b3d 464e c43c
00000050: 0cdf 563c d2ad 843d b85e 983c 98e9 793b
00000060: ee75 083d 665a dfbc bc96 a7bd 4f0f a0bd
00000070: b037 8fbd bf66 9fbb b197 53bd e4cc aa3c
00000080: b24d 453d 45be c1bc 6289 d23c 9449 84bc
00000090: a3fa cb3c 4af5 11bc bfb3 12bd d0a5 443d
000000a0: 830d 2fbd a175 c83c 09b2 a13d 76a1 3a3d
000000b0: 1495 613d 8bcf bd3d 9a07 733b 1e6d 963b
000000c0: cf4c 993d 75c7 bd3c a120 ef3d e884 423d
000000d0: 3724 5e3c d841 9fbb 2ab2 013d 809c 81bd
000000e0: b8ec 88bd 05c9 aabc cf4f 953d b8c7 a1bb
000000f0: a8de 973d 16ca d8bc 4d02 84bb 0482 6ebd
00000100: da22 02bd 02a5 e3ba d2a1 313d 3a61 d23b
00000110: aa3a 433b fd3c e8b9 d5b5 ca3b 4c85 b73c
00000120: aa27 59bc 7560 83bd f631 9ebd 94c1 eabd
00000130: 4074 1a3c 3e4c 883d 18ff 5f3c a3cb 603c
00000140: 2660 76bd 2634 10bd 0a37 66bd 1747 09bd
00000150: ecfc b8bc b117 84bd 10e1 e3bb bc87 17bd
00000160: af6c 62bd ee4b f4bc 90f3 3abd 25c8 9dba
00000170: 10c7 c23c 1649 9bbd a936 4bbd 9953 3ebd
00000180: 5b2a c1bd b1ee bdbd 3f41 0abd 38fb 34bd
00000190: f980 65bd 6a8c ff3c 5679 53bd 0559 133d
000001a0: 14d9 89bd 3e34 11bd 4bc5 973c 2b89 d0bc
000001b0: 5aac 02bd 0ab3 73bd 8b0d edbb 8e90 bf3a
000001c0: 6c1d ebbb ebc5 2e3d 1395 69bd 571c 84bd
000001d0: 75ef 5fbd 5746 49bd e246 97bd 034c a3bd
000001e0: c7aa 543d 4153 453a 5335 843c f52d 073d
000001f0: d014 e23c e280 ecbc 9951 023d 77f0 c5bc
00000200: 6059 36bc d2e8 bf3c eb12 a43c 7679 883c
00000210: 2802 6bbd 25f6 91bd d395 33bb 9ec9 ef3c
00000220: 3b8a 903b 5e22 2bbd 2bdc fc3a 1c90 6cbd
00000230: c7c2 38bd 1246 4ebd 179c 7dbd 35a1 23bd
00000240: ae3d cfbd 8844 adbc 9561 f5bd ba64 cabd
00000250: afa5 76bd dd80 b0bd 6209 d8bd 1494 efbd
00000260: 4ac4 09bd 00a6 1ebc fa90 4bbd 6102 88bd
00000270: 66f5 8dbd a083 cfbd 91ff 46bd 04f0 1cbd
00000280: 25bd 08be 782b 20be 67c9 dabd 5014 f3bd
00000290: b41e 80bd 3d00 44bd b3e2 fdbc 4561 b7bd
000002a0: 2e19 35bd 851e 0b3d 2d62 7fbb 990b a4bb
000002b0: 54f6 013d 5713 a6bc c0da 423d 55aa 723d
000002c0: 16b2 d33d 8198 893d d610 db3d 9bb8 103d
000002d0: 3247 23bd f43a ffbc a490 76bd 851e d73b
000002e0: 00fd c839 1a84 433d 1b48 a03c 8293 e1bc
000002f0: f41a 043d d242 e2bc 6765 e93d 63a8 c43d
00000300: 10e0 6dbc 332b f93c 1ab5 913d b29d 283e
00000310: c509 c53d 6feb 433e bae6 303e 2be7 f63d
00000320: 51e1 81bd 08ac 21bc 79a3 75bd 9a9c 7dbd
00000330: cfe1 27bd 84d3 cabd b32f 0cbd 24a9 33ba
00000340: cb52 33bd 7637 b8bc a138 1cbd 4c28 b2bc
00000350: 95f0 113c 663a efbc 229f 6cbd 4fbc 6fbc
00000360: 1738 8fbd 3400 f83b 9c52 d5bb 11cb 46bc
00000370: 50ef fdbc 3ffe ad3d 10d2 01ba 080d 673d
00000380: 8356 c73c e1ef 203d b621 db3d 143d 083e
00000390: 6349 cf3d ec9c 0a3e 54bc b33d 73de 323d
000003a0: 8032 a13d ad2a 303d c2f6 583d 0c84 323d
000003b0: 2d75 e6bb 93f2 623b 9797 263d bb2b d3b9
000003c0: 7cdf 723d 26dd 1e3d 71eb 9c3d 7b24 0b3d
000003d0: 3ee6 aabb 21b4 42bc da14 f9bc 068f ce3c
000003e0: 7763 44bd 0eea cbbc 477b 303c bf2e 2abd
000003f0: f236 84bd 3f4e 38bd fe15 b9bc 7826 aabd

fc1.bias f4 [200]
-0.01742907 -0.017594386 -0.020885283 0.08625746 -0.008192682 -0.006032916 -0.026365472 -0.005723922
0.055590555 0.0078062993 -0.018067192 -0.07176544 -0.08641925 -0.039408773 -0.034181464 -0.0048147542
0.048252333 -0.013022297 0.06645364 -0.025232947 0.08986178 0.009086014 -0.025202176 0.008465477
0.018424489 0.020057613 0.012758198 0.07501896 0.018226106 0.05049484 -0.00022984375 -0.0103399465
-0.0631488 -0.047768366 0.09729417 0.06974158 -0.0062144017 -0.0047295103 -0.06539976 -0.03420212
0.06780539 -0.0035620902 0.018443847 0.024140917 -0.017372914 0.013202229 -0.11126826 -0.0049759713
0.06345162 0.029554287 -0.05759043 0.03893569 0.06172776 -0.010748492 0.032546006 -0.021889541
0.043848105 0.060529172 -0.04637416 -0.0035348518 0.030444583 -0.06625308 -0.100160144 -0.02415351
-0.036577754 0.018513383 -0.0033484013 0.03934981 0.04589464 -0.009145422 -0.115867086 0.018364519
0.050261173 -0.06744158 -0.06652798 -0.031596787 0.01576059 0.04994127 -0.021211652 -0.046295
-0.018847529 -0.044495787 -0.03393179 0.06686662 0.04537499 -0.08320609 0.024295026 0.016063219
-0.049467023 -0.037117068 0.018760381 0.036824115 -0.09597795 0.024405334 0.037792314 -0.004946501
-0.037531827 -0.06297339 0.09113052 -0.058175772 -0.030331947 0.043539394 -0.104820095 -0.026317634
0.033772558 0.0033559168 0.017534183 -0.023753611 -0.0426145 0.027410936 -0.012576437 -0.00064514816
0.08976037 0.04330274 -0.07477531 0.038181428 0.038945217 0.028013265 0.08808834 0.020765722
0.068694055 0.0012913276 -0.058201853 0.06176848 -0.0032928574 0.040010918 -0.03864635 0.009973588
0.012951822 0.004798356 -0.014424236 0.06440881 -0.044833798 0.023103015 -0.028949115 0.07132881
-0.027806964 -0.07409678 -0.05318982 -0.054158952 0.030331822 0.034539845 -0.027691623 -0.05980544
0.001830787 0.07503844 -0.035678767 -0.02731504 -0.093996644 -0.0040796306 -0.031013245 -0.005029751
-0.019545615 0.062431823 0.0013591796 0.047109995 -0.009473806 -0.047092453 0.053181693 -0.038823664
-0.0069835456 0.035179928 0.030989433 0.051099118 -0.010063046 -0.018713308 -0.011896342 -0.046968766
-0.11331693 -0.043648098 -0.030530984 0.057472344 -0.005496964 -0.008126966 -0.009867086 -0.060151316
0.012644262 -0.030660007 0.006577679 -0.002085299 0.0620045 -0.007569452 0.01759891 0.03360191
0.0153716365 -0.014179872 0.01619441 -0.060908254 -0.03410716 -0.026713904 -0.033465277 -0.031359702
-0.07992417 -0.050565314 -0.0031487988 0.018148225 -0.029822115 -0.03526951 0.042557556 -0.07700563
00000000: 69c7 8ebc 1a22 90bc 9d17 abbc c0a7 b03d
00000010: 993a 06bc c4af c5bb 67fc d7bc bd8f bbbb
00000020: ecb2 633d fccb ff3b a601 94bc c2f9 92bd
00000030: 93fc b0bd 186b 21bd dd01 0cbd 16c5 9dbb
00000040: 3da4 453d 795b 55bc d918 883d 53b5 cebc
00000050: 7409 b83d 81dd 143c cb74 cebc c9b2 0a3c
00000060: f4ee 963c dd4f a43c c307 513c 8aa3 993d
00000070: ea4e 953c add3 4e3d 3602 71b9 e168 29bc
00000080: 2854 81bd c3a8 43bd 2a42 c73d acd4 8e3d
00000090: 2ea2 cbbb 02fa 9abb 4ff0 85bd 8617 0cbd
000000a0: 8ddd 8a3d f571 69bb 8d17 973c 2cc3 c53c
000000b0: a451 8ebc 294e 583c 9de0 e3bd 790d a3bb
000000c0: ecf2 813d d51b f23c f1e3 6bbd 087b 1f3d
000000d0: 3fd6 7c3d 711a 30bc f64e 053d b251 b3bc
000000e0: 129a 333d 70ed 773d d5f2 3dbd f9a8 67bb
000000f0: eb66 f93c b2af 87bd c320 cdbd 95dd c5bc
00000100: 8ed2 15bd 61a9 973c da70 5bbb 442d 213d
00000110: 05fc 3b3d aed6 15bc b94b edbd 3071 963c
00000120: a9de 4d3d d01e 8abd d23f 88bd a26b 01bd
00000130: 5a1c 813c 388f 4c3d 0fc4 adbc d39f 3dbd
00000140: 2266 9abc 3741 36bd 10fc 0abd 5ef1 883d
00000150: 20db 393d f467 aabd 5d06 c73c 0397 833c
00000160: ef9d 4abd 1108 18bd 5faf 993c e2d4 163d
00000170: 1690 c4bd b2ed c73c 1dcc 1a3d 4216 a2bb
00000180: f9ba 19bd 31f8 80bd a3a2 ba3d b849 6ebd
00000190: b47a f8bc 5d56 323d ebab d6bd 1498 d7bc
000001a0: 1855 0a3d f1ee 5b3b d9a3 8f3c ef96 c2bc
000001b0: 8b8c 2ebd e68c e03c 660d 4ebc 291f 29ba
000001c0: 49d4 b73d 375e 313d cc23 99bd 2164 1c3d
000001d0: 0585 1f3d 137c e53c a967 b43d e01c aa3c
000001e0: 78af 8c3d c441 a93a 1165 6ebd f200 7d3d
000001f0: fbcc 57bb 7de2 233d a34b 1ebd 4368 233c
00000200: e133 543c 873b 9d3b a153 6cbc c4e8 833d
00000210: a5a3 37bd 8942 bd3c b226 edbc d714 923d
00000220: 6ecb e3bc 0dc0 97bd 92dd 59bd c7d5 5dbd
00000230: 717a f83c a779 0d3d 8bd9 e2bc 8df6 74bd
00000240: 05f7 ef3a c1ad 993d e623 12bd cac3 dfbc
00000250: 5081 c0bd 6cae 85bb 7d0f febc 9cd0 a4bb
00000260: 201e a0bc 83b8 7f3d 8026 b23a 69f6 403d
00000270: 0638 1bbc 04e4 40bd 0cd5 593d 9005 1fbd
00000280: 3ad6 e4bb d418 103d 8ddd fd3c 4f4d 513d
00000290: 79df 24bc a74c 99bc e0e8 42bc 5262 40bd
000002a0: b512 e8bd 59c8 32bd 1d1c fabc 1f68 6b3d
000002b0: e01f b4bb f726 05bc 8fa9 21bc 3a61 76bd
000002c0: e129 4f3c b22a fbbc 9289 d73b 83a9 08bb
000002d0: 6ef8 7d3d 2a09 f8bb 972b 903c 28a2 093d
000002e0: 51d9 7b3c b252 68bc 24aa 843c ef7a 79bd
000002f0: f3b3 0bbd 1ed7 dabc e312 09bd 0873 00bd
00000300: 49af a3bd 931d 4fbd 145c 4ebb 96ab 943c
00000310: 824d f4bc c376 10bd d550 2e3d 21b5 9dbd

fc2.weight f4 [80, 200]
-0.12399189 -0.090675704 0.046412308 0.023929557 0.04552284 0.065853216 0.00879221 0.09747708
-0.059599835 -0.0053972295 0.09354896 0.033056654 0.008184038 0.023508063 -0.0006488474 0.026511542
0.08844544 0.050483108 -0.011221255 0.11048291 0.029654995 0.0038932024 0.03076898 0.044774644
-0.06755737 -0.013667416 -0.014575655 -0.052604616 -0.051655717 -0.07130233 -0.031978168 -0.110806055
0.08208452 0.09324217 -0.08655053 0.007760222 -0.011330265 0.031106623 0.08828582 0.0817378
-0.04459443 -0.099075474 -0.043379698 -0.15110125 0.099007644 0.12781969 0.0027210652 -0.08877362
0.034427244 -0.03363369 0.06101745 0.012141693 -0.055737935 0.029690005 -0.09472791 -0.12201499
-0.086931065 -0.07034624 0.02659378 -0.11339536 -0.08048322 -0.0012386038 0.044871878 0.008081296
-0.1300382 0.04454238 -0.012691032 -0.020975923 -0.05950058 0.033370174 0.047418933 0.11297327
0.016573194 0.08628503 -0.032711774 -0.017296877 -0.002849466 -0.1545405 0.07302509 -0.017491816
-0.070664234 0.13963036 0.041217722 -0.16736406 0.053951286 0.013425331 -0.00087581493 0.066733934
0.08898849 0.016704626 0.018749716 -0.040222272 0.059009388 0.0727046 -0.060321882 -0.08681654
-0.015708026 -0.041977797 -0.05548947 0.10837059 0.06561002 0.09176907 0.04862763 -0.017911231
-0.016076377 -0.12443027 0.08963301 0.10584813 -0.013913531 -0.15207224 0.08595438 -0.06828732
0.07132636 -0.01716448 0.054040343 -0.06889692 -0.1607622 0.061525147 -0.06399341 -0.016830739
-0.14075294 -0.21147452 0.05572154 0.026653506 0.025976364 -0.018076437 -0.076469764 -0.12723973
-0.0025931995 0.03845975 0.063533 -0.063552335 0.05287223 -0.0044733174 0.027237374 0.0004412424
-0.07725614 0.09555543 0.013637561 -0.03781533 -0.037985235 -0.0040018205 0.06901397 0.07104301
-0.18440218 0.058392316 0.1190156 0.04034631 0.017300807 0.0166886 0.014055358 -0.044592828
-0.08487811 0.065804794 -0.06636282 -0.09410382 0.034127973 0.094708405 -0.025908517 0.082682714
-0.023652993 -0.04619145 -0.060064413 -0.068660505 -0.01888392 -0.09177159 0.056516588 0.02113899
0.065326974 0.09000753 0.07124485 0.09978847 -0.11624163 -0.14230654 0.06325334 0.034236666
-0.008457066 -0.088504404 -0.10605199 0.060531992 -0.010451744 -0.024837373 0.058589686 -0.04279788
0.07958732 -0.054471698 -0.08509095 -0.046330724 -0.14457542 0.07038789 0.043242384 0.023001177
0.11392305 0.07840884 0.0158504 -0.013593989 0.08146854 -0.06713188 0.06875116 0.011251695
-0.05526653 0.027556295 0.06290981 -0.06733533 0.032748464 -0.019822758 0.032996133 0.00898888
0.0330725 -0.019634215 0.054069538 0.080585286 0.11334838 0.07043694 0.0448197 0.0117322095
0.051576998 0.08959043 -0.05520538 0.026718197 -0.016721714 0.060572337 0.10061271 0.028038444
0.09605439 -0.06411734 0.03734941 -0.061828822 0.049690932 0.031508032 0.08798929 0.11538944
-0.020291185 0.06667566 -0.07160995 0.12154293 0.007199899 0.009000707 0.11332532 0.08383694
0.014582098 -0.054257795 -0.027738873 -0.04541848 -0.025303412 -0.05545277 -0.031576637 -0.006476846
-0.05089122 -0.08611251 0.06727653 -0.031513087 0.052624207 -0.050222926 -0.015633779 -0.04505525
00000000: 76ef fdbd 2fb4 b9bd d51a 3e3d eb07 c43c
00000010: 2876 3a3d 0dde 863d 340d 103c 10a2 c73d
00000020: f51e 74bd 3edb b0bb 9996 bf3d 6a66 073d
00000030: 5816 063c fb93 c03c 6917 2aba bc2e d93c
00000040: e222 b53d 60c7 4e3d 5bd9 37bc dd44 e23d
00000050: 08ef f23c 1925 7f3b 3a0f fc3c 9e65 373d
00000060: 855b 8abd 4ced 5fbc bace 6ebc f077 57bd
00000070: f294 53bd f506 92bd 8afb 02bd 49ee e2bd
00000080: ee1b a83d c0f5 be3d 6741 b1bd 7649 fe3b
00000090: 93a2 39bc 51d3 fe3c 32cf b43d 2666 a73d
000000a0: a6a8 36bd 15e8 cabd e9ae 31bd 49ba 1abe
000000b0: 85c4 ca3d 2ae3 023e e653 323b f2ce b5bd
000000c0: 9503 0d3d 7bc3 09bd 6fed 793d f4ed 463c
000000d0: 764d 64bd 7438 f33c b500 c2bd ffe2 f9bd
000000e0: ea08 b2bd b111 90bd 33db d93c d43b e8bd
000000f0: 63d4 a4bd a658 a2ba 93cb 373d 6a67 043c
00000100: bc28 05be 1272 363d 0cee 4fbc b3d5 abbc
00000110: e1b6 73bd 2aaf 083d 5b3a 423d 885e e73d
00000120: 82c4 873c 35b6 b03d c8fc 05bd 2eb2 8dbc
00000130: 1bbe 3abb dd3f 1ebe 2e8e 953d ff4a 8fbc
00000140: 69b8 90bd 43fb 0e3e ead3 283d 7c61 2bbe
00000150: 06fc 5c3d ebf5 5b3c f296 65ba cdab 883d
00000160: 993f b63d 24d8 883c 0199 993c 1cc0 24bd
00000170: d4b3 713d 26e6 943d 1414 77bd dfcc b1bd
00000180: 1eae 80bc e9f0 2bbd ed48 63bd 66f1 dd3d
00000190: 8c5e 863d 6cf1 bb3d c42d 473d 93ba 92bc
000001a0: 9bb2 83bc 4cd5 febd 8391 b73d e8c6 d83d
000001b0: 94f5 63bc d3b8 1bbe da08 b03d 39da 8bbd
000001c0: 8e13 923d 869c 8cbc 6859 5d3d d419 8dbd
000001d0: d99e 24be cb01 7c3d fa0e 83bd 9ee0 89bc
000001e0: 8a21 10be c78c 58be 453c 643d 7458 da3c
000001f0: 62cc d43c 0915 94bc 2e9c 9cbd 224b 02be
00000200: abf2 29bb f987 1d3d 971d 823d ba27 82bd
00000210: 8d90 583d e894 92bb ea20 df3c 8d56 e739
00000220: 7838 9ebd 91b2 c33d 1470 5f3c 3fe4 1abd
00000230: 6896 1bbd b421 83bb 3257 8d3d ff7e 913d
00000240: edd3 3cbe c82c 6f3d 73be f33d 2c42 253d
00000250: 6cba 8d3c 88b6 883c 7248 663c f8a6 36bd
00000260: 93d4 adbd aac4 863d 3be9 87bd 81b9 c0bd
00000270: c6c9 0b3d 7bf6 c13d 193e d4bc 8e55 a93d
00000280: ecc3 c1bc 3f33 3dbd 1a06 76bd e19d 8cbd
00000290: 73b2 9abc bef2 bbbd f07d 673d ad2b ad3c
000002a0: 26ca 853d de55 b83d d2e8 913d e65d cc3d
000002b0: 1710 eebd ceb8 11be f88a 813d bf3b 0c3d
000002c0: 818f 0abc cc41 b5bd c931 d9bd 65f0 773d
000002d0: cb3d 2bbc bf77 cbbc bdfb 6f3d d44c 2fbd
000002e0: adfe a23d b71d 5fbd 2a44 aebd 49c5 3dbd
000002f0: 940b 14be 8727 903d ed1e 313d f76c bc3c
00000300: 7d50 e93d d094 a03d b3d8 813c 53b9 5ebc
00000310: fad8 a63d 707c 89bd 68cd 8c3d 0859 383c
00000320: 285f 62bd bdbd e13c dcd6 803d 1be7 89bd
00000330: 4123 063d 5663 a2bc f426 073d 1846 133c
00000340: 0877 073d efd7 a0bc 0578 5d3d e609 a53d
00000350: 3223 e83d 3e41 903d dd94 373d 7438 403c
00000360: 6742 533d 307b b73d 091f 62bd 1fe0 da3c
00000370: fafb 88bc b31a 783d 090e ce3d e1b0 e53c
00000380: 2ab8 c43d f44f 83bd b2fb 183d 3840 7dbd
00000390: b888 4b3d 910e 013d bb33 b43d 4c51 ec3d
000003a0: b339 a6bc 408d 883d 3da8 92bd 80eb f83d
000003b0: 21ed eb3b b477 133c 1b17 e83d b4b2 ab3d
000003c0: c1e9 6e3c 6c3d 5ebd a23c e3bc ba08 3abd
000003d0: 1a49 cfbc 7222 63bd 8156 01bd b93b d4bb
000003e0: 5073 50bd c15b b0bd 47c8 893d de13 01bd
000003f0: 7b8c 573d 8eb6 4dbd 6912 80bc db8b 38bd

fc2.bias f4 [80]
-0.030129911 -0.04191754 -0.044609733 0.17848755 0.038516603 -0.050641745 0.13215855 0.022350805
0.038079496 0.02644977 0.07120309 -0.010245243 0.07012424 0.031931683 0.09546269 0.058374975
0.18503416 -0.06810719 0.016072532 0.016932199 0.07378655 -0.0030308785 0.010251205 0.035480287
0.020970078 0.030665817 -0.066774815 -0.028190762 0.13728155 0.075718835 0.03521448 -0.0025811472
0.019567408 0.035731412 -0.013273829 0.034816794 0.024567774 0.06574583 0.10590401 0.13511777
0.025946643 -0.005690389 0.12455733 -0.028393812 0.018502768 -0.07551255 0.063504525 -0.0149775315
0.032547 0.04582507 -0.002447195 0.016464772 -0.068356626 0.020551972 0.08026724 -0.0430457
0.011485295 -0.02318379 -0.029179722 -0.025953323 0.001523632 0.1285189 0.100883074 0.099712946
0.0020983112 -0.058969706 -0.046180435 0.045987394 0.014939637 0.011624433 -0.04350524 0.0142465625
0.040389147 -0.035805453 -0.02258178 -0.025599603 0.0036590407 -0.028105255 0.056560468 0.09338202
00000000: 01d3 f6bc bab1 2bbd b2b8 36bd 71c5 363e
00000010: 96c3 1d3d b86d 4fbd 9254 073e 0919 b73c
00000020: 3ff9 1b3d 30ad d83c edd2 913d aadb 27bc
00000030: 4c9d 8f3d ccca 023d f181 c33d 991a 6f3d
00000040: 9879 3d3e c87b 8bbd 8baa 833c 65b5 8a3c
00000050: 671d 973d b4a1 46bb acf4 273c c753 113d
00000060: 71c9 ab3c e136 fb3c 3cc1 88bd 50f0 e6bc
00000070: 8993 0c3e 7a12 9b3d 0f3d 103d 7728 29bb
00000080: d44b a03c 1a5b 123d 797a 59bc 0e9c 0e3d
00000090: 5b42 c93c c0a5 863d 34e4 d83d 505c 0a3e
000000a0: 0e8e d43c 7176 babb ea17 ff3d 249a e8bc
000000b0: 1e93 973c 53a6 9abd a90e 823d 5264 75bc
000000c0: 0150 053d 12b3 3b3d 1e61 20bb 21e1 863c
000000d0: 8ffe 8bbd 9c5c a83c 2763 a43d b050 30bd
000000e0: d22c 3c3c eeeb bdbc 500a efbc 109c d4bc
000000f0: 9bb4 c73a 759a 033e c99b ce3d 4d36 cc3d
00000100: d283 093b 388a 71bd b227 3dbd 475d 3c3d
00000110: 61c5 743c 6874 3e3c 8d32 32bd 6a6a 693c
00000120: 176f 253d bda8 12bd 6dfd b8bc 42b6 d1bc
00000130: 84cc 6f3b fe3c e6bc f3ab 673d 133f bf3d

out.weight f4 [3, 80]
-0.13111037 0.12173225 0.14158234 -1.1156709 0.07493089 -0.14157818 0.06937293 0.078653686
0.1398082 -0.0014959594 0.07520979 -0.1282029 -0.18162808 0.11586596 0.13759944 -0.049399447
-0.23983128 -0.071751714 -0.094650924 -0.20984577 0.109186925 0.058484983 0.17329328 0.05327452
0.1959698 -0.08290397 -0.043723755 -0.17495856 -0.18226361 -0.23025875 0.29454505 -0.069647595
-0.11746323 0.0032228907 0.08317275 -0.13719992 -0.19228601 -0.11654466 0.02953883 -0.20506965
-0.14103504 -0.04856263 0.124665126 -0.0187638 0.06276119 -0.17774864 0.075159915 -0.049547587
-0.122056715 0.09017099 -0.16480416 -0.18721248 -0.076026954 -0.12728569 -0.050982486 -0.014301481
0.09804332 -0.09759239 -0.1581201 0.10105792 -0.15584166 0.11250032 0.18911697 0.15137656
-0.032826692 0.07273701 0.12731354 0.1867947 0.02521389 0.023521809 -0.043825254 0.067097425
0.17521746 0.061849866 -0.15817598 0.024555739 0.3431805 0.15697277 0.098534755 0.07624295
-0.06285622 -0.05101007 -0.21108049 0.29802406 0.11602909 -0.20486875 0.08597273 0.023696499
-0.12548722 -0.2205729 -0.16916071 0.14781879 0.18076983 -0.15520409 -0.18872164 -0.15493742
0.048169963 -0.063268185 -0.16201994 0.104780845 -0.18686727 -0.1199264 -0.1566482 0.07823607
-0.114142835 -0.017028723 0.072935015 -0.11473722 0.06590351 0.3033134 -0.05760043 -0.069836974
0.19799101 0.158583 -0.15134227 -0.16227609 0.111445256 0.21284616 0.058965288 0.17557143
0.16382359 0.15727746 0.11003438 0.05494175 -0.13400728 -0.16603653 -0.13538364 -0.04475807
0.20587465 -0.17105043 -0.062474735 -0.10139907 -0.048577376 -0.11492541 0.15026471 -0.24361823
-0.16043226 -0.04356487 -0.0621923 -0.13701822 -0.09172302 0.103889495 0.04000329 -0.16767333
-0.14073376 -0.13422358 0.11455809 -0.172836 -0.17236254 0.11951953 -0.08174261 -0.020157773
0.07875518 -0.1831048 -0.14465977 -0.12960394 -0.23061399 -0.25078392 -0.09836145 0.1257086
0.15151188 0.10822598 0.03600051 0.48906854 -0.20421109 0.018223569 -0.118475184 -0.21075022
-0.052650247 -0.053600587 -0.041537106 0.0369089 -0.068439454 0.06684153 -0.043791436 0.14090295
-0.21264741 -0.024395805 0.06646327 0.08340293 -0.08094313 0.08937159 -0.22015646 -0.20488133
-0.028239759 0.17250714 -0.096110895 0.17740247 -0.17999038 -0.17969078 -0.20083632 0.122401275
-0.092593774 -0.1551108 0.034037903 0.10654966 -0.12788776 -0.08206007 -0.1924708 -0.076876014
-0.15864639 -0.14063564 -0.19920719 0.028522277 0.035447802 0.055204514 -0.20639506 0.1757386
-0.059216544 0.043856103 0.1347097 0.13631867 0.14316145 0.10371867 -0.18258283 -0.07549022
-0.025920523 0.15040325 0.18176652 0.06440647 0.1430455 -0.09460188 -0.17448743 -0.19056205
0.10429294 0.13014172 -0.09515487 -0.15287945 0.11322272 -0.016985236 0.09956839 0.14333637
-0.21153186 0.038682062 0.05682565 0.10092093 -0.34442648 -0.10304932 -0.0028661 -0.109531276
00000000: cc41 06be c24e f93d f6fa 103e 4ece 8ebf
00000010: 5e75 993d dff9 10be 6513 8e3d 2f15 a13d
00000020: e129 0f3e 1114 c4ba 9707 9a3d 9f47 03be
00000030: b6fc 39be 224b ed3d dee6 0c3e 1357 4abd
00000040: 5596 75be 90f2 92bd 58d8 c1bd cfe1 56be
00000050: 659d df3d f38d 6f3d cb73 313e 6236 5a3d
00000060: 4fac 483e 8ec9 a9bd ae17 33bd 5628 33be
00000070: 50a3 3abe f3c8 6bbe 9cce 963e 66a3 8ebd
00000080: 9090 f0bd 2237 533b 7a56 aa3d 237e 0cbe
00000090: a0e6 44be f7ae eebd 6bfb f13c c7fd 51be
000000a0: 7d6b 10be 9ce9 46bd 6e50 ff3d 8ab6 99bc
000000b0: f088 803d bd03 36be 71ed 993d 69f2 4abd
000000c0: dff8 f9bd 91ab b83d 6cc2 28be a1b4 3fbe
000000d0: 05b4 9bbd 2e57 02be 03d3 50bd c250 6abc
000000e0: f0ca c83d 85de c7bd 3cea 21be 74f7 ce3d
000000f0: f594 1fbe 9166 e63d e1a7 413e 7502 1b3e
00000100: 4875 06bd 24f7 943d 7b5e 023e 1c47 3f3e
00000110: 5c8d ce3c cfb0 c03c 1c82 33bd 606a 893d
00000120: 356c 333e 4956 7d3d e2f8 21be 1e29 c93c
00000130: 5bb5 af3e 78bd 203e 97cc c93d 4425 9c3d
00000140: c3ba 80bd efef 50bd 7c25 58be 9c96 983e
00000150: a9a0 ed3d 1dc9 51be 7812 b03d 291f c23c
00000160: b97f 00be dddd 61be 7738 2dbe cf5d 173e
00000170: ba1b 393e d2ed 1ebe 3f40 41be eaa7 1ebe
00000180: de4d 453d c092 81bd 8ee8 25be 5797 d63d
00000190: 225a 3fbe f99b f5bd 6368 20be 3c3a a03d
000001a0: b8c3 e9bd d27f 8bbc f45e 953d 59fb eabd
000001b0: 6bf8 863d e54b 9b3e 6eee 6bbd b006 8fbd
000001c0: 28be 4a3e 9563 223e 78f9 1abe b42b 26be
000001d0: 693d e43d 58f4 593e 9685 713d ffc8 333e
000001e0: 5fc1 273e 580d 213e b459 e13d 9a0a 613d
000001f0: 3439 09be 7b05 2abe 02a2 0abe 3d54 37bd
00000200: ced0 523e d827 2fbe 82e5 7fbd 51aa cfbd
00000210: 12f9 46bd 035e ebbd fede 193e 0f77 79be
00000220: 5b48 24be 1471 32bd 5abd 7ebd 814e 0cbe
00000230: 47d9 bbbd 04c4 d43d 7dda 233d 8fb2 2bbe
00000240: 831c 10be e871 09be 6f9d ea3d ecfb 30be
00000250: ce7f 30be a8c6 f43d ab68 a7bd ea21 a5bc
00000260: 654a a13d d37f 3bbe b121 14be e5b6 04be
00000270: 1326 6cbe c066 80be ba71 c9bd c1b9 003e
00000280: ee25 1b3e 95a5 dd3d 4575 133d 3167 fa3e
00000290: b61c 51be 9849 953c 1ea3 f2bd e8ce 57be
000002a0: c9a7 57bd 4a8c 5bbd d022 2abd c92d 173d
000002b0: fc29 8cbd 36e4 883d a65e 33bd dd48 103e
000002c0: 3ec0 59be b6d9 c7bc e51d 883d 28cf aa3d
000002d0: 83c5 a5bd 7408 b73d b270 61be 69cc 51be
000002e0: 1157 e7bc b6a5 303e cad5 c4bd fea8 353e
000002f0: 664f 38be dc00 38be 09a8 4dbe 85ad fa3d
00000300: cea1 bdbd 5ed5 1ebe 546b 0b3d b536 da3d
00000310: 02f5 02be 1c0f a8bd 1117 45be 2c71 9dbd
00000320: 3374 22be ca02 10be f8fc 4bbe 8da7 e93c
00000330: b731 113d 211e 623d 3a59 53be d2f4 333e
00000340: 0c8d 72bd 75a2 333d 57f1 093e 1f97 0b3e
00000350: ea98 123e 746a d43d fef6 3abe 9e9a 9abd
00000360: 4757 d4bc 4f03 1a3e 0121 3a3e 8ae7 833d
00000370: 857a 123e a1be c1bd d5ac 32be b322 43be
00000380: 8997 d53d df43 053e 8ee0 c2bd 6e8c 1cbe
00000390: 50e1 e73d 9f24 8bbc 83ea cb3d c5c6 123e
000003a0: cf9b 58be 1571 1e3d 03c2 683d a2af ce3d
000003b0: ab58 b0be 860b d3bd 2ed5 3bbb ef51 e0bd

out.bias f4 [3]
-0.06222393 0.0778925 0.055829354
00000000: 85de 7ebd 1a86 9f3d 52ad 643d
