Machine_Learning/Week_9_Prep/MLPW9.pt (torch, 169239 bytes, 6 tensors)

fc1.weight f4 [80, 480]
0	0x3e46ed05	0.19426353
1	0xbe3fc4ef	-0.18727468
2	0x3e5138c2	0.20431808
3	0x3f0ccae1	0.5499707
4	0x3f0ccb58	0.5499778
5	0x3eab4843	0.3345357
6	0x3de943d2	0.11389889
7	0x3e973210	0.29530382
8	0x3e60f06f	0.21966718
9	0x3e817053	0.2528101
10	0x3d99b1b4	0.07504597
11	0x3e3e5efe	0.18590924
12	0x3ebda5ed	0.37040654
13	0x3d833bdc	0.06407902
14	0x3d1739e9	0.03692046
15	0xbe6e1c60	-0.23253012
16	0xbe693254	-0.22773105
17	0x3cb00a37	0.021489246
18	0x3b97476c	0.0046166684
19	0xbdaa0069	-0.083008595
20	0xbd85c8c8	-0.065324366
21	0xbda40a5f	-0.08009791
22	0xbecba722	-0.3977595
23	0xbc91d767	-0.017802907
24	0xbd9c60b9	-0.07635636
25	0x3c27ad4f	0.010234191
26	0xbf293837	-0.661014
27	0xbf34f232	-0.7068206
28	0xbf092e03	-0.53585833
29	0xbea41c24	-0.3205272
30	0xbec829fd	-0.39094535
31	0xbc5c9415	-0.01346304
32	0x3e853a4a	0.26021034
33	0x3ea5aada	0.32356912
34	0x3edaf8ba	0.42767888
35	0xbc27e1ea	-0.010246733
36	0x3c867f79	0.016418206
37	0x3d9c83b3	0.07642307
38	0x3eb6ec53	0.35727176
39	0xbca12926	-0.019672941
40	0xbf2ccb7c	-0.6749799
41	0xbe90b5b5	-0.2826363
42	0xbea03113	-0.3128744
43	0xbf339e42	-0.7016336
44	0xbf288fa8	-0.658442
45	0xbf0e3272	-0.55545723
46	0xbed1e59a	-0.40995485
47	0xbf115a3a	-0.567783
48	0xbdb004e5	-0.085946836
49	0x3ec4f5f3	0.38468894
50	0x3f187c29	0.59564453
51	0x3eeade1f	0.4587259
52	0x3ebf1638	0.3732164
53	0x3ed2e0bf	0.41187093
54	0x3ec99c96	0.39377278
55	0x3d2b50ea	0.041825213
56	0xbe8ef79c	-0.27923286
57	0xbf0cac96	-0.54950845
58	0x3e21be13	0.15795164
59	0x3e9558de	0.29169363
60	0x3e41073a	0.18850413
61	0x3eb5fad5	0.35542932
62	0x3dec5405	0.11539463
63	0xbe63bea6	-0.22240695
64	0xbe8c44e7	-0.27396318
65	0xbea5ba70	-0.32368803
66	0x3e13d2cb	0.1443588
67	0x3ef19560	0.47184277
68	0xbe80a014	-0.2512213
69	0xbeb9063f	-0.36137578
70	0xbe058b6e	-0.1304147
71	0x3ce11ae2	0.027478639
72	0x3bba7929	0.005690713
73	0xbce177ed	-0.027523005
74	0xbea2a072	-0.31763035
75	0xbd50fc0f	-0.05102163
76	0x3e913291	0.28358892
77	0x3f4f34c3	0.80939883
78	0x3e8fb632	0.28068691
79	0x3cdc3a75	0.026883343
80	0x3e24ea77	0.16105066
81	0x3e43ee37	0.1913384
82	0x3dfadb46	0.12248854
83	0xbe8d2ec7	-0.2757475
84	0xbf15a47e	-0.5845412
85	0xbf29aa17	-0.6627516
86	0x3d430e61	0.047621135
87	0x3e658d02	0.22417071
88	0xbd75cf8e	-0.060012393
89	0xbde3a497	-0.111153774
90	0x3cc33b73	0.023832059
91	0x3eb08dfb	0.34483323
92	0xbc81adb4	-0.015829898
93	0xbd76ba1e	-0.06023609
94	0x3dd1c474	0.102425486
95	0x3f2651c0	0.6496849
96	0x3ea397d1	0.31951764
97	0xbe9c657a	-0.3054617
98	0xbe775886	-0.24154863
99	0x3ca4e6d3	0.020129597
100	0xbcc4a8dd	-0.024006302
101	0x3e26dd18	0.16295278
102	0x3de5a2f0	0.112127185
103	0x3ea83e9f	0.32860276
104	0x3eb744cf	0.35794684
105	0x3ea709f2	0.32624775
106	0x3e324873	0.1741045
107	0xbdc7e381	-0.0976019
108	0xbde7ea51	-0.11323989
109	0xbea8ed96	-0.32993764
110	0xbe82cb9f	-0.25545976
111	0xbed15f7a	-0.40893155
112	0xbe844b23	-0.25838575
113	0xbdfbb8b7	-0.12291091
114	0xbe292d5c	-0.1652121
115	0xbdafa772	-0.085768595
116	0xbdd2e975	-0.10298435
117	0xbecb5e8c	-0.3972057
118	0xbec54098	-0.38525844
119	0xbe8499ea	-0.25898677
120	0x3e92f54f	0.2870278
121	0x3e7ce2d7	0.24695908
122	0x3e84f2b8	0.2596643
123	0x3e8a7855	0.2704493
124	0x3e8cdc95	0.2751204
125	0x3e68768e	0.22701475
126	0x3e91bb2e	0.2846312
127	0x3e7c17c1	0.24618436
128	0x3e86b1da	0.26307565
129	0x3e9168c0	0.2840023
130	0x3e87160b	0.26384005
131	0x3e8291a1	0.2550173
132	0x3e5ebd8c	0.21751994
133	0x3e4d2d33	0.20036773
134	0x3e7cc363	0.24683909
135	0x3e8883d2	0.2666307
136	0x3e81890f	0.2529988
137	0x3e6cecc9	0.23137201
138	0x3e87b6dc	0.26506698
139	0x3e5842e9	0.21119274
140	0x3e6361b6	0.22205243
141	0x3e61fe2e	0.22069618
142	0x3e5df442	0.21675208
143	0x3e75d1ad	0.24005766
144	0x3e4bab03	0.19889455
145	0x3e8da6ed	0.27666417
146	0x3e4d1dde	0.20030925
147	0x3e6782b7	0.22608458
148	0x3e894c15	0.26815858
149	0x3e7f9ec3	0.24962907
150	0x3e71911d	0.23590513
151	0x3e5db28f	0.21650146
152	0x3e9328bb	0.28742012
153	0x3e9cd90f	0.30634353
154	0x3e8a4a03	0.2700959
155	0x3e8108ce	0.2520203
156	0x3e868f52	0.2628122
157	0x3e78c278	0.24292934
158	0x3e965a91	0.29365972
159	0x3e9b4923	0.30329236
160	0xbe0865d8	-0.133201
161	0xbe106fa8	-0.14105093
162	0xbdb2d9df	-0.08732962
163	0xbddb5552	-0.10709633
164	0xbd941693	-0.07230868
165	0xbd85e719	-0.06538219
166	0xbcd6dcf6	-0.02622841
167	0xbd72d925	-0.059289116
168	0xbd6842c8	-0.056704313
169	0x3c3900b2	0.01129167
170	0xbb9d900a	-0.0048084306
171	0x3c92144f	0.01783195
172	0x3df8ee38	0.121548116
173	0x3de5118c	0.111849874
174	0x3e31f8ea	0.1738011
175	0x3e426e48	0.18987381
176	0x3e6ec2dc	0.2331652
177	0x3e68806b	0.22705238
178	0x3e908487	0.2822611
179	0x3e7848c8	0.24246514
180	0xbe140982	-0.14456752
181	0xbdda71ef	-0.10666262
182	0xbdd40f96	-0.10354535
183	0xbd651c5f	-0.05593526
184	0xbda1af4e	-0.07894765
185	0xbd6ef0fd	-0.058335293
186	0xbd9e17dc	-0.077193946
187	0xbda9bf45	-0.08288435
188	0xbcc4f771	-0.02404377
189	0xbd6b3b59	-0.057429645
190	0x3c4c7602	0.012479307
191	0x3c81cf7f	0.015846012
192	0xbd81571d	-0.06315444
193	0xbd2533c6	-0.040332578
194	0xbd492d96	-0.04911574
195	0x3cc41aa4	0.023938484
196	0xbd4155dd	-0.047201026
197	0x3c817900	0.015804768
198	0x3b84ee95	0.0040567615
199	0xbd3712de	-0.044695728
200	0xbd266917	-0.040627565
201	0x3b845ab9	0.0040391353
202	0xbd1f1adc	-0.038843974
203	0xbd258475	-0.040409524
204	0xbce12687	-0.027484192
205	0xbda3ccc9	-0.07998044
206	0xbd26fd26	-0.040768765
207	0xbc866f3e	-0.016410466
208	0xbd75daac	-0.060022995
209	0xbd3e2f23	-0.04643167
210	0xbd90b1c0	-0.07065153
211	0xbd496c8b	-0.04917578
212	0xbca28868	-0.019840434
213	0xbd36c652	-0.044622727
214	0xbd9920f9	-0.07476992
215	0xbcfa4ac5	-0.030553231
216	0xbd95fc71	-0.0732354
217	0x3b18103e	0.002320304
218	0xbc932380	-0.017961264
219	0xbcf60926	-0.03003366
220	0xbe70fecf	-0.23534702
221	0xbe1e8367	-0.15479814
222	0xbe782348	-0.24232209
223	0xbe4b9378	-0.19880474
224	0xbe6e8300	-0.2329216
225	0xbe6cbfac	-0.23119992
226	0xbe37e288	-0.17957509
227	0xbe21ca4e	-0.1579983
228	0xbe2ddd2a	-0.16978899
229	0xbe0f8190	-0.14014268
230	0xbe3c2b35	-0.18375857
231	0xbe56ebf3	-0.20988445
232	0xbe26a84d	-0.16275139
233	0xbe31bb48	-0.17356598
234	0xbe237dce	-0.1596596
235	0xbe2a2a1b	-0.16617624
236	0xbe4bfed7	-0.19921432
237	0xbe2e4604	-0.17018896
238	0xbdda883a	-0.106705144
239	0xbdf3f037	-0.11911052
240	0x3e16023d	0.14649291
241	0x3d92bb69	0.07164652
242	0x3e03e01a	0.12878457
243	0x3dfe930d	0.124303915
244	0x3de5b625	0.11216382
245	0x3d8ed622	0.06974436
246	0x3d18bffe	0.037292473
247	0x3c78dd88	0.015189536
248	0xbe6e52ad	-0.23273726
249	0xbe75071d	-0.23928495
250	0xbe15780d	-0.14596577
251	0x3cb21346	0.021737706
252	0xbd939ba6	-0.07207422
253	0xbd280fcc	-0.04103069
254	0x3df89009	0.121368475
255	0x3d4bdcf3	0.04977126

fc1.bias f4 [80]
0	0xbe7473a0	-0.23872232
1	0xbec9bc08	-0.3940127
2	0xbe79bd32	-0.24388579
3	0xbc074af7	-0.008257619
4	0xbe864492	-0.2622419
5	0xbd521acd	-0.05129509
6	0xbd672210	-0.05642897
7	0xbd1be7a0	-0.03806269
8	0x3e681099	0.22662582
9	0xbee21ae3	-0.44161138
10	0xbdc1c244	-0.09460881
11	0xbe9bb601	-0.30412295
12	0xbd79fec0	-0.061033964
13	0xbde5255c	-0.11188766
14	0xbea14af7	-0.31502506
15	0xbe8a5ade	-0.2702245
16	0xbeded496	-0.43521565
17	0xbdaf2024	-0.08551052
18	0xbf443a1d	-0.76651174
19	0xbd7d600e	-0.061859183
20	0xbe0a608b	-0.1351339
21	0xbd7991d0	-0.060930073
22	0xbd60bf11	-0.054869715
23	0xbdb98381	-0.090582855
24	0xbec36890	-0.38165712
25	0x3d79af3c	0.060958132
26	0xbeae0307	-0.33986685
27	0xbd46c304	-0.048525825
28	0xbe8189a6	-0.2530033
29	0xbd8bb02b	-0.06820711
30	0xbda8fc4d	-0.082512476
31	0xbf22f192	-0.6364986
32	0xbef0bb98	-0.47018123
33	0xbf438316	-0.76371896
34	0xbe874c3b	-0.26425347
35	0x3f3fc644	0.74911904
36	0xbea934ce	-0.330481
37	0xbed748fa	-0.42047864
38	0xbf766d32	-0.9626037
39	0xbe7549dc	-0.23953956
40	0xbeaa43c8	-0.33254838
41	0xbd3cc96f	-0.04609054
42	0xbdbd55c8	-0.09244877
43	0xbebd3757	-0.36956283
44	0xbe74497e	-0.2385616
45	0x3e4f316a	0.20233694
46	0xbebc68ce	-0.3679871
47	0xbecf6a79	-0.4051092
48	0xbd5e5c34	-0.05428715
49	0xbecc2bcf	-0.39877173
50	0xbe4808eb	-0.19534652
51	0xbfa1a5fa	-1.2628777
52	0xbca1a4c4	-0.019731887
53	0xbe983ad1	-0.29732373
54	0x3e6ffdc9	0.23436655
55	0xbe9d5ef9	-0.3073652
56	0x3e8e6916	0.2781455
57	0xbf6ad02d	-0.917239
58	0xbe57d66e	-0.21077892
59	0x3f0a1418	0.5393691
60	0x3e6c0156	0.23047385
61	0xbe4557cd	-0.19271775
62	0xbd8b0dbf	-0.06789731
63	0xbedd8bc1	-0.43270686
64	0xbe1429d8	-0.14469087
65	0xbeb6c2c0	-0.35695457
66	0xbd7a5f06	-0.061125778
67	0xbdc808b3	-0.09767284
68	0xbf044789	-0.51671654
69	0x3eb142a4	0.34621155
70	0xbeffc1af	-0.49952456
71	0xbc798fec	-0.015232068
72	0xbf793997	-0.973535
73	0xbf087385	-0.5330127
74	0xbe88b6e4	-0.26702034
75	0xbb25e153	-0.0025311306
76	0xbe74fe13	-0.23925047
77	0xbd5ecf85	-0.054397125
78	0xbdf05bfe	-0.11736296
79	0xbebf0511	-0.37308553

fc2.weight f4 [40, 80]
0	0xbd669442	-0.056293733
1	0xbe9e50bd	-0.30920973
2	0x3bf1bd7d	0.007377325
3	0xbd4e5adb	-0.050379615
4	0xbe2bb425	-0.16767938
5	0x3c353db6	0.011062076
6	0x3d2116f7	0.03932854
7	0xbd4820cb	-0.0488594
8	0xbee503f7	-0.44729587
9	0x3d39d6e3	0.045370948
10	0xbdca684b	-0.098831736
11	0xbea2c9b2	-0.31794506
12	0xbc54cf93	-0.012988943
13	0xbd021efe	-0.031767838
14	0xbdce8e30	-0.10085714
15	0xbe25e134	-0.1619919
16	0xbd83f63b	-0.06443449
17	0xbe15c5cd	-0.14626236
18	0xbed3ab24	-0.41341507
19	0xbdcc00e4	-0.099611074
20	0xbe8f29c7	-0.2796156
21	0x3ba06cba	0.0048957737
22	0x3cb506a3	0.022097891
23	0xbdcba698	-0.099438846
24	0x3d8e5e0e	0.06951533
25	0xbe1eb3af	-0.15498231
26	0xbe201829	-0.15634216
27	0xbd4061cc	-0.046968266
28	0xbe20628c	-0.15662593
29	0xbdb951f6	-0.09048836
30	0xbdf235c0	-0.11826658
31	0xbdd74774	-0.105116755
32	0xbdef6066	-0.116883084
33	0xbe1abc76	-0.15110955
34	0xbd8e1f26	-0.06939535
35	0xbe3b34cb	-0.18281858
36	0xbea6d6b7	-0.3258569
37	0xbe0e6515	-0.13905747
38	0xbe665af7	-0.22495638
39	0xbe900502	-0.2812882
40	0xbd990ed3	-0.074735306
41	0x3d8afe20	0.06786752
42	0xbd47b6dc	-0.048758373
43	0xbe0cc8e5	-0.1374851
44	0xbe2eda1d	-0.17075391
45	0xbe47497e	-0.19461629
46	0xbd249c52	-0.04018814
47	0xbe33d43a	-0.17561427
48	0xbdc75f22	-0.09734942
49	0xbce31520	-0.027720034
50	0xbd9cf297	-0.07663458
51	0xbe58beff	-0.21166609
52	0xbccf6c84	-0.025320299
53	0xbc33a430	-0.010964438
54	0xbef72181	-0.4826775
55	0xbe0500b6	-0.12988552
56	0xbeeea7d7	-0.46612427
57	0xbd92ad3e	-0.071619496
58	0xbdf93662	-0.12168576
59	0xbebdc8d0	-0.3706727
60	0xbef31c1c	-0.47482383
61	0xbe9062ba	-0.28200322
62	0xbd9c9d31	-0.076471694
63	0xbd877ce0	-0.06615615
64	0xbd863dc7	-0.06554752
65	0xbe7afa7b	-0.24509613
66	0x3ce24ec1	0.027625443
67	0x3e2ad7e0	0.16683912
68	0x3bf78bb5	0.007554496
69	0xbe2d9023	-0.16949515
70	0xbd265561	-0.040608767
71	0xbeed1e05	-0.46311966
72	0xbe286353	-0.16444139
73	0xbcce10cc	-0.025154494
74	0x3e111780	0.14169121
75	0xbca3f72e	-0.020015325
76	0xbd0ebc7d	-0.034847725
77	0xbde73104	-0.11288646
78	0x3d0d5e34	0.034513667
79	0xbdfe7a2a	-0.12425645
80	0x3d50aee0	0.050948024
81	0x3cdaacff	0.02669382
82	0x3dc65c77	0.09685605
83	0x3e0b73a4	0.13618332
84	0xbe9ec136	-0.31006783
85	0xbe809ae3	-0.2511817
86	0xbd368908	-0.044564277
87	0xbd4b5ed8	-0.049650997
88	0xbed207d3	-0.41021594
89	0xbd04523c	-0.032304987
90	0xbdd56733	-0.10420074
91	0xbd08f422	-0.03343595
92	0xbd849aa5	-0.064748086
93	0xbd13edb8	-0.03611538
94	0x3cd0b368	0.025476173
95	0x3b50853c	0.0031817695
96	0xbede2263	-0.4338561
97	0xbc954d1d	-0.018225247
98	0xbdbebb1e	-0.093130335
99	0xbb71710e	-0.0036841067
100	0xbe082291	-0.13294436
101	0xbc82a301	-0.015946867
102	0xbe1556e0	-0.14583921
103	0xbdaa63b7	-0.083198
104	0xbec8f1b6	-0.3924691
105	0xbc6ceddf	-0.01446101
106	0x3d0d50bf	0.034500834
107	0xbd2343f3	-0.039859723
108	0x3e4807ce	0.19534227
109	0x3c8da7ce	0.01729193
110	0x3cba8a9c	0.022771172
111	0xbebe1c52	-0.37130982
112	0xbc45faa0	-0.012083679
113	0xbe8c9815	-0.2745978
114	0xbed66e0c	-0.41880834
115	0xbd138079	-0.036011193
116	0xbe1ff1af	-0.15619539
117	0xbe6aa66d	-0.22915049
118	0xbb48d559	-0.0030644743
119	0xbe803872	-0.25043064
120	0x3d9b47a7	0.07582026
121	0xbdfd4c65	-0.12368087
122	0x3d712d18	0.058880895
123	0xbd83b36f	-0.064307086
124	0xbe61587d	-0.22006412
125	0xbd988875	-0.07447902
126	0x3e804bc9	0.2505782
127	0x3d37ba71	0.04485554
128	0xbd37903a	-0.04481528
129	0x3e9c9b03	0.30587015
130	0xbd84edc6	-0.06490664
131	0xbd39945b	-0.0453075
132	0xbdace85b	-0.08442756
133	0xbd24fd42	-0.040280588
134	0xbe99660d	-0.2996067
135	0xbed313d3	-0.41226062
136	0xbf32975f	-0.69762224
137	0x3dac8e89	0.08425624
138	0xbdd1a3c1	-0.10236312
139	0xbd960686	-0.07325463
140	0xbea35dc8	-0.31907487
141	0xbe4010cc	-0.18756407
142	0x3d838e6f	0.064236514
143	0x3e8306d3	0.25591144
144	0xbdaccad5	-0.08437125
145	0xbccceaea	-0.02501436
146	0x3d2193d2	0.039447613
147	0x3e224190	0.15845323
148	0xbe8a2dbd	-0.2698802
149	0xbeaefa1f	-0.34175202
150	0x3da5e5b2	0.081004515
151	0xbea9caff	-0.33162686
152	0xbecc9433	-0.39956817
153	0xbdfd30a5	-0.12362794
154	0xbe99bdec	-0.3002771
155	0x3cc8c549	0.024508135
156	0x3da985bb	0.0827746
157	0xbc5483a4	-0.012970839
158	0xbdcab3b4	-0.09897557
159	0x3d81cb55	0.06337611
160	0xbdc7d862	-0.097580686
161	0xbcabd030	-0.020973295
162	0x3d1876a8	0.037222534
163	0x3db987d4	0.0905911
164	0x3c9072ce	0.017632868
165	0xbe242ad6	-0.16031966
166	0xbd2c49fd	-0.04206275
167	0xbdc8ea94	-0.09810367
168	0xbef19f45	-0.47191826
169	0xbe8ad81e	-0.2711801
170	0xbcd5120e	-0.026009586
171	0xbe1ab289	-0.15107168
172	0x3c89e655	0.016833464
173	0x3cfb4041	0.030670287
174	0xbe048ed6	-0.12945113
175	0xbcc72092	-0.024307523
176	0xbdc7b667	-0.09751587
177	0xbcea8cbc	-0.02863156
178	0xbd841b51	-0.06450523
179	0x3d26d802	0.040733345
180	0xbdb484b1	-0.088143714
181	0x3d005d30	0.03133887
182	0xbdfc079f	-0.12306141
183	0x3d712eb4	0.05888243
184	0xbe1e09f4	-0.15433484
185	0xbd46f922	-0.048577435
186	0xbdebb992	-0.11510004
187	0xbd765446	-0.060138963
188	0xbe0db7ca	-0.13839641
189	0x3d12b676	0.03581854
190	0xbdbcbfa1	-0.09216238
191	0xbbac9f4b	-0.0052680126
192	0x3ca68818	0.020328566
193	0xbe2822d9	-0.16419543
194	0xbc858987	-0.01630093
195	0xbd9a9d0f	-0.07549488
196	0xbd949234	-0.072544485
197	0xbe14c55d	-0.14528413
198	0xbcee2a85	-0.02907301
199	0xbe1bcb96	-0.1521438
200	0x3c75d0d2	0.0150034
201	0x3dbc2daa	0.09188397
202	0xbdf7a4a1	-0.12091947
203	0xbdd152ee	-0.10220896
204	0xbde8c281	-0.11365224
205	0xbc3d7223	-0.011562857
206	0x3dc54328	0.0963195
207	0x3d382828	0.04496017
208	0xbcf61a3f	-0.030041812
209	0xbe241833	-0.16024856
210	0xbc7abc91	-0.015303747
211	0xbe93f59d	-0.28898326
212	0xbdd5364e	-0.104107484
213	0xbd5bbaad	-0.053644825
214	0xbddab021	-0.10678125
215	0xbccd6433	-0.025072193
216	0xbe9c2736	-0.30498666
217	0xbebad04d	-0.36487046
218	0xbc9789b0	-0.018498272
219	0xbe82c41b	-0.25540242
220	0xbea6838c	-0.32522237
221	0xbc990311	-0.01867822
222	0x3bcd1670	0.0062587783
223	0xbd59a83a	-0.05313895
224	0xbe14c542	-0.14528373
225	0xbdb73ac1	-0.08946753
226	0x3b849f1d	0.004047288
227	0xba454380	-0.0007525012
228	0xbddf817e	-0.109133705
229	0xbdd199d1	-0.10234416
230	0xbdeceea1	-0.11568952
231	0xbea1d8a9	-0.3161061
232	0xbd9e4e2c	-0.07729754
233	0xbc37a335	-0.011208345
234	0xbd2a7b57	-0.041621532
235	0xbdaa6a14	-0.08321014
236	0x3dd51e28	0.104061425
237	0xbdd0ac55	-0.1018912
238	0xbdd94934	-0.106096655
239	0xbe10cabb	-0.14139836
240	0xbe0d7f86	-0.13818178
241	0x3e3ee7ff	0.18643187
242	0xbd6d227f	-0.057894226
243	0x3e0f4658	0.13991678
244	0xbe77ac26	-0.24186763
245	0x3d2682c4	0.04065205
246	0x3bb18482	0.0054174075
247	0x3dd1539d	0.10221026
248	0x3f64099d	0.8907717
249	0x3f1d96c4	0.61558175
250	0x3d2f0491	0.042728964
251	0xbfa42479	-1.282363
252	0xbd1ff7cb	-0.039054673
253	0xbe489769	-0.19589008
254	0xbe14929f	-0.14509057
255	0xbdc5d4de	-0.09659742

fc2.bias f4 [40]
0	0xbe88a8ee	-0.26691383
1	0xbf05b92a	-0.5223566
2	0xbf397939	-0.72450596
3	0x3f144707	0.5792088
4	0xbf38dd85	-0.7221301
5	0x3d820f69	0.063505955
6	0xbd9c8b72	-0.076437846
7	0xbff239ce	-1.892389
8	0xbf229354	-0.63506055
9	0xbeec22cb	-0.46120295
10	0xbf1640d1	-0.5869265
11	0x3ee0bb78	0.43893027
12	0xbf0ba73f	-0.5455207
13	0x3db63ee2	0.08898713
14	0xbed0d1bc	-0.40785015
15	0xbf8ea704	-1.1144719
16	0x3ed3a9b1	0.41340402
17	0xbf240d83	-0.6408312
18	0xbe9dccf7	-0.30820438
19	0xbf1e1307	-0.61747783
20	0x3e502a60	0.20328665
21	0xbec835ce	-0.3910355
22	0x3d7b615d	0.06137215
23	0xbed12b0d	-0.40853158
24	0xbde72acf	-0.11287462
25	0xbf02b762	-0.5106107
26	0xbf15ec40	-0.58563614
27	0xbe8f669e	-0.28007978
28	0xbf1ee4bd	-0.62067777
29	0xbfead683	-1.8346714
30	0x3ef5917e	0.47962564
31	0x3f317c7c	0.69330573
32	0x3ee01871	0.43768647
33	0xc00bde7f	-2.185455
34	0x3f8f44dd	1.119289
35	0xbfb0267e	-1.3761747
36	0xbe272a72	-0.16324785
37	0xbf23e401	-0.6401978
38	0x3fa05233	1.2525085
39	0xbed77acd	-0.42085877

out.weight f4 [3, 40]
0	0xbd2cb48c	-0.04216437
1	0x3e6a26ea	0.22866407
2	0xbecb4250	-0.3969903
3	0x3ec6171a	0.386895
4	0x3c010bdf	0.007876365
5	0xbe162ed3	-0.146663
6	0x3e118340	0.14210224
7	0xbdc1a912	-0.09456076
8	0x3c2af405	0.010434155
9	0x3dfdad68	0.1238659
10	0x3e6561d4	0.224006
11	0x3cdd0763	0.026981061
12	0x3e5c5a87	0.21518908
13	0xbe4b79c3	-0.19870667
14	0xbd58d4ec	-0.052937433
15	0xbdc89d9b	-0.09795686
16	0x3e99429e	0.29933637
17	0x3da2778e	0.079329595
18	0xbe566681	-0.2093754
19	0x3e162937	0.1466416
20	0x3d0e9027	0.034805443
21	0x3d7abae3	0.061213385
22	0xbdf3edc9	-0.11910588
23	0x3e186744	0.14883143
24	0x3e9db197	0.30799553
25	0x3dd46bd2	0.103721276
26	0x3df84731	0.12122954
27	0x3cc8b27b	0.024499169
28	0xbd4f7859	-0.05065188
29	0x3e8a96f6	0.270683
30	0x3e4707eb	0.19436614
31	0xbe0bb814	-0.13644439
32	0x3e672c6b	0.22575538
33	0xbe020662	-0.12697747
34	0xbd877128	-0.0661338
35	0xbe8f72b7	-0.28017208
36	0x3d338208	0.04382518
37	0xbdc7291d	-0.097246386
38	0xbeec2504	-0.4612199
39	0x3e21c5df	0.15798138
40	0xbea389c4	-0.31941044
41	0x3cb14064	0.02163715
42	0xbd953a2a	-0.072864845
43	0xbf34ece3	-0.7067396
44	0xbecf31bb	-0.4046763
45	0xbe96f426	-0.29483145
46	0xbe16175b	-0.14657347
47	0xbeab6a7a	-0.33479673
48	0xbd64df38	-0.05587694
49	0x3d3e44e7	0.04645243
50	0xbe7693ae	-0.24079773
51	0x3d200454	0.039066628
52	0x3e6c7a82	0.23093608
53	0x3ec1e459	0.37869528
54	0xbe499335	-0.19685061
55	0xbe5321a2	-0.20618299
56	0xbe19b329	-0.1500975
57	0xbf2e98ce	-0.6820191
58	0xbeda46ac	-0.42632043
59	0xbf1365b3	-0.57577056
60	0x3e5e67af	0.2171924
61	0xbdcb6612	-0.09931578
62	0xbdf2f2cf	-0.11862718
63	0x3eeb977d	0.46014014
64	0x3e089b9b	0.13340609
65	0xbe04324c	-0.12909812
66	0xbd95db42	-0.07317211
67	0x3e2c0400	0.16798401
68	0xbebeb7c8	-0.3724959
69	0xbee0cba9	-0.4390538
70	0x3dd50d25	0.10402898
71	0x3e81b463	0.25332937
72	0x3d9eb06b	0.07748493
73	0xbf43f5d4	-0.7654698
74	0x3d8ff1f6	0.07028572
75	0xbd997d9c	-0.07494661
76	0xbe1233c9	-0.14277567
77	0xbebfb963	-0.37446126
78	0x3ecde8e0	0.40216732
79	0xbd1ce977	-0.038308587
80	0x3e6365ce	0.22206804
81	0xbe006392	-0.12537983
82	0x3e07dd22	0.13267949
83	0xbeabb04b	-0.33532938
84	0xbed39bde	-0.41329855
85	0x3cd9cc9e	0.026586827
86	0x3db552d7	0.08853691
87	0x3e86aef0	0.26305342
88	0x3e40c636	0.18825611
89	0xbe3c8ba4	-0.18412644
90	0xbeb1ceef	-0.3472819
91	0xbef1f5e2	-0.47257906
92	0xbdc6b946	-0.09703307
93	0xbd170101	-0.03686619
94	0x3df021fb	0.11725231
95	0x3e7ef19e	0.24896857
96	0xbeb51dcf	-0.35374305
97	0x3dcf1185	0.101107635
98	0x3e34fee6	0.17675361
99	0xbe97ef9e	-0.29675
100	0x3cb456b9	0.022014009
101	0x3d063210	0.032762587
102	0x3c90bc09	0.017667787
103	0xbe92322c	-0.28553903
104	0xbebbfde2	-0.36717135
105	0xbd1a7c0e	-0.037715964
106	0xbe87657e	-0.2644462
107	0xbe19f056	-0.15033087
108	0x3e838f0c	0.25695074
109	0x3dfb5f26	0.122740075
110	0xbe96f5ed	-0.294845
111	0x3d5be2f9	0.053683255
112	0xbeb4f818	-0.3534553
113	0x3ec9ff2c	0.39452493
114	0x3d41b263	0.047289263
115	0xbf0aa26f	-0.54154104
116	0xbde3e460	-0.111275434
117	0xbed583aa	-0.41702014
118	0xbec2fb01	-0.38082126
119	0x3d882861	0.06648327

out.bias f4 [3]
0	0x3f7028cf	0.9381227
1	0x3f5d8b41	0.8654061
2	0xbfcb43ed	-1.5880104
