Machine_Learning/Exploratory Weeks/Week6/nn.pt (torch, 196567 bytes, 6 tensors)

fc1.weight f4 [80, 561]
00000000: dbeb e3bc 1c3f 273d 40f8 543d c82f ad3d
00000010: 9da6 e03c ffaf 883d 8760 953d 3b0e a23c
00000020: 40e0 893d d4af 3b3d c9a5 c83d d7af 7d3d
00000030: 3363 e7bc efd9 28bd e476 34bd aa08 a53c
00000040: 4e1d c63d 21d0 ce3c c8f1 9f3d 660d a33d
00000050: e376 743d 3f07 c53d 72fa 473d fd0e 113d
00000060: c8f7 973d bf03 90bd 65b6 e43c ead2 b8bd
00000070: adb3 0d3d 5156 45bd 7f34 fc3c 780a 26bd
00000080: 9ceb 46bc 712d 9dbd 1beb ab3d e367 71bd
00000090: 260f b23d 377b 8bbd 6cf0 043d 1128 ddbc
000000a0: 56e6 adbd 78fe 4ebd a4b1 14bd 03f4 ed3c
000000b0: e0c7 ad3c ed5a aa3d 3c7a 923c 9a09 e63c
000000c0: 6983 9f3d 4245 95bd c498 fabc f344 8ebd
000000d0: c828 56bd ae4d abbd d52d 55bd 3b16 a93c
000000e0: b0a9 b6bd 5581 db3c e67b 833d bd62 553d
000000f0: 921a d03d ac84 7a3d 0297 c53d 966b 0c3d
00000100: 2de1 8e3d 9f1e 553d 3bd5 abbc 3c12 963d
00000110: 7cd4 65bd b128 053d 769a c2bd aac5 3a3d
00000120: ab92 18bd 4d96 183d 7601 9fbd 8eea ba3c
00000130: e963 a2bc 9b6b cd3d 6332 143d fd20 69bd
00000140: 5726 78bd 9ab0 6bbd f4e3 023d c2c1 0b3d
00000150: a8c4 5d3d 9bdd e33c f977 853d 9209 1f3d
00000160: 24ac dc3c 38cd 6e3d 3177 2d3d b5cc 9e3d
00000170: 3769 d5bc 8d21 aebd a066 96bd c51d 593d
00000180: b20b 9d3c 25e4 9c3c e06f 9d3d 645a 6c3d
00000190: c49a 1e3d 8200 ce3d ab48 973c 6576 c83d
000001a0: 5b4b a73c 5e63 afbd 76d1 1cbd 5878 90bd
000001b0: 03a7 94bd a0de b6bd c767 953d 479b d3bc
000001c0: 772a 3bbd f019 97bc f2b7 bdbd ae42 c1bd
000001d0: 2843 aebd 3af5 87bd 8334 69bd a310 793d
000001e0: 54c6 7e3d 5c84 113d e155 493d 9587 823d
000001f0: 5a1a 943d fa5a 013d 843f b63d f27a 693d
00000200: 4e07 9b3d 9cde c83d 12f4 a83d 7f72 9d3d
00000210: b4e1 9bbd 24ce b7bd ee3a 39bd ae34 c23d
00000220: 2dc7 a93d 9120 823d f5fe c13d 0bdf 393d
00000230: 5763 313d 3763 2a3d d7cf 183d 1f65 6f3d
00000240: 2e5e a03c 73b3 f5bc 6552 903c 9660 a3bd
00000250: c98a 9a3d b69f 6d3d 83a3 9cbd 3cff c8bd
00000260: 9340 0bbd 8939 a4bc ecc8 813d 7d4b 9dbd
00000270: fe21 8bbd 1599 e53c 5da1 46bd 1b95 9e3d
00000280: 48d8 513d bcd6 1c3d e47b a43d 260a 613d
00000290: bb78 9b3d 0189 8c3d bb58 b63d 0a5d 253d
000002a0: e932 b83c 9468 813d 3d0e cb3c 1b57 aa3c
000002b0: d85e edbc 5f46 82bd 88f4 00bd 1a4f a23d
000002c0: 16de c33d f563 8b3d 5481 c93d b477 2f3d
000002d0: b986 0a3d cee6 6d3d 435d 513d 79ad ae3d
000002e0: 9094 613d 3348 61bd c1e3 9cbd b154 bdbd
000002f0: f1e2 35bd a180 1f3d e263 a1bc 3369 acbc
00000300: a49d c5bd 5bb5 9ebd f926 0b3d 273a 90bc
00000310: 9613 a6bd 804d c73d 20ce d2bc 76af 573d
00000320: 5765 433d fead ba3d df26 5b3d a360 5e3d
00000330: f9f5 893d abf1 aa3c 61d4 6e3d 3ce1 a73d
00000340: 59c4 323d ce46 83bd ea94 0a3d 3092 86bd
00000350: 71fb a43d 4a81 6d3d 6df4 f03c 9214 8e3d
00000360: bc06 ee3c f36f c63d 479a 9d3d ef66 823d
00000370: c7e2 dc3c 6bed d03d 7a74 cebd 9047 6e3d
00000380: c668 c1bd 63ae c93c 04f9 913d bf3d b63d
00000390: 31c2 9a3d 354b cd3d 3236 683d 421d f43c
000003a0: 4960 8f3d 9617 683d 8a27 883d 2aa1 82bd
000003b0: 0387 b13c 2d89 373d f1e3 a3bc fb17 ae3d
000003c0: 6d68 c33d 8ced 923d 43fe c43d 6753 8a3d
000003d0: 5488 843d 1754 603d 3fe0 2f3d c677 18bd
000003e0: 27c9 b2bd 6aa4 413d 26fa 1dbd 15cf 613d
000003f0: 7adc 0c3d 463e 583d 6aa4 9e3d d7a7 3b3d
-0.027822426 0.04083167 0.051994562 0.08456379 0.027423197 0.066741936 0.07293802 0.019782176
0.067322254 0.04582198 0.09797246 0.061935272 -0.028245544 -0.041223463 -0.044058695 0.020145733
0.09673558 0.025245728 0.07809788 0.0796154 0.05968369 0.09620523 0.048822828 0.035414685
0.074203074 -0.070319645 0.027919004 -0.09024604 0.03459518 -0.04817802 0.03078675 -0.040537328
-0.012141135 -0.07674683 0.08394452 -0.058936965 0.086942956 -0.06810611 0.032455847 -0.026996644
-0.08491199 -0.05053565 -0.036302224 0.029047018 0.021213472 0.08318124 0.017880552 0.02808075
0.077887364 -0.072886005 -0.030590422 -0.06946745 -0.052284986 -0.083644256 -0.052045662 0.020640483
-0.08919084 0.026795069 0.06420116 0.052096117 0.10161318 0.061161682 0.09647943 0.03428229
0.069765426 0.052031156 -0.0209757 0.07327697 -0.056110844 0.03250951 -0.09502117 0.045598663
-0.03724925 0.037252713 -0.077639505 0.022816923 -0.019823031 0.1003029 0.036180865 -0.056916226
-0.06058344 -0.057541467 0.031955674 0.03412033 0.054142624 0.02781563 0.065170236 0.038827486
0.026937552 0.05830118 0.042349998 0.077538885 -0.026051147 -0.08502493 -0.07343793 0.053006906
0.019170616 0.019151757 0.07687354 0.05770339 0.038721815 0.100586906 0.018467268 0.09788207
0.020421674 -0.08563875 -0.038285695 -0.07054204 -0.072584175 -0.08929181 0.072951846 -0.025830878
-0.045694795 -0.018444985 -0.092636004 -0.09436546 -0.08508903 -0.0663857 -0.056934845 0.06080688
0.06220086 0.03552662 0.049154166 0.063735165 0.07231589 0.031580903 0.088988334 0.057002015
0.07569753 0.09808084 0.08249678 0.07687854 -0.07611409 -0.08974865 -0.045222215 0.09482704
0.08289943 0.06353868 0.09472457 0.045378726 0.04330763 0.041598525 0.037307587 0.058446046
0.019576158 -0.029992795 0.017617414 -0.07977407 0.075460024 0.05801364 -0.07648375 -0.09814307
-0.03399713 -0.020046966 0.06337151 -0.07680414 -0.06793593 0.028027097 -0.04849373 0.07743283
0.051231652 0.038290724 0.08031443 0.05494132 0.07591387 0.06862069 0.08903643 0.040371932
0.022485213 0.06318775 0.024787063 0.020793488 -0.02897589 -0.063610785 -0.031483203 0.07925244
0.09563844 0.06806175 0.098391205 0.042838767 0.033819888 0.05808144 0.051114332 0.08529181
0.05507332 -0.055000495 -0.07660628 -0.09244669 -0.04440588 0.03894103 -0.019700948 -0.021046257
-0.09649208 -0.077494346 0.033972714 -0.017605854 -0.081092045 0.09731579 -0.025733054 0.052657567
0.047704067 0.091152176 0.053503867 0.05429138 0.06736369 0.02086719 0.05830801 0.08197257
0.043644283 -0.06409989 0.03383342 -0.06570852 0.08055771 0.057984628 0.029413426 0.06937517
0.029055946 0.09689321 0.07695442 0.06367289 0.026963605 0.10201534 -0.1008081 0.058173716
-0.09443812 0.024619287 0.07127574 0.08898496 0.0755657 0.1002411 0.05669231 0.029799107
0.07000787 0.05666312 0.066481665 -0.06378396 0.021670824 0.044808555 -0.020006152 0.08500668
0.09541402 0.07174215 0.09618809 0.06754189 0.06471315 0.054767694 0.042938467 -0.0372236
-0.08729773 0.047275938 -0.03856864 0.05512913 0.03438995 0.052793764 0.07746203 0.04581436

fc1.bias f4 [80]
00000000: d751 54bd 1d2a 22bd f31f 17bd 20a6 c5bc
00000010: 9920 043d 7ad7 3e3d 11bd 9cbd 3162 4dbc
00000020: d005 debd fc5d 2c3d 25b7 78bd 7fb2 353d
00000030: f0d9 a43c 7771 b6bb 02f6 ba3c e9d5 ba3b
00000040: 9fcd 5a3d 13d1 3ebd ba75 b8bd daf9 5b3d
00000050: 4f61 aebd def3 18bd 8e85 0b3c 4198 82bd
00000060: fffb 99bd 764d 08bd 2f24 203d 7221 4fbd
00000070: f31a 79bd d561 abbd 204b 383d a207 60bd
00000080: 8f6f cf3c bd58 e23d b06b 22bd ad05 8c3d
00000090: a8bc c0bd 109e b0bd 64a9 99bc 7cc4 adbd
000000a0: f9c0 2b3d 11bf 2ebc 895b 95bd a7fd 333d
000000b0: d195 55bd b263 903d cd51 0b3d b608 923b
000000c0: 694f 9bbc 1c6e 92bc 5ce2 a13c 87a1 2a3d
000000d0: 5c1d 92bd d661 b53c 30c7 96bc c410 84bb
000000e0: 2390 fbbc 7581 71bc d381 643d da87 223d
000000f0: ed88 91bc bb27 febc 4416 47bd 98c4 87bd
00000100: 5098 8e3b 13f1 893d 779b 76bd ac0e 6f3d
00000110: 7c29 d0bc 4259 453d cb03 fa3b aea5 3fbc
00000120: c065 bb3c cb7f 41bd b562 39bd 9963 683d
00000130: 7e0f 3b3d 6851 abbd b088 8cbc bc24 d0bd
-0.05183586 -0.039590944 -0.036895704 -0.024127066 0.03225765 0.046592213 -0.07653249 -0.012535618
-0.108409524 0.042081818 -0.060721535 0.04435968 0.020123452 -0.0055677253 0.022822384 0.0057017696
0.05341875 -0.046586107 -0.090068296 0.053705074 -0.08514654 -0.037341945 0.008515729 -0.063766964
-0.075187676 -0.033276998 0.039097007 -0.050569005 -0.060816716 -0.08368269 0.04499352 -0.05469478
0.02532175 0.11052082 -0.03965348 0.0683702 -0.09410983 -0.08623898 -0.01875753 -0.08484742
0.04193208 -0.010665671 -0.072928496 0.043943074 -0.05214483 0.07050265 0.03401356 0.004456605
-0.018958764 -0.01787477 0.019761257 0.04165795 -0.07134506 0.022141378 -0.018405527 -0.004030319
-0.030708378 -0.014740338 0.055787873 0.03968034 -0.017765487 -0.031024804 -0.04860522 -0.06629294
0.004351653 0.067354344 -0.060206857 0.0583636 -0.025410406 0.048180826 0.0076298467 -0.011697216
0.022875667 -0.047241013 -0.04526015 0.05673561 0.04566907 -0.083651364 -0.017155021 -0.101632565

fc2.weight f4 [40, 80]
00000000: b47b 0cbe bae5 2abe 187c 1e3e 0016 43bd
00000010: 1a16 dcbd 0cb2 03be 10ff c5bd 74aa 6a3b
00000020: 12ce 0bbe d3c2 b73d f5b8 9a3d d862 a93d
00000030: 8d55 1fbe 9115 04bd b19f d1bc 3000 6dbd
00000040: 1f92 a13b f468 02be da96 07be d731 0c3d
00000050: f216 ffbd fa9c 8dbd b1c3 2c3e dc1e 1cbe
00000060: afd4 72bb c496 483d d7c2 06be a794 0fbe
00000070: 4984 fabb cd4b cabd 5371 c0bc 74c6 123d
00000080: a850 e6bd d335 1abe e358 983a b57c e6bd
00000090: c294 fdbd 378f 9a3c ac08 e13a e2f7 c5bc
000000a0: 4b8d 21be 34e5 a9bd abad e7bd ace0 ad3c
000000b0: 4046 0f3d 6a55 0bbe dfd9 c4bb 1633 cdbd
000000c0: 7bc4 ce3d 00ab b83c 56aa 2fbd 955c d13b
000000d0: c382 0abd 1262 b33d 638c 23bd 0c62 c13c
000000e0: 560e 9fbd d887 883d fc7b ab3c bd4e 3cbd
000000f0: 86eb d1bd 5e22 b7bd c61c 64bd 1301 ecbd
00000100: d6cf 16be 9469 523d cea1 b8bd bcbd 15be
00000110: 8828 abbd 1064 053c 7ad7 00be 4299 98bd
00000120: 076b 223e f451 0abe 4d13 20be 8883 aabb
00000130: 58bc 29bd d8e4 93bb 20d8 e53d 62f2 13be
00000140: 6a49 3a3d ddd9 c3bc 9cbd edbd c988 f6bd
00000150: 18f8 cbbd 92f3 dabd 6909 2bbc 11dc 97bd
00000160: 3ca7 2f3d 80d5 58bd 23e6 103e 8077 6ebc
00000170: b624 ecbd d5f8 573c 0ba7 55bd dd56 fb3a
00000180: b998 60bc 8fbc f0bd 8075 d2bd 5f1b 253e
00000190: 392b 0cbe 354f 5e3b a86f ffbd d817 823d
000001a0: c210 9bbd 7f7f 3bbc 8641 2fbd 4c8d 0dbe
000001b0: e6b9 c93c 10c9 27bd c7bd e43c 0689 e1bd
000001c0: 8f1b f73c 22f6 d9bd b51e 1ebe 6800 0bbe
000001d0: 3dab 2fbd abde 4c3d 59a5 b1bd dd6d 11be
000001e0: d13c b9bc 099f d7bd 48a7 84bc fc74 043c
000001f0: d575 85bd 4027 253d d0c3 e53c 0aa7 9bbd
00000200: a36f e13d b32c 30be 16ee 72bd 5f63 e03b
00000210: 7465 3b3c b59d 17be 9f56 f9bc 3cf9 afbd
00000220: 3df7 0abe 5ce0 1fbe ed0f fdbd 03cf 4c3d
00000230: 6ecd cabd cbc4 093c 2770 d0bd 5b44 f3bd
00000240: 3205 b5bd 0050 ba3c 70f7 64bd bf11 2cbe
00000250: 0459 343d c2eb b03c 1db8 f93c edcd 10be
00000260: 0b3a 39bd 846c 4ebd 39c8 b2bc 2457 ccbd
00000270: 4fbe 01be e825 83bd e592 a6bc 33e7 113d
00000280: d3e3 9abc be23 08bb bbd9 d93c 43ae 26be
00000290: fa27 68be feb7 9b3d 607b 223c 183c 27be
000002a0: 40b2 1bbd f64c 9ebd ca88 5ebd c1d3 923e
000002b0: d1c7 2e3e fa67 a83d caed 4a3e a926 153e
000002c0: a03f ccbd d65b 653c 78a5 b43c e50b 0c3e
000002d0: 19ff 123e 32ab b0bc c647 c4bc 75d8 92bd
000002e0: 39de c3bb 8db5 93bd 13b5 ed3d 52fb 10bd
000002f0: 59b2 433c d714 06bd 6f18 b43d ce4b a1bd
00000300: f48e 49bb 5288 613e 67c5 013e a8fa c43d
00000310: 46ba 1a3e 186d 093e 382c 0ebd 4505 373b
00000320: 6217 843d b8b0 11be e3f3 be3a 53f2 bc3c
00000330: 8ccb d93d caf8 66bd ee69 0bbe 8e04 3eba
00000340: fa7d 683c 0c4f abbc 1877 033e bd73 ce3d
00000350: 7d95 1dbe 1d20 79be 174c e1bd 4b3a 51be
00000360: af9d f03c 489c 603d 8e69 383c 348c 13be
00000370: d681 b83b f9ed 1abe 4dc6 c3bd 7638 d8bd
00000380: cfb4 8a3d 7d79 8b3e 9ba2 f3bd fe13 f63d
00000390: 3a3d e2ba e1bd c53d 4dc9 583d 79a6 f83d
000003a0: bbe0 433e ffd1 e93b 6b8e ac3e ff0b 6cbe
000003b0: 75fc b9be b038 e2bb f446 04be 14b9 e43c
000003c0: cb4a 183e 18ca 2e3d 43e2 733e 0bd6 60bd
000003d0: a79a dc3c 7575 97bb 45b1 cfbc c73b 223d
000003e0: ca88 99bc 1687 25bd a93a 943d e280 1cbe
000003f0: 0bc8 acbd 5243 97bd ca18 3a3c 2bc6 e8bd
-0.13719064 -0.16689196 0.15477026 -0.047628403 -0.10746403 -0.12860888 -0.0966779 0.0035807164
-0.13652828 0.08972707 0.07554809 0.08270806 -0.15559979 -0.03224713 -0.025588842 -0.057861507
0.004930749 -0.12735349 -0.13241139 0.03422722 -0.12455548 -0.069147065 0.16871525 -0.15246147
-0.0037053039 0.048971906 -0.13160263 -0.1402155 -0.007645164 -0.09877739 -0.023491537 0.03583379
-0.11245853 -0.15059595 0.001162317 -0.11254255 -0.12381889 0.018867118 0.0017168722 -0.024166051
-0.15776555 -0.0829567 -0.113124214 0.021225296 0.034979105 -0.13606802 -0.0060074176 -0.100195095
0.100960694 0.022542477 -0.042887054 0.0063892105 -0.03381611 0.0875894 -0.039928805 0.023606323
-0.07766406 0.06666535 0.020933144 -0.04597353 -0.10250001 -0.08942102 -0.055691503 -0.115236424
-0.1472772 0.05137022 -0.09015237 -0.14623159 -0.0835734 0.008141533 -0.12582198 -0.074511066
0.1586114 -0.13507825 -0.15632363 -0.005203668 -0.041439384 -0.0045133643 0.11222863 -0.1444793
0.04548017 -0.023907596 -0.11608431 -0.120378084 -0.099594295 -0.106909886 -0.010439255 -0.07415021
0.042884097 -0.052937984 0.1415029 -0.014554858 -0.115304396 0.013181885 -0.052161258 0.0019175668
-0.013708287 -0.11754715 -0.102763176 0.16123722 -0.13688363 0.0033921723 -0.124724686 0.06352204
-0.07571556 -0.011443972 -0.042787097 -0.13823432 0.024624776 -0.040963233 0.027922524 -0.11012463
0.030164508 -0.10642649 -0.15441401 -0.13574374 -0.042887915 0.05001704 -0.08674116 -0.14202066
-0.022612007 -0.105283804 -0.016193047 0.008084532 -0.06516615 0.040320635 0.028047472 -0.076002195
0.11007621 -0.17204551 -0.059309088 0.0068477835 0.0114377625 -0.14806254 -0.030436812 -0.085924596
-0.13570876 -0.1561293 -0.12356553 0.05000211 -0.09902464 0.0084087355 -0.10177641 -0.11878272
-0.088388816 0.022743225 -0.055900037 -0.16803645 0.044030204 0.021596793 0.0304833 -0.14141054
-0.04522137 -0.050396457 -0.02182399 -0.09977558 -0.12670253 -0.064037144 -0.020333717 0.03562088
-0.018907463 -0.0020773257 0.02659308 -0.16277413 -0.226715 0.07603453 0.00991711 -0.16331518
-0.03801179 -0.07729523 -0.05432967 0.2867718 0.17068411 0.08222957 0.19817272 0.14565529
-0.09973073 0.013998946 0.022051558 0.13676412 0.14355125 -0.021566007 -0.023960005 -0.07170192
-0.0059774187 -0.072123624 0.11606803 -0.035395928 0.011944377 -0.03273472 0.08793723 -0.07875787
-0.0030755373 0.22024658 0.1267296 0.096181214 0.1511012 0.13420522 -0.03471014 0.0027926725
0.064497724 -0.14227569 0.0014568534 0.023064768 0.106345266 -0.056389607 -0.13614628 -0.00072486035
0.014190191 -0.020911716 0.128384 0.10080669 -0.15389057 -0.24328656 -0.11000841 -0.20432393
0.029372064 0.05483654 0.011255635 -0.14408952 0.005630712 -0.15129842 -0.09559307 -0.10557644
0.06772768 0.27241126 -0.11896249 0.12015532 -0.0017260679 0.09655357 0.05292635 0.12141127
0.19128697 0.007135629 0.33702406 -0.23051451 -0.36325422 -0.0069037303 -0.12917691 0.027920283
0.14872281 0.0426732 0.23816781 -0.054891627 0.026929213 -0.0046221563 -0.025353083 0.03960779
-0.018741984 -0.04041203 0.07237751 -0.1528354 -0.08436593 -0.07385887 0.011358449 -0.113659225

fc2.bias f4 [40]
00000000: 9dfd bfbd 3319 81bd fa60 e5bd 0315 de3c
00000010: f58a 0b3d 57cf 8bbc 3412 81bb c38b 01be
00000020: 7f21 dcbd faa4 10be c4c9 d93d 8fdb dd3d
00000030: 7c8f 833c b971 c93c f377 083e dfa0 a4bd
00000040: dbda d4bc e326 8abc 98b2 c5bb 1d0d 88bd
00000050: 1e3f 783b 800d db3c a2f9 04be 6593 babd
00000060: 4862 613d a38e 1a3d 578f c33d c4fc 603c
00000070: 5f0a e53c a635 41bc 19a7 fc3d a49b ba3c
00000080: c9ab a7bc 1dc7 0dbe 7905 d63d 30f3 e13d
00000090: 9e75 88bd d009 e9bc ba6d df3d 6d4b a63d
-0.09374545 -0.063036345 -0.112001374 0.027109629 0.034068067 -0.01706664 -0.0039389376 -0.12650971
-0.107485764 -0.14125434 0.10634187 0.10832893 0.01605963 0.02459036 0.13327007 -0.08038496
-0.025983265 -0.016864246 -0.006033253 -0.06643126 0.0037879418 0.026739836 -0.12985852 -0.091101445
0.05502537 0.037733685 0.09548824 0.013732139 0.027959047 -0.011792576 0.12336559 0.022779293
-0.020467656 -0.13845487 0.104502626 0.110327125 -0.06663059 -0.028447062 0.109096006 0.08119855

out.weight f4 [12, 40]
00000000: 7460 f73c e82d a73d 94e3 253e 9be9 afbb
00000010: 54d9 9a3d 4d7a 30be 875e 48be 6f41 143d
00000020: e6a2 53bd 3611 3bbe b41c 80be 6d10 4b3d
00000030: bb4b 56bd 8303 c5bd 4a1d f83d b394 13be
00000040: 5219 80be 721c 8d3c 0182 58be 6648 35bc
00000050: f3f7 adbc 06c6 393e 4866 82bd 4225 ab3d
00000060: 8abd 863e 7b28 3f3e b55d 8abd 3987 993e
00000070: 2db5 6dbd f2d4 a4be fb0f 3a3e 6a54 d0bd
00000080: f4a6 b2bd 6177 c73c ac9a 9c3c 87e6 503e
00000090: 0f3d 213d 6033 4fbe 09fb 303e 56a0 3bbe
000000a0: 3c37 ee3c b52a 143e 927e febe e5c7 d1bd
000000b0: 3cc7 1d3e 3079 893e 19d6 84bd e200 84bd
000000c0: 0f97 0b3d ff30 b8bd eb32 d03c 6a85 b43d
000000d0: f064 b5bc fe40 95bb d8dc 363e 7a46 00be
000000e0: 6031 c5bd 1c01 4fbe d5ea 533e b96b 653d
000000f0: 76c1 36be 5ecd 40bc 5802 ec3d 482c 153d
00000100: 4aea dbbd 9f2d c63d 25a7 963c bcce 573d
00000110: d44c 96be 1b2a a7be 30d2 82be 0823 393d
00000120: cde0 273d 6935 b7bd e377 48be 9b9e 513e
00000130: 076b dcbb a8e2 173e 0443 9bbe e299 f93d
00000140: 14bd f3bd 70aa a6bd 0686 253e 7f0c 2d3d
00000150: 33c4 5e3e a739 323e 3c6a a4bb f20b abbd
00000160: c452 9bbc 6e22 263c 9dc8 9bbe b884 c93d
00000170: eb3b bbbd 0dfa b93b 1577 ae3c f712 f5bd
00000180: 23ff 933e 66e2 c0bd a440 363d c28d 053d
00000190: 408e 36be a405 423d e5f1 95bd 469b 773d
000001a0: 96c3 0b3e 3d53 d43d 5a8a 32be 6825 29be
000001b0: 0f9e d6bd 2789 013f 15c1 c5bd fa7e 32bd
000001c0: 200c 883d 7e54 bfbd 65a8 1abf fb21 8b3b
000001d0: 03be 4bbd bb42 633e fb0b 073e f528 2abd
000001e0: b244 ddbc d1e3 b93d 5c75 803d 4364 4a3e
000001f0: 8946 17be b31c d5bb e85f c53d 939e e63d
00000200: d3b7 0abe 978f 24bd ffa9 523e d7ff cbbe
00000210: b1db 783e 2916 863b 83bc 14be 7229 cf3d
00000220: 449b ae3d b03d 5bbd 2167 19be e34c cfbd
00000230: 9a91 2d3e 3b4a 42bd c694 4d3d 160e 7dbd
00000240: c29e 0c3d ede1 2ebe 0848 50be 12fc 3bbe
00000250: 43da 38bd c31d f9be 0193 793e 7b28 66bd
00000260: d2a4 b5bd 9f76 3e3e e29c 30bf 93c6 d7bd
00000270: 4db6 213c 49c3 bbbe 1bf6 a33c f8ab 153e
00000280: c814 0e3c 09a8 8fbd 58e8 2b3d a924 6d3d
00000290: 4a8d acbd 3650 11bd 4c1c d23c ff16 763d
000002a0: 2cf6 3bbe 1742 2e3d 527d 3e3e 6c73 8dbe
000002b0: 639d 85bd 8f97 223d b3f3 5fbd fd54 023b
000002c0: 2058 c4bc f142 c93d 889c 8d3d ed2e 4dbc
000002d0: a758 313e 692c 8ebd ba1a 56be b8fd f5bb
000002e0: b199 de3d 63e3 babc 73bb 0a3e 41ae 323e
000002f0: 7617 0bbe 4f22 3cbe 53b5 a7bd 483f 38be
00000300: 5ad1 54bd 7811 103d e197 92be ba60 e43c
00000310: d906 f2bc ccd0 17bf 87a1 ccbc 3794 2bbe
00000320: d1fb 2f3e a87f e8bc 6f1c 06bf aaf2 273d
00000330: 13af 89be 1989 f4bd 3ed4 47bd 6920 143e
00000340: 53c3 7cbb 9d81 133d bde5 45bd ae15 03be
00000350: 9b44 a03e aeab f43c ece1 13bd 40bb 163c
00000360: d354 db3d 400d c23d b67f 14be b7e7 4ebc
00000370: c5ae 9a3c 4b00 e6bc 8e55 303d 291b 32be
00000380: 5333 7c3c bc37 163e ee81 ef3d eaac 15bd
00000390: 08e5 d73e 42cd 8d3e 9db4 ca3d 8902 62be
000003a0: b24a 27be 8b5c 7d3e a8f1 96be 42ab 7e3d
000003b0: 608f 90bd b7f1 47be e572 02be c187 ba3d
000003c0: ff9a 45be 6d3f 26be fe47 75be eaff 933d
000003d0: ee6e b5be 1e7e b3bc 6077 ffbd fa2a 033d
000003e0: a52c 2dbe 6050 46bd cd07 a73e 0c6d 62bd
000003f0: 7c77 3cbe 707b da3c 9ba7 523d b45d e6bc
0.03019736 0.08163053 0.16200095 -0.005368424 0.07560983 -0.17234154 -0.1956731 0.036195215
-0.051669024 -0.18268284 -0.250219 0.04957621 -0.052318316 -0.096198104 0.121149614 -0.14412193
-0.25019318 0.017225478 -0.21143343 -0.011064624 -0.021236395 0.18141946 -0.06367165 0.08356716
0.26316482 0.18667786 -0.067561544 0.2998598 -0.05803411 -0.32193714 0.18170159 -0.10172351
-0.0872325 0.024348916 0.019116722 0.20400439 0.03936487 -0.20234442 0.17283262 -0.18322882
0.029079072 0.14469416 -0.4970594 -0.10243205 0.15408033 0.2685027 -0.064861484 -0.06445481
0.034079608 -0.0899372 0.025414905 0.08814509 -0.022142857 -0.004554867 0.17857683 -0.12526885
-0.09628558 -0.20215267 0.2069505 0.056010935 -0.17847237 -0.011767713 0.115238845 0.036419183
-0.107380465 0.0967667 0.018390248 0.05268739 -0.2935549 -0.3264931 -0.25550985 0.045199424
0.04098587 -0.08945734 -0.19576983 0.2047066 -0.006726626 0.14832556 -0.30324566 0.12187554
-0.11901298 -0.08137977 0.16164407 0.042248245 0.21754532 0.17404805 -0.005017547 -0.08351888
-0.018960364 0.010140045 -0.30426493 0.09839767 -0.09142288 0.0056755603 0.021297017 -0.11966508
0.2890559 -0.09418182 0.04449524 0.032605894 -0.17827702 0.04736866 -0.07321528 0.060450815
0.13648829 0.10367439 -0.1743559 -0.16518176 -0.10479366 0.505999 -0.09655968 -0.043578126
0.06642938 -0.093422875 -0.604132 0.004245994 -0.049741756 0.22193424 0.13188164 -0.041542966
-0.027010296 0.09076656 0.062723845 0.1976481 -0.14773001 -0.0065036654 0.09637433 0.112607144
-0.13546686 -0.040176 0.20572661 -0.39843628 0.24302556 0.004091997 -0.14525037 0.10115327
0.08525708 -0.053525627 -0.14980747 -0.10122087 0.16950074 -0.047434073 0.05019071 -0.06178101
0.03433109 -0.17078371 -0.20339978 -0.18357876 -0.045130026 -0.4865552 0.24372484 -0.05619095
-0.088693276 0.18599938 -0.68989384 -0.10535922 0.009870124 -0.36672428 0.020014813 0.14616382
0.008671947 -0.07014472 0.041969627 0.05789629 -0.08425386 -0.035476886 0.025648259 0.060080525
-0.18355626 0.042543497 0.18602493 -0.27627122 -0.0652416 0.03969532 -0.05467577 0.0019887083
-0.023967803 0.09827221 0.069146216 -0.012523395 0.17318974 -0.06942064 -0.20908633 -0.0075070523
0.10869158 -0.022813505 0.13548069 0.17449285 -0.13583168 -0.18372463 -0.08188882 -0.1799289
-0.051957466 0.03517291 -0.286315 0.027878154 -0.02954428 -0.59302974 -0.024979366 -0.16755758
0.17185904 -0.028381184 -0.52387136 0.041002907 -0.26891384 -0.11940212 -0.048786394 0.14465488
-0.003856857 0.03601228 -0.0483148 -0.12801239 0.31302342 0.02986702 -0.036104128 0.009199917
0.10709538 0.094751835 -0.14501843 -0.012628487 0.018882165 -0.028076312 0.04305034 -0.17393173
0.015393096 0.14669698 0.11694704 -0.036541857 0.42166924 0.27695662 0.098977305 -0.2207128
-0.16337088 0.24742334 -0.29481244 0.062175043 -0.070585966 -0.195258 -0.12739141 0.09107924
-0.19297408 -0.16235133 -0.23953244 0.07226546 -0.35436195 -0.021910723 -0.12473941 0.032023408
-0.16911562 -0.048416495 0.3262314 -0.055279776 -0.18404955 0.026670188 0.051429372 -0.028120853

out.bias f4 [12]
00000000: 9195 c43c 6890 7d3d 6cca 80bd e480 e9bd
00000010: 80f9 78b9 4a0d ddbd 038b 16be a165 c73d
00000020: 3a59 fc3d 894c 0e3e 3d43 d0bc 623a d13d
0.0239971 0.061905295 -0.06288609 -0.11401537 -0.00023744069 -0.1079355 -0.14701466 0.09736181
0.12321706 0.13896383 -0.025422687 0.10216214
