Machine_Learning/Final/MLPW9.pt (torch, 336471 bytes, 6 tensors)

fc1.weight f4 [180, 400]
0.03756537 -0.022793323 -0.008594483 0.028572407 -0.03870318 0.007934175 0.014807653 -0.04770878
0.008741736 -0.017461736 0.044851672 0.0021886416 0.037815873 0.022540126 0.019294608 -0.047412056
0.043194603 -0.040871363 0.02176791 0.022712726 -0.00032614917 0.043075 -0.0132322125 -0.029511882
0.016464483 -0.011135377 -0.0421348 -0.03553493 -0.0319127 0.01439574 -0.03496034 0.02280384
0.038671527 -0.020286603 0.028278578 0.0010472126 0.0318711 -0.006304562 -0.031223232 0.03780589
-0.030746687 0.0116128735 0.02849457 -0.03619253 -0.045452345 0.02794027 -0.04941368 -0.037319116
0.021672856 -0.016762652 0.035292614 -0.01080358 0.008047856 -0.027621597 0.00988711 -0.046181012
-0.038023643 -0.038413703 0.005885154 -0.008883227 0.049767513 0.0018710904 0.04310027 -0.029716987
0.01240325 -0.008582406 0.045305703 0.01668388 0.0035978146 -0.031964593 -0.04245122 -0.015947275
0.025764 -0.027037991 -0.021001572 -0.043754704 0.047161777 0.04518168 -0.028766084 0.0016108528
-0.0027842298 0.008865081 -0.032493107 -0.031193955 -0.0073440894 -0.038440883 0.0055684075 -0.02556218
-0.03952209 -0.0024671964 -0.020946085 0.0206643 0.040654738 -0.02953192 -0.015623875 -0.008829154
-0.048727114 -0.048497587 0.019940127 -0.0032455437 -0.025560116 0.047779072 -0.049828637 0.044188242
-0.047736496 -0.0294406 0.027368937 -0.012655735 -0.015012275 -0.034123883 0.015273865 0.04030807
0.016294453 0.04894719 -0.039706565 -0.041177668 -0.029972423 -0.005070843 0.008737814 0.0010183454
0.005953938 -0.03233085 -0.012970757 0.004094798 0.014246967 -0.033653595 0.033999402 -0.003858894
0.018605534 0.04517718 0.02641062 0.019725602 -0.018722046 -0.03524227 0.017566662 0.040777232
0.026998904 0.004085202 0.04139671 -0.01759424 -0.02000965 -0.021766102 -0.026664907 -0.0020167232
-0.048288226 0.035433624 -0.049962223 -0.023752375 0.020050857 -0.0027820878 -0.020584513 -0.044826806
0.02967355 0.047033463 0.003794469 -0.019678771 -0.0116482675 -0.037315845 0.014297742 0.020844001
-0.010206185 -0.024578447 0.026082221 -0.0063005574 0.01843625 0.009948768 0.03405237 -0.023598958
-0.044693884 0.0036392286 -0.041996486 -0.046552278 0.0369152 -0.0040437877 0.03388388 0.022467393
0.0421866 0.009383 0.045503523 -0.020653982 -0.031257678 -0.0025430322 -0.011330299 0.029286373
-0.006744344 0.0057764836 -0.024130005 -0.038749468 0.018239174 -0.024821907 0.046318088 0.04568405
-0.043983694 -0.020839876 -0.030975372 0.049944136 -0.025635434 0.04722358 0.0396923 -0.006894607
-0.014832236 0.036713045 -0.007799834 -0.0072281472 0.009020455 -0.046614397 -0.0020253249 0.026039053
-0.020625664 -0.004910432 -0.030910462 -0.007158041 0.024891715 -0.002657257 -0.036402393 0.010996103
-0.037113767 0.043991428 0.0198082 0.004328139 -0.03910651 0.048501518 -0.048382975 -0.0020849332
-0.041181732 -0.04135462 0.012821671 0.033784185 0.017917458 0.04718787 -0.0040292665 -0.036297936
0.011498321 -0.0043489225 0.0067437366 -0.0046544 -0.04520127 -0.017834764 0.047227297 0.029125888
0.041609783 0.013519261 0.04258037 0.009095222 0.005092837 -0.006560385 -0.02057907 0.028747927
-0.03427554 -0.013850074 0.024409804 -0.004247684 -0.030695671 -0.008865178 0.020414267 -0.017112218
00000000: 25de 193d 10b9 babc e0cf 0cbc ae10 ea3c
00000010: 3a87 1ebd 58fe 013c cc9b 723c 486a 43bd
00000020: 8039 0f3c ea0b 8fbc 63b6 373d 506f 0f3b
00000030: d1e4 1a3d 12a6 b83c ba0f 9e3c 2533 42bd
00000040: d3ec 303d bb68 27bd 9e52 b23c 0a10 ba3c
00000050: 00ff aab9 696f 303d eccb 58bc e7c2 f1bc
00000060: 86e0 863c 2871 36bc 8a95 2cbd 138d 11bd
00000070: e4b6 02bd 1cdc 6b3c 9332 0fbd 1ecf ba3c
00000080: 0966 1e3d 1730 a6bc 7aa8 e73c a042 893a
00000090: 458b 023d 8096 cebb ddc7 ffbc 59da 1a3d
000000a0: 7ae0 fbbc ec43 3e3c 726d e93c 9e3e 14bd
000000b0: 3d2c 3abd fee2 e43c 0066 4abd eedb 18bd
000000c0: 468b b13c d451 89bc fd8e 103d 8001 31bc
000000d0: 28db 033c b046 e2bc 8cfd 213c 4d28 3dbd
000000e0: aebe 1bbd b057 1dbd 40d8 c03b f48a 11bc
000000f0: 05d9 4b3d 603f f53a e989 303d 0a71 f3bc
00000100: 0037 4b3c 389d 0cbc 7992 393d a2ac 883c
00000110: 50c9 6b3b 4eed 02bd 55e1 2dbd dca3 82bc
00000120: 060f d33c c77e ddbc 7d0b acbc 2238 33bd
00000130: b52c 413d 6d10 393d daa6 ebbc 4023 d33a
00000140: a077 36bb d83e 113c 7e17 05bd 778a ffbc
00000150: b0a6 f0bb 3074 1dbd 3077 b63b c767 d1bc
00000160: eae1 21bd b0b0 21bb 2097 abbc 2e48 a93c
00000170: 9585 263d edec f1bc 48fb 7fbc 28a8 10bc
00000180: 1596 47bd 68a5 46bd 7a59 a33c 30b3 54bb
00000190: 7363 d1bc fdb3 433d 1d19 4cbd bbfe 343d
000001a0: 5887 43bd 6a2d f1bc d234 e03c 005a 4fbc
000001b0: 0cf6 75bc 7cc5 0bbd 3c3f 7a3c 131a 253d
000001c0: f27b 853c d97c 483d 5aa3 22bd eaa9 28bd
000001d0: ba88 f5bc 5029 a6bb 0c29 0f3c 007a 853a
000001e0: 4019 c33b 5a6d 04bd 4c83 54bc a82d 863b
000001f0: 1c6c 693c 5ad8 09bd f542 0b3d 80e5 7cbb
00000200: a26a 983c b50b 393d 165b d83c 9697 a13c
00000210: fa5e 99bc 335a 10bd f6e7 8f3c 0706 273d
00000220: ce2c dd3c 28dd 853b 998f 293d cc21 90bc
00000230: 47eb a3bc d34e b2bc 5d70 dabc 002b 04bb
00000240: e0c9 45bd d922 113d 30a5 4cbd 5794 c2bc
00000250: b241 a43c b053 36bb daa0 a8bc 509c 37bd
00000260: f215 f33c 29a6 403d a0ac 783b 6035 a1bc
00000270: 60d8 3ebc 80d8 18bd 1441 6a3c 0ac1 aa3c
00000280: d837 27bc bd58 c9bc 62aa d53c e874 cebb
00000290: 9e07 973c 2800 233c 7f7a 0b3d 9a52 c1bc
000002a0: ef10 37bd 2080 6e3b 8204 2cbd 9aad 3ebd
000002b0: 6534 173d c081 84bb d3c9 0a3d 8a0d b83c
000002c0: dbcb 2c3d 28bb 193c e761 3a3d 8a32 a9bc
000002d0: 0d08 00bd 00a9 26bb b8a2 39bc fae9 ef3c
000002e0: a8ff dcbb a848 bd3b 4aac c5bc c3b7 1ebd
000002f0: 526a 953c 5057 cbbc 09b8 3d3d 331f 3b3d
00000300: 3f28 34bd 63b8 aabc 10c0 fdbc 3992 4c3d
00000310: 6701 d2bc 836d 413d 6594 223d 28ec e1bb
00000320: e802 73bc 6b60 163d c095 ffbb 18da ecbb
00000330: 88ca 133c bdee 3ebd 50bb 04bb da4f d53c
00000340: 27f7 a8bc b0e7 a0bb f037 fdbc 008e eabb
00000350: b6e9 cb3c 6025 2ebb ad1a 15bd 0029 343c
00000360: 9b04 18bd 5b30 343d ce44 a23c 10d3 8d3b
00000370: 262e 20bd 87a9 463d 3a2d 46bd 60a3 08bb
00000380: 2dae 28bd 7663 29bd fc11 523c 4961 0a3d
00000390: a2c7 923c 1148 413d f007 84bb 25ad 14bd
000003a0: 7463 3c3c 6881 8ebb 90fa dc3b f083 98bb
000003b0: f824 39bd 361a 92bc 6971 413d 6a99 ee3c
000003c0: 056f 2a3d e47f 5d3c c168 2e3d 2004 153c
000003d0: d0e1 a63b 80f8 d6bb 7095 a8bc c680 eb3c
000003e0: 8264 0cbd 6ceb 62bc 12f7 c73c 2830 8bbb
000003f0: 7d75 fbbc 403f 11bc d23b a73c ec2e 8cbc

fc1.bias f4 [180]
-0.014961332 -0.038135182 0.23159793 -0.21651839 -0.1434215 -0.065009244 0.30697212 -0.106329426
-0.026647538 0.25621966 -0.015731145 -0.0394106 -0.027041942 0.13187355 -0.02812109 -0.021832407
0.054000735 -0.08132489 -0.089113444 0.16277182 -0.10903828 -0.19231011 -0.020011801 -0.028323198
0.20385438 -0.039933246 -0.03423517 0.22190711 0.034235097 -0.021772688 -0.005480975 -0.029337097
-0.008428853 -0.03726651 -0.018519256 0.09582965 0.07139396 -0.065982185 -0.033643924 0.2634573
0.06404704 0.07762179 0.27552933 0.07806725 0.2946233 -0.03747507 -0.041615974 -0.039422013
-0.038458657 -0.015431829 0.20267181 -0.027062822 -0.113044925 -0.03996744 -0.006645657 -0.031939127
0.18030268 0.07973588 -0.018459551 -0.009335063 0.10071586 -0.014306217 -0.04403111 -0.0585638
-0.5117724 0.20257893 -0.006113399 0.13718677 -0.008287437 -0.026650995 -0.047098488 0.12515342
0.18219243 -0.024639536 -0.03533137 -0.030476494 -0.034072943 0.2928396 0.33631843 0.27388713
-0.015602838 -0.0112737715 -0.21812901 0.122174226 -0.034398984 -0.043133087 -0.046336807 0.057586864
-0.030714292 -0.122619234 0.3571599 -0.23645803 -0.031020766 -0.10128023 -0.06808458 -0.06159235
-0.029587453 -0.04469211 0.00315233 -0.02523309 0.096392006 0.2842946 -0.046171874 0.71473193
-0.020037591 0.19886328 0.21725054 0.0778668 -0.041846734 -0.07360606 -0.04849168 -0.034031272
-0.16158934 -0.1358455 -0.031800933 -0.0124286935 -0.056059122 -0.016420394 0.19783695 -0.16827835
-0.009325893 -0.04521377 -0.06490506 0.006085255 -0.029498084 0.19567032 -0.036602277 -0.055606272
-0.027702827 0.24138357 -0.052688327 0.30687734 -0.01376776 0.2802541 -0.008190095 -0.21604155
-0.059728436 -0.020819932 -0.012974493 -0.035421383 -0.018745475 -0.32521242 -0.012482636 -0.010625262
-0.042860042 0.11480081 -0.013070393 -0.034613505 -0.03580629 -0.024717325 0.016149225 -0.043888696
-0.0140306465 0.32800114 -0.035128463 0.08191832 -0.01617862 -0.017006338 0.11776754 -0.027798492
-0.014870904 -0.27362102 -0.06437987 0.1559213 -0.017450951 -0.015618425 -0.04257233 -0.06137932
-0.036835205 0.3025556 -0.031677682 0.22632858 -0.027181966 -0.03608485 -0.060590558 -0.029411161
-0.009163421 -0.017667584 -0.011488698 -0.057872687
00000000: 6020 75bc a333 1cbd 0228 6d3e ffb6 5dbe
00000010: 16dd 12be 9123 85bd 732b 9d3e 3ec3 d9bd
00000020: f04b dabc 392f 833e 9ade 80bc 026d 21bd
00000030: 1087 ddbc dc09 073e 335e e6bc e0d9 b2bc
00000040: e02f 5d3d aa8d a6bd 1c81 b6bd a8ad 263e
00000050: 764f dfbd f1ec 44be caef a3bc 0d06 e8bc
00000060: 34bf 503e 0b91 23bd 2d3a 0cbd 9e3b 633e
00000070: 1a3a 0c3d a35c b2bc c099 b3bb 5a54 f0bc
00000080: 2c19 0abc c5a4 18bd b2b5 97bc 5642 c43d
00000090: ff36 923d ab21 87bd 36ce 09bd e0e3 863e
000000a0: 182b 833d 2cf8 9e3d 2e12 8d3e b9e1 9f3d
000000b0: ddd8 963e 767f 19bd 8375 2abd fa78 21bd
000000c0: d386 1dbd c8d5 7cbc 3389 4f3e dab2 ddbc
000000d0: 1984 e7bd e6b4 23bd d0c3 d9bb 9ad2 02bd
000000e0: 44a1 383e 914c a33d 7c38 97bc 18f2 18bc
000000f0: 1e44 ce3d a064 6abc f759 34bd 98e0 6fbd
00000100: 8403 03bf da70 4f3e e852 c8bb b07a 0c3e
00000110: 08c8 07bc 3053 dabc 58ea 40bd 3828 003e
00000120: a790 3a3e dad8 c9bc a0b7 10bd d7a9 f9bc
00000130: 1290 0bbd 12ef 953e ee31 ac3e ef3a 8c3e
00000140: 0ca3 7fbc a0b5 38bc 365d 5fbe 7b36 fa3d
00000150: f3e5 0cbd 52ac 30bd aacb 3dbd 34e0 6b3d
00000160: 8a9c fbbc cb1f fbbd aadd b63e 0e22 72be
00000170: 431f febc 026c cfbd ee6f 8bbd 4348 7cbd
00000180: 6361 f2bc 130f 37bd 5297 4e3b a0b5 cebc
00000190: 2c69 c53d 108f 913e b81e 3dbd acf8 363f
000001a0: e025 a4bc d1a2 4b3e ed76 5e3e a178 9f3d
000001b0: 7b67 2bbd c6be 96bd 369f 46bd 6064 0bbd
000001c0: ad77 25be 151b 0bbe b241 02bd b8a1 4bbc
000001d0: 409e 65bd 1084 86bc c595 4a3e 2951 2cbe
000001e0: a1cb 18bc 1332 39bd f2ec 84bd d266 c73b
000001f0: f7a5 f1bc cd5d 483e 45ec 15bd 67c3 63bd
00000200: 0af1 e2bc 412d 773e b7cf 57bd 071f 9d3e
00000210: 2c92 61bc 777d 8f3e c02f 06bc ff39 5dbe
00000220: cea5 74bd 908e aabc f892 54bc 0316 11bd
00000230: 1c90 99bc 3e82 a6be f883 4cbc 9415 2ebc
00000240: 038e 2fbd b01c eb3d 3425 56bc e4c6 0dbd
00000250: 9ea9 12bd fd7b cabc 614b 843c a2c4 33bd
00000260: cce0 65bc c4ef a73e dde2 0fbd cbc4 a73d
00000270: 0689 84bc e050 8bbc 1c30 f13d aab9 e3bc
00000280: 18a5 73bc 0e18 8cbe 98d9 83bd d5a9 1f3e
00000290: 4cf5 8ebc 6ce4 7fbc 5360 2ebd e268 7bbd
000002a0: 83e0 16bd 91e8 9a3e 75c0 01bd aec2 673e
000002b0: b7ac debc b5cd 13bd ce2d 78bd adef f0bc
000002c0: 2c22 16bc 9cbb 90bc 183b 3cbc e90b 6dbd

fc2.weight f4 [60, 180]
0.022563927 0.0657916 4.3612924 0.4869523 0.44180903 0.2909347 0.67746943 0.111130126
-0.071129 1.0947126 -0.009565897 0.021043606 -0.07435188 0.3707399 0.0458835 -0.86500406
-0.10974992 -0.067556314 -0.3205729 -0.123660706 -0.4772611 0.6938426 0.040859 0.040534124
0.45667857 0.0054264516 -0.009260945 1.6174825 0.1646858 0.024388947 0.048223108 0.03020864
-0.03248212 0.00070402026 0.11934258 0.021117808 -0.24336104 -1.4317076 0.020477675 1.0355031
1.394741 -0.5807189 0.7157489 0.5339011 2.4993312 0.02613175 0.017842442 0.029894382
-0.010041803 -0.012613703 0.282843 0.04877872 1.1943628 0.06735327 -0.016021248 -0.0036483034
0.90309215 0.017319229 0.04103814 0.06392295 0.06726262 0.0088686645 -0.061028663 0.1755805
-0.081748925 -0.03616635 -0.04205218 0.03722075 0.020614065 0.0036484152 0.0014524311 0.6853199
-0.24311525 0.06843179 -0.07194529 -0.06331846 -0.054853283 0.5415737 -0.5407261 0.6489364
0.0016440824 -0.04771605 0.086839944 -0.19919781 -0.014148582 0.0120714605 -0.037988864 0.8275307
-0.008658066 0.6672004 -0.4625007 0.34741023 -0.0109886825 0.88667816 0.16717617 0.044966277
0.065600164 -0.03784285 -0.30081454 -0.029680107 0.6117556 1.0684766 -0.016051237 -0.8528274
0.062378343 0.10075029 0.35517 1.9248377 0.038488925 -0.20173098 0.37566346 0.030847564
-0.20216307 -1.8150536 -0.033027124 0.009863578 -0.05758034 -0.061384354 1.3806098 2.4892032
0.24782543 0.063532 0.12097511 0.32138282 -0.02647049 0.54727846 0.06503449 0.0514317
-0.033025015 -0.41976637 -0.00020285386 -0.33361906 0.06001494 -0.41143534 -0.019882478 -0.23910053
-0.110643394 0.026592843 -0.0060447827 -0.07002676 -0.034106568 0.57455134 0.016496815 -1.1844759
-0.03586253 0.7721921 -0.05635998 -0.098046325 0.059599496 0.016293034 -0.5273751 -0.015499946
0.035115123 -0.1748269 -0.006884314 0.8618417 0.030664377 0.066457786 -0.3317435 -0.064191885
-0.029027175 -0.08297264 0.09540359 0.7336201 -0.06749334 0.06264027 0.020492524 0.057066668
-0.029287126 1.17523 -0.029804535 1.4811122 0.010471985 0.042396232 -0.048851073 -0.003565967
0.04416436 0.06326767 0.014438964 0.013312768 -0.04151706 0.018671885 0.010620299 -0.10426487
-0.061286256 -0.09752021 -0.025891388 -0.11432938 0.068067886 0.017381432 0.018509135 0.066374235
-0.052461088 -0.06578332 0.04073493 -0.07695961 -0.07737678 -0.011933439 -0.13773924 -0.0418865
-0.05137637 -0.1407707 0.037350386 -0.054059193 -0.024830831 -0.068602845 -0.017245032 -0.13800953
-0.1341216 0.051739566 0.0021243244 -0.0013483241 0.06826512 0.070370995 -0.1022935 -0.12339474
-0.017482612 -0.13805068 0.018251538 0.04807457 -0.124464594 -0.04681038 0.0076714666 -0.12859745
-0.09621281 -0.041962057 -0.040924624 0.0037192851 -0.021960644 0.009564228 0.006906028 0.014559597
-0.008255542 0.056173377 -0.037186313 0.038329244 0.06076639 -0.021830374 -0.017535754 0.001756981
-0.06779314 0.05500672 0.06797209 -0.024199817 0.06875598 -0.101505764 0.07363791 -0.12507325
0.0040813386 0.058029823 0.033095315 -0.025210384 -0.122696236 0.02345375 -0.06571086 0.05504138
00000000: fcd7 b83c bfbd 863d b58f 8b40 d051 f93e
00000010: cb34 e23e 65f5 943e a36e 2d3f 3198 e33d
00000020: 15ac 91bd 8b1f 8c3f 48ba 1cbc a463 ac3c
00000030: cc45 98bd 9fd1 bd3e 56f0 3b3d e870 5dbf
00000040: 91c4 e0bd f75a 8abd 2222 a4be d341 fdbd
00000050: 915b f4be ab9f 313f c45b 273d 1c07 263d
00000060: c6d1 e93e 60d0 b13b 38bb 17bc ab09 cf3f
00000070: 65a3 283e 54cb c73c 9885 453d 1c78 f73c
00000080: f90b 05bd 008e 383a e269 f43d 41ff ac3c
00000090: a333 79be 3242 b7bf ccc0 a73c 5e8b 843f
000000a0: e086 b23f fea9 14bf 523b 373f bead 083f
000000b0: 0bf5 1f40 4012 d63c 502a 923c 10e5 f43c
000000c0: 6086 24bc b4a9 4ebc ccd0 903e 32cc 473d
000000d0: e1e0 983f 83f0 893d fe3e 83bc 6018 6fbb
000000e0: 0c31 673f 0ee1 8d3c 9c17 283d 09ea 823d
000000f0: fcc0 893d e04d 113c 31f9 79bd 60cb 333e
00000100: fb6b a7bd 2b23 14bd e83e 2cbd c974 183d
00000110: d4de a83c 401a 6f3b 805f be3a 2071 2f3f
00000120: 34f3 78be f725 8c3d 0d58 93bd 1cad 81bd
00000130: d6ad 60bd 93a4 0a3f 076d 0abf b220 263f
00000140: 407e d73a e871 43bd 24d9 b13d 83fa 4bbe
00000150: 74cf 67bc 60c7 453c 369a 1bbd 0dd9 533f
00000160: 90da 0dbc a5cd 2a3f e4cc ecbe c1df b13e
00000170: e009 34bc 57fd 623f 3b30 2b3e 8f2e 383d
00000180: 6159 863d 1b01 1bbd 5d04 9abe b223 f3bc
00000190: 049c 1c3f d7c3 883f e27d 83bc e652 5abf
000001a0: 6f80 7f3d 2b56 ce3d d8d8 b53e 1561 f63f
000001b0: 90a6 1d3d 9192 4ebe f656 c03e 08b4 fc3c
000001c0: d603 4fbe ad53 e8bf 7347 07bd d89a 213c
000001d0: 5dd9 6bbd 296e 7bbd d2b7 b03f 1b4f 1f40
000001e0: f3c5 7d3e 111d 823d ccc1 f73d 4a8c a43e
000001f0: a4d8 d8bc 711a 0c3f cd30 853d 0caa 523d
00000200: 3d45 07bd 9eeb d6be 2bb5 54b9 1ed0 aabe
00000210: 3ad2 753d a7a7 d2be 94e0 a2bc c5d6 74be
00000220: 0199 e2bd 3cd9 d93c 5013 c6bb 316a 8fbd
00000230: 54b3 0bbd cc15 133f 5424 873c e89c 97bf
00000240: 97e4 12bd 62ae 453f b9d9 66bd 83cc c8bd
00000250: 9a1e 743d f878 853c 0e02 07bf 7cf3 7dbc
00000260: e0d4 0f3d d305 33be d095 e1bb a8a1 5c3f
00000270: dc33 fb3c 051b 883d 49da a9be 0977 83bd
00000280: 66ca edbc 8fed a9bd f562 c33d 87ce 3b3f
00000290: f339 8abd 8b49 803d f0df a73c bdbe 693d
000002a0: 8eeb efbc f06d 963f a428 f4bc 1695 bd3f
000002b0: b092 2b3c aca7 2d3d 1018 48bd 00b3 69bb
000002c0: b0e5 343d 7b92 813d 6891 6c3c cc1d 5a3c
000002d0: cb0d 2abd c8f5 983c c300 2e3c d288 d5bd
000002e0: 4c07 7bbd adb8 c7bd 2d1a d4bc 8625 eabd
000002f0: 2d67 8b3d 8163 8e3c 78a0 973c 37ef 873d
00000300: 70e1 56bd 68b9 86bd acd9 263d 009d 9dbd
00000310: b877 9ebd 7984 43bc 840b 0dbe 2e91 2bbd
00000320: 0770 52bd 3226 10be b8fc 183d 2c6d 5dbd
00000330: 076a cbbc a67f 8cbd 7445 8dbc 5f52 0dbe
00000340: 2c57 09be deec 533d 4038 0b3b 40ba b0ba
00000350: 95ce 8b3d ab1e 903d 417f d1bd 62b6 fcbd
00000360: b237 8fbc 285d 0dbe 4084 953c d7e9 443d
00000370: 4be7 febd 3ebc 3fbd ed60 fb3b 0daf 03be
00000380: 390b c5bd 68e0 2bbd 94a0 27bd 40bf 733b
00000390: cfe6 b3bc 48b3 1c3c f64b e23b 608b 6e3c
000003a0: 4142 07bc 0e16 663d ad50 18bd 20ff 1c3d
000003b0: 2ee6 783d 9dd5 b2bc 24a7 8fbc 804a e63a
000003c0: 21d7 8abd ba4e 613d f334 8b3d b23e c6bc
000003d0: efcf 8c3d 41e2 cfbd 79cf 963d 3413 00be
000003e0: c0bc 853b aeb0 6d3d f48e 073d 0286 cebc
000003f0: 2a48 fbbd 1422 c03c 6a93 86bd 1273 613d

fc2.bias f4 [60]
0.3265651 -0.010020769 -0.037565324 -0.04410128 0.0012851078 0.46437785 -0.06542283 0.1792307
-0.07375751 -0.13824302 -0.09293971 -0.055009615 0.4451313 -0.08158187 0.33720088 -0.07329759
0.48471966 -0.3021604 0.6439654 0.37959126 -0.10358496 0.02829648 -0.01800549 -0.17845345
-0.3231652 -0.05580763 -0.071328245 0.37831542 -0.111259125 -0.12764241 -0.059386086 -0.12266054
-0.16685684 -0.11086702 -0.05715273 -0.17886445 0.009296565 -0.05321267 0.31507933 0.27716774
-0.053984597 -0.13208285 -0.004418344 0.14491193 -0.3206924 -0.09400611 0.0038893523 -0.044308808
-0.08648762 0.17524004 0.5468661 -0.053578157 -0.1485006 0.5184789 0.043538626 -0.10202574
-0.2904201 0.44197232 -0.05727183 -0.0012547106
00000000: 8a33 a73e 272e 24bc 19de 19bd 8ba3 34bd
00000010: 1071 a83a efc2 ed3e 68fc 85bd 4188 373e
00000020: 2d0e 97bd 948f 0dbe 2d57 bebd c351 61bd
00000030: 40e8 e33e 6514 a7bd 98a5 ac3e 0c1d 96bd
00000040: 2d2d f83e c5b4 9abe ebda 243f c959 c23e
00000050: 5a24 d4bd 05ce e73c 4080 93bc 80bc 36be
00000060: e975 a5be 8b96 64bd 8b14 92bd 8fb2 c13e
00000070: d3db e3bd b1b4 02be d33e 73bd 7335 fbbd
00000080: 85dc 2abe 400e e3bd fb18 6abd 3e28 37be
00000090: 9f50 183c 87f5 59bd 1452 a13e eee8 8d3e
000000a0: f41e 5dbd ba40 07be c1c7 90bb cb63 143e
000000b0: cb31 a4be 4786 c0bd 81e4 7e3b 277d 35bd
000000c0: 6c20 b1bd 2072 333e 6bff 0b3f c574 5bbd
000000d0: 8b10 18be 08bb 043f 8f55 323d dff2 d0bd
000000e0: f1b1 94be 324a e23e de95 6abd 1a75 a4ba

out.weight f4 [10, 60]
-2.9608135 0.07324835 0.09011059 -0.03938641 -0.054847028 0.26867455 0.036050957 1.0975976
-0.76662207 0.8869315 -0.09931857 0.039574582 -2.3996298 -0.12811293 -1.9212396 0.03554125
0.2192751 0.30270875 0.53792316 0.11601381 0.048943225 0.0647012 -0.007004401 -0.11387519
-0.021539733 -0.21209277 -0.026310444 0.25645715 0.019646583 0.022448638 -0.049918793 0.15580802
0.062219087 -0.063181765 0.028885737 0.46545836 0.032304008 -0.019727927 1.0913265 -1.2938871
0.10042314 -0.5035832 -0.06337891 0.013868636 -0.027903903 0.505839 -0.3129255 0.16080947
-0.09418033 -0.0076547903 0.16967028 0.043193057 -0.025376534 0.2527085 -0.7361601 -0.058383085
0.25935158 0.33151466 0.020828046 0.30157614 0.17560335 -0.018223822 -0.050559677 -0.026680863
-0.06429588 -2.3759518 -0.083619125 0.8221879 1.3119675 0.3121048 -0.1564625 0.079186626
0.27900413 0.16711886 -0.067895755 0.08823677 -1.4037843 0.28045386 -0.0102049215 0.28899118
-0.046153527 -3.7131498 -0.052363016 0.06735537 0.030813605 -0.19259769 -0.07666003 -1.0463835
-0.05970679 -0.030137738 0.024429785 -0.05476607 -0.05680715 -0.118463464 0.07332483 0.2948675
0.027450176 0.07175852 -0.1923669 0.35639623 0.07982154 0.77021945 -0.019624488 0.6037383
-0.03356979 0.10916628 -0.78102106 0.053863145 -0.07083197 -1.1063834 -1.5090498 3.9470266e-05
0.033609822 -0.9608928 0.8855862 0.06536885 0.16103299 0.0122944135 -0.037548944 0.56365705
0.05580909 0.017630845 0.05567116 0.047114532 0.051944442 0.78086996 -0.17113404 0.053771015
-0.2411862 0.056873694 -0.16079257 0.041343156 2.460071 -0.044929568 -0.14877878 -0.0048194695
0.6662922 -1.1789628 0.529173 0.4304772 -0.03263857 0.26177233 0.013870543 0.105257615
-0.03211372 -0.041040976 0.09827803 0.458211 -0.1068479 -0.109936416 -0.18149863 0.074915685
-0.123410575 0.0720039 0.11870207 -0.41429564 -0.03346005 0.0603994 -3.2631204 -5.356026
0.10329423 -3.4646022 -0.0077493894 -4.715033 0.04072531 -0.11521675 -0.3212944 -0.11349892
-0.17158507 -0.7515387 0.62070704 -0.040263016 0.034675747 -1.1994009 -1.8863896 -0.012320981
0.070556626 0.19253302 0.15281965 -0.3473494 -1.3905082 -0.14045586 -0.16970794 -0.014184404
-0.052157737 0.68297106 -0.11474977 -1.276005 -0.23824385 -0.9913894 -0.14367257 -0.020311488
-0.11017078 0.015221672 -0.3979645 0.08904412 0.6071011 -2.3074963 0.24690552 -1.2588575
0.038277745 0.050348647 0.04694896 -0.082551904 0.07006644 -0.23638761 0.023524895 0.74589235
-0.049454443 0.019007789 -0.057503898 -0.07230331 0.13668546 -0.040620744 -0.044403635 -2.1541784
-0.16612948 -0.1654013 0.42212903 -1.8172114 0.028316652 -1.0901489 -0.15686245 -1.1300851
-0.008778725 -1.274309 -0.23248479 -0.0110265715 -0.11438152 1.6191609 0.54395187 -0.010930662
-0.049882244 -1.6834608 -0.07594402 -0.14322193 -0.07109612 -0.23602386 -0.007493282 -2.972365
0.092121825 -0.035541054 0.013424799 -0.012463479 -0.20181596 -3.4785337 0.063505225 -0.97215635
-0.53779185 -3.8489933 0.039657544 -0.013994374 0.36616313 -0.02015179 0.18856086 0.031242624
00000000: f87d 3dc0 3b03 963d e78b b83d a553 21bd
00000010: 47a7 60bd b68f 893e 2baa 133d 147e 8c3f
00000020: 5841 44bf f10d 633f 8967 cbbd f518 223d
00000030: 8993 19c0 0930 03be 2eeb f5bf b493 113d
00000040: a789 603e a4fc 9a3e 55b5 093f a698 ed3d
00000050: b178 483d 1082 843d 2d85 e5bb 6537 e9bd
00000060: 1874 b0bc d92e 59be 0089 d7bc 5a4e 833e
00000070: dff1 a03c 35e6 b73c a677 4cbd 238c 1f3e
00000080: 71d9 7e3d 7165 81bd c8a1 ec3c 8f50 ee3e
00000090: 3551 043d 769c a1bc 96b0 8b3f 189e a5bf
000000a0: a6aa cd3d d4ea 00bf cdcc 81bd 4739 633c
000000b0: ba96 e4bc aa7e 013f c537 a0be 3dab 243e
000000c0: 9ee1 c0bd 09d5 fabb 0cbe 2d3e 34eb 303d
000000d0: 73e2 cfbc 0263 813e fd74 3cbf 1a23 6fbd
000000e0: bbc9 843e 4abc a93e 949f aa3c 3068 9a3e
000000f0: 5dd1 333e 204a 95bc aa17 4fbd d391 dabc
00000100: 8fad 83bd 980f 18c0 8140 abbd e87a 523f
00000110: 8dee a73f 33cc 9f3e b537 20be 992c a23d
00000120: a1d9 8e3e 3521 2b3e ee0c 8bbd 7bb5 b43d
00000130: 34af b3bf a697 8f3e 8b32 27bc a7f6 933e
00000140: 7b0b 3dbd 3fa4 6dc0 9a7a 56bd 9df1 893d
00000150: d06c fc3c 5438 45be efff 9cbd e5ef 85bf
00000160: 1b8f 74bd 6be3 f6bc f920 c83c 6352 60bd
00000170: 9dae 68bd f99c f2bd 542b 963d dff8 963e
00000180: 31df e03c 22f6 923d d4fb 44be 9179 b63e
00000190: 7a79 a33d 1a2d 453f 89c3 a0bc 988e 1a3f
000001a0: 7a80 09bd 9292 df3d fff0 47bf 9a9f 5c3d
000001b0: 5a10 91bd f99d 8dbf 8b28 c1bf e08c 2538
000001c0: 74aa 093d 12fd 75bf c7b5 623f 1be0 853d
000001d0: d5e5 243e 826e 493c eccc 19bd d44b 103f
000001e0: 1398 643d 906e 903c 7107 643d 2bfb 403d
000001f0: b2c3 543d 18e7 473f c33d 2fbe ff3e 5c3d
00000200: 84f9 76be 64f4 683d cfa6 24be 7157 293d
00000210: ce71 1d40 1108 38bd 7759 18be a4ec 9dbb
00000220: 2092 2a3f 41e8 96bf e277 073f 8267 dc3e
00000230: 05b0 05bd 0607 863e 4641 633c 4e91 d73d
00000240: ad89 03bd 951a 28bd fe45 c93d a29a ea3e
00000250: 12d3 dabd 5826 e1bd c7da 39be 656d 993d
00000260: afbe fcbd c876 933d 121a f33d 8f1e d4be
00000270: 680d 09bd 5c65 773d f7d6 50c0 9164 abc0
00000280: ed8b d33d 0bbc 5dc0 97ee fdbb 8de1 96c0
00000290: 95cf 263d c2f6 ebbd b380 a4be 1f72 e8bd
000002a0: ffb3 2fbe d764 40bf a8e6 1e3f d5ea 24bd
000002b0: 2808 0e3d f885 99bf 3775 f1bf f1dd 49bc
000002c0: fe7f 903d 6027 453e c17c 1c3e c8d7 b1be
000002d0: 2cfc b1bf a9d3 0fbe ebc7 2dbe b465 68bc
000002e0: 5aa3 55bd 31d7 2e3f ed01 ebbd 2254 a3bf
000002f0: 32f6 73be b2cb 7dbf e71e 13be 4764 a6bc
00000300: 38a1 e1bd 5264 793c 01c2 cbbe c35c b63d
00000310: fa6a 1b3f 05ae 13c0 cdd4 7c3e 3e22 a1bf
00000320: 20c9 1c3d 623a 4e3d 8d4d 403d f910 a9bd
00000330: fe7e 8f3d 980f 72be 48b7 c03c cdf2 3e3f
00000340: be90 4abd 39b6 9b3c 3589 6bbd c213 94bd
00000350: 46f7 0b3e f061 26bd 96e0 35bd 0fde 09c0
00000360: d91d 2abe f55e 29be 4c21 d83e 629a e8bf
00000370: 53f8 e73c 008a 8bbf 8da0 20be a1a6 90bf
00000380: a4d4 0fbc 8f1c a3bf 7e10 6ebe cba8 34bc
00000390: dc40 eabd aa40 cf3f 6e40 0b3f 8516 33bc
000003a0: 5351 4cbd a57b d7bf 8a88 9bbd c5a8 12be
000003b0: d89a 91bd 3db0 71be 358a f5bb 3a3b 3ec0
000003c0: 5eaa bc3d 7f93 11bd b0f3 5b3c 9f33 4cbc
000003d0: d8a8 4ebe 4ca0 5ec0 070f 823d 3ddf 78bf
000003e0: baac 09bf e855 76c0 f36f 223d a948 65bc
000003f0: bc79 bb3e 5e15 a5bc 1916 413e 88f0 ff3c

out.bias f4 [10]
-0.31680164 -0.3314198 0.22581182 0.36929873 0.43587378 -0.30600634 -0.362122 0.745748
0.07903341 -0.49048924
00000000: d333 a2be dbaf a9be 373b 673e b914 bd3e
00000010: d92a df3e ddac 9cbe 0e68 b9be 57e9 3e3f
00000020: 45dc a13d 6821 fbbe
