Machine_Learning/Final/MLPW9.pt (torch, 220951 bytes, 6 tensors)

fc1.weight f4 [150, 300]
000000 d2 ab 31 3d ea 9b d7 bc 80 98 22 bc 38 23 07 3d
       0.04337675 -0.026319463 -0.009924054 0.03299257
000010 78 0d 37 bd 88 1a 16 3c f4 11 8c 3c 5f a5 61 bd
       -0.04469058 0.009161599 0.017098404 -0.05508935
000020 a8 61 25 3c 08 2d a5 bc 04 22 54 3d d0 9f 25 3b
       0.010094084 -0.020163074 0.051790252 0.0025272258
000030 22 db 32 3d c4 36 d5 3c 7c 83 b6 3c 1a 3e 60 bd
       0.043666013 0.02602709 0.022279494 -0.054746725
000040 a6 4b 4c 3d b0 4e 41 bd c8 e8 cd 3c bc d8 d6 3c
       0.04987683 -0.047194183 0.025135413 0.026226394
000050 00 73 c5 b9 d6 ba 4b 3d cc 55 7a bc ba 94 0b bd
       -0.0003766045 0.049738728 -0.015279245 -0.034077384
000060 1c be 9b 3c 74 aa 52 bc 72 48 47 bd 62 11 28 bd
       0.01901155 -0.012858022 -0.048653074 -0.041032203
000070 9d ef 16 bd 78 2c 88 3c ad 59 25 bd 60 b5 d7 3c
       -0.036849607 0.016622767 -0.040368725 0.026331604
000080 24 e7 36 3d ae e5 bf bc 74 bf 05 3d 80 7e 9e 3a
       0.044654027 -0.02342495 0.032653287 0.0012092143
000090 40 bd 16 3d 10 8c ee bb d1 ac 13 bd 0a cf 32 3d
       0.036801577 -0.0072798803 -0.036053482 0.04365448
0000a0 d2 6b 11 bd 10 b3 5b 3c fa c4 06 3d 9a 2d 2b bd
       -0.035503216 0.013409391 0.032902695 -0.041791536
0000b0 4d f9 56 bd d4 25 04 3d a7 b5 69 bd a9 81 30 bd
       -0.052483846 0.03226264 -0.057058003 -0.043092404
0000c0 9c 02 cd 3c 24 90 9e bc fc eb 26 3d 84 63 4c bc
       0.025025658 -0.019355841 0.040752396 -0.012474898
0000d0 18 41 18 3c fd a3 02 bd e8 0c 3b 3c 90 6b 5a bd
       0.009292863 -0.031894673 0.011416651 -0.053325236
0000e0 b2 d6 33 bd fa ae 35 bd 90 ad de 3b ec 0e 28 bc
       -0.04390592 -0.044356324 0.0067955926 -0.010257464
0000f0 12 62 6b 3d 00 98 0d 3b 70 d9 4b 3d 11 8d 0c bd
       0.057466574 0.0021605492 0.04976791 -0.03431422
000100 00 a7 6a 3c 04 5e 22 bc be 47 56 3d 64 d1 9d 3c
       0.014322042 -0.00991011 0.052314512 0.019264884
000110 a0 21 88 3b 74 2e 17 bd 91 c7 48 bd a6 d9 96 bc
       0.004154399 -0.036909536 -0.049018446 -0.01841433
000120 a8 b5 f3 3c b9 c2 ff bc 0a a9 c6 bc d0 f1 4e bd
       0.029749706 -0.03122078 -0.024250526 -0.05052358
000130 10 0f 5f 3d 96 b1 55 3d b9 0d 08 bd 00 cd f3 3a
       0.054457724 0.052171312 -0.033216212 0.0018600523
000140 f0 b1 52 bb 10 b7 27 3c 5f ae 19 bd 5e 89 13 bd
       -0.0032149516 0.010236517 -0.03751981 -0.036019675
000150 a4 f0 0a bc e2 cf 35 bd 70 b1 d2 3b ed cc f1 bc
       -0.008480225 -0.044387706 0.0064298436 -0.029516662
000160 00 ed 3a bd 30 b4 3a bb ac 22 c6 bc 4c 78 c3 3c
       -0.045636177 -0.0028488748 -0.024186455 0.023861073
000170 66 48 40 3d fe ac 0b bd 80 ca 93 bc 0c 09 27 bc
       0.046944045 -0.034100525 -0.018040895 -0.010195028
000180 5d 76 66 bd 74 60 65 bd a8 9e bc 3c d0 9a 75 bb
       -0.056265224 -0.056000188 0.023024872 -0.0037476309
000190 ee c7 f1 bc 7c fa 61 3d 14 ac 6b bd bc fe 50 3d
       -0.02951428 0.05517052 -0.057537153 0.051024184
0001a0 ee c6 61 bd 6c 3e 0b bd 10 72 01 3d d0 6d 6f bc
       -0.055121355 -0.033995077 0.03160292 -0.014613584
0001b0 78 01 8e bc e5 64 21 bd ec 7a 90 3c a8 a4 3e 3d
       -0.017334685 -0.03940286 0.017636739 0.046543747
0001c0 5c 22 9a 3c d2 80 67 3d 5c cc 3b bd 8f c1 42 bd
       0.018815212 0.056519337 -0.04584919 -0.047547873
0001d0 58 c2 0d bd d8 dd bf bb b0 4e 25 3c 20 20 9a 3a
       -0.03460917 -0.0058553033 0.010089561 0.0011758842
0001e0 d0 47 e1 3b e8 e9 18 bd 84 63 75 bc 90 ef 9a 3b
       0.006875016 -0.037332445 -0.01497734 0.004728265
0001f0 34 c4 86 3c 7a 2b 1f bd 2e ce 20 3d 88 02 92 bb
       0.016450979 -0.03885982 0.03925913 -0.004455868
000200 d4 fe af 3c 22 ac 55 3d 80 d3 f9 3c 2c 97 ba 3c
       0.021483816 0.05216611 0.030496359 0.022777162
000210 fa 18 b1 bc 08 af 26 bd 20 2b a6 3c b6 dc 40 3d
       -0.021618355 -0.040694267 0.020284235 0.047085486
000220 10 64 ff 3c 98 92 9a 3b c8 ca 43 3d e8 6d a6 bc
       0.031175643 0.0047171824 0.04780081 -0.02031608
000230 04 47 bd bc 6a e4 cd bc 46 3b fc bc 50 9d 18 bb
       -0.023105152 -0.02513333 -0.030789983 -0.0023287125
000240 f6 62 64 bd ba 96 27 3d d2 4d 6c bd 55 ae e0 bc
       -0.05575844 0.04091523 -0.057691403 -0.027426878
000250 d0 aa bd 3c 70 88 52 bb 18 b7 c2 bc e7 03 54 bd
       0.023152739 -0.003212478 -0.023768947 -0.051761534
000260 7a 58 0c 3d b4 73 5e 3d 78 92 8f 3b c4 25 ba bc
       0.034264065 0.05430956 0.004381474 -0.022723086
000270 7c 5e 5c bc b3 7d 30 bd 28 3f 87 3c 78 2b c5 3c
       -0.013450261 -0.043088626 0.016509607 0.02406858
000280 40 16 41 bc bc 7e e8 bc 40 b8 f6 3c 48 65 ee bb
       -0.01178509 -0.028380744 0.030117154 -0.0072752573
000290 e4 64 ae 3c 88 37 3c 3c 4e 0e 21 3d d2 3a df bc
       0.021288343 0.011487849 0.039320283 -0.027249727
0002a0 f6 62 53 bd c0 b2 89 3b fa a0 46 bd 17 2d 5c bd
       -0.05160805 0.004202217 -0.048493363 -0.05375394
0002b0 9a 98 2e 3d 78 01 99 bb 4e 42 20 3d a4 86 d4 3c
       0.042626 -0.0046693645 0.039125733 0.025943108
0002c0 2a 87 47 3d 68 83 31 3c 44 37 57 3d 52 5f c3 bc
       0.048712887 0.010834552 0.05254294 -0.023849163
0002d0 86 d6 13 bd 50 71 40 bb 84 5a 56 bc b0 83 0a 3d
       -0.036093257 -0.0029364415 -0.013083104 0.033816993
0002e0 f0 2f ff bb f0 90 da 3b cc 40 e4 bc 84 45 37 bd
       -0.007787697 0.00667011 -0.027862929 -0.04474403
0002f0 ac 87 ac 3c 4c cc ea bc 8a 11 5b 3d da 11 58 3d
       0.021060787 -0.02866187 0.053483523 0.0527514
000300 12 07 50 bd 7a 21 c5 bc b6 80 12 bd ee 37 6c 3d
       -0.050787993 -0.024063814 -0.03576728 0.057670526
000310 51 7e f2 bc e6 59 5f 3d 18 bb 3b 3d b8 6f 02 bc
       -0.029601248 0.054529093 0.045832723 -0.007961206
000320 7a 4d 8c bc d6 a3 2d 3d e4 8f 13 bc 1c bf 08 bc
       -0.017126787 0.042392574 -0.009006474 -0.008346345
000330 88 a7 2a 3c 4e 78 5c bd f0 43 19 bb b8 4f f6 3c
       0.010415919 -0.05382567 -0.0023386441 0.03006731
000340 be 1a c3 bc 10 cc b9 bb 1e 32 12 bd 94 6b 07 bc
       -0.023816463 -0.005670078 -0.035692327 -0.008265395
000350 58 75 eb 3c 30 16 49 bb b2 2b 2c bd f0 07 50 3c
       0.028742477 -0.003068339 -0.04203386 0.012697205
000360 06 89 2f bd 70 10 50 3d 30 5f bb 3c c0 c3 a3 3b
       -0.042855285 0.050796926 0.022872537 0.0049977005
000370 d2 f5 38 bd 36 65 65 3d ae d5 64 bd c0 c6 1d bb
       -0.045156308 0.056004725 -0.055867843 -0.0024074763
000380 7b c6 42 bd d0 97 43 bd 78 91 72 3c 9a c9 1f 3d
       -0.047552567 -0.0477522 0.01480519 0.03901062
000390 9c 7c a9 3c a8 2e 5f 3d d0 74 98 bb 39 ad 2b bd
       0.020689301 0.054487854 -0.004652597 -0.041913245
0003a0 40 88 59 3c 18 8d a4 bb 10 2a ff 3b 10 1c b0 bb
       0.013277113 -0.0050217025 0.0077869967 -0.005374439
0003b0 4e c9 55 bd 5a b4 a8 bc 66 5e 5f 3d 5e c1 09 3d
       -0.052193932 -0.02059381 0.054533385 0.033631675
0003c0 c2 cc 44 3d 00 c4 7f 3c f2 63 49 3d a8 11 2c 3c
       0.048046835 0.015610695 0.04916758 0.010502256
0003d0 e0 b2 c0 3b 10 3a f8 bb ea a9 c2 bc be f7 07 3d
       0.0058806986 -0.007575281 -0.023762662 0.03319525
0003e0 86 1c 22 bd 1a 03 83 bc 58 e6 e6 3c 78 b8 a0 bb
       -0.039577983 -0.01599269 0.028186008 -0.004904803
0003f0 0c 2e 11 bd 84 b7 27 bc d8 1a c1 3c a6 de a1 bc
       -0.035444304 -0.010236625 0.02357237 -0.019759487

fc1.bias f4 [150]
000000 55 ae 4e bd d4 c9 41 bc 04 87 e0 bc 92 88 65 3c
       -0.050459225 -0.011827905 -0.02740813 0.014009612
000010 f1 55 54 3d bf c9 20 bd e2 8f 0b bd df ed 53 bd
       0.051839773 -0.0392549 -0.034072764 -0.051740523
000020 a2 2c da 3d 33 c2 60 3e 54 1b 19 3e e2 52 69 3e
       0.10653044 0.21949081 0.14951831 0.22785524
000030 63 f5 2d bc b2 cd 85 3a cd 18 81 bd 6d 48 47 be
       -0.010617587 0.0010208397 -0.063035585 -0.19461222
000040 fc 1c 15 bc 16 fb 5e bd de 33 5a be 86 14 84 3e
       -0.009101149 -0.054438673 -0.21308848 0.25796908
000050 ae 92 b3 bc 04 7b 78 bc a2 c2 6c bd c8 72 e9 bc
       -0.021920528 -0.015166048 -0.057802804 -0.028497115
000060 6b 80 38 bd 8d 74 5c 3e e0 e6 7e bc f1 51 36 bd
       -0.045044344 0.21528836 -0.015557975 -0.04451174
000070 54 0a 47 bc b3 bd 78 bd 74 1d 0b bd 28 ab f4 bb
       -0.0121484585 -0.060727786 -0.033963636 -0.0074666925
000080 de a9 3b bd 5c ba 1e bd 41 a2 4b bd 63 a2 74 be
       -0.045816295 -0.038751945 -0.049715284 -0.2389007
000090 d3 29 81 3e d9 22 05 bd e8 1c 2d 3e 3d 96 32 bd
       0.25227222 -0.032503936 0.16905558 -0.04360031
0000a0 3c b4 91 be e4 b1 86 3d d4 80 9e bc e0 32 ff bc
       -0.2845782 0.06576899 -0.01934854 -0.031152189
0000b0 e4 46 a7 bc f6 41 c7 bc 6a 7d 62 3e 4c 63 39 be
       -0.020419545 -0.024323445 0.22118154 -0.18104285
0000c0 7a 21 eb 3d 1b e4 03 3e 45 71 ee 3e 0c e0 4e 3e
       0.114809945 0.12879984 0.46570793 0.20202655
0000d0 07 bd e9 bc 0b fd 7f 3e f2 dc 6a bd 51 a8 38 be
       -0.028532518 0.24998872 -0.057339616 -0.18032958
0000e0 d7 bc 8c 3e 58 45 f3 bc ae fe af bc 07 d0 f5 3e
       0.27487823 -0.029696152 -0.021483745 0.48010275
0000f0 f7 82 22 bd 29 ef a0 3e 26 99 07 bd b9 cb 53 bd
       -0.03967568 0.31432465 -0.033105038 -0.051707957
000100 0c b7 03 bc 31 ad bb 3d 88 92 97 bd ec 5e 25 bd
       -0.008039247 0.09163893 -0.074009955 -0.040373728
000110 05 92 2b 3e 1d d2 62 3e a0 2c 85 bd 0c ae d6 bc
       0.16754921 0.22150464 -0.06502652 -0.026206039
000120 e9 eb 05 be 14 0f 39 bc 80 31 48 bd b4 19 20 bd
       -0.13078274 -0.011295099 -0.048875332 -0.039087012
000130 4d f9 89 be 52 4f d4 be 98 d1 61 bc 6a 7e 29 bd
       -0.26948014 -0.41466767 -0.013782881 -0.041380323
000140 83 76 ae 3e 10 6c be bc a7 e2 3c 3e a4 0b d7 3d
       0.34074792 -0.023244888 0.18445836 0.10500267
000150 96 f4 48 be fd ec 14 3e ad 6d 95 3e e4 ab 63 bd
       -0.19624552 0.14543529 0.29185238 -0.05558385
000160 b5 27 4d bd 3c fa 6b bd e4 90 d0 3e 95 e0 8d 3e
       -0.050086696 -0.05761169 0.40735543 0.27710405
000170 7b b6 eb 3d fc bf 1a bd 64 e2 60 be 1c e6 5a bc
       0.11509415 -0.037780747 -0.21961361 -0.013360526
000180 ba d8 1c bd ef 9e 46 bd 74 24 06 bd 21 6c cd 3d
       -0.038292624 -0.048491415 -0.03274961 0.100303896
000190 a6 a6 a0 bc e6 ba b3 3e 8e d3 af bc c7 2c f8 bc
       -0.019610714 0.3510353 -0.021463182 -0.030294789
0001a0 a8 f8 69 bc 4a 17 2b bd ab dc c2 3e 8c aa 63 bd
       -0.014280476 -0.041770257 0.3805898 -0.055582568
0001b0 10 3d e2 bb 89 c3 38 be fa 2c b0 3e 3e 16 2c bd
       -0.006904252 -0.1804334 0.34409314 -0.0420134
0001c0 39 5e a2 3e ed 92 3a 3e 46 eb a4 3e 56 0b a8 bc
       0.3171251 0.1822011 0.3221075 -0.020513218
0001d0 4e fa 0c bd 21 b7 7f bd 2a f4 6b bd 84 7d 20 bc
       -0.034418397 -0.062430505 -0.0576059 -0.00979555
0001e0 1f 0d 0a 3e ee f0 1a bd fa 61 b8 bc 08 b6 25 3e
       0.13481568 -0.037827425 -0.022507656 0.1618272
0001f0 7c f1 49 bd d8 16 96 bc 83 ee 99 be 07 34 67 bd
       -0.049302563 -0.01832144 -0.30064783 -0.0564461
000200 a6 ab b7 3d 30 09 74 bc bd 4a 3c bd 2d 3a ce bd
       0.08968286 -0.014894769 -0.045969713 -0.1006969
000210 63 85 cf bd 8a a8 b5 3e 29 73 cc bd f3 73 6e be
       -0.101328634 0.35480148 -0.099829026 -0.23286419
000220 bc 56 69 bc 0e 88 c1 bc 36 84 a0 bc be 85 6c 3e
       -0.0142418705 -0.023624446 -0.019594293 0.23097894
000230 38 30 37 3e 6a 59 dd bc 33 22 04 bb a6 9e 59 bd
       0.17889488 -0.027020175 -0.0020161986 -0.053129815
000240 a8 bb 96 bc 99 d7 87 bd a1 a3 d4 3d 77 b7 37 bd
       -0.018400028 -0.06632919 0.10382772 -0.0448527
000250 fa ff 06 bd 78 8f 58 be
       -0.032958962 -0.21148479

fc2.weight f4 [60, 150]
000000 03 89 a3 bd 10 fa e5 3c a0 7d c3 3c db e9 b6 3c
       -0.07985117 0.02807334 0.023863614 0.022328308
000010 a1 cb 92 ba b8 70 e1 bc fc 32 8a bc 14 fc 5d 3d
       -0.0011199602 -0.027519569 -0.016870014 0.05419548
000020 30 67 06 bd d3 e7 b9 bc cf 7e 22 bd ac 0d d8 bd
       -0.03281325 -0.02269355 -0.039671715 -0.10549483
000030 d6 e5 c5 bd 73 76 e4 3b 68 7d 0c bc 42 8c a4 bd
       -0.09662978 0.006972128 -0.008574821 -0.080345646
000040 c8 fb 88 bd 23 bd 76 bd de 63 3c 3b b6 c9 bc bc
       -0.066886485 -0.06023897 0.002874605 -0.023045402
000050 c6 32 1b 3d a0 c1 20 bd 44 5e 8c bd 60 c7 85 bd
       0.03789022 -0.039247155 -0.06853917 -0.065321684
000060 a9 88 a4 bd 99 ef e9 bd c4 5b b6 bc 91 ac 2c bd
       -0.08033878 -0.11422653 -0.022260554 -0.04215676
000070 dc e6 45 3d 1c 3b 9a 3c 9c 65 44 3d 5f 65 96 bd
       0.048315868 0.018827014 0.047948465 -0.07343554
000080 3d b0 9e bd 3c 57 3a bd c0 9b f2 3c 2e 32 c7 3c
       -0.077484585 -0.04549335 0.029615283 0.02431592
000090 0d f8 dd bd 44 84 d2 3c 63 d1 0f bc 72 22 90 3d
       -0.108383276 0.025697835 -0.008777949 0.0703782
0000a0 26 ed 1b bc a0 2d c7 3c 80 bb b0 3a 85 8b 1b bd
       -0.00951699 0.024313748 0.0013483614 -0.037974853
0000b0 f8 87 3d 3d 04 6e 25 bd 9e 1a 83 bd 70 35 a5 bb
       0.046272248 -0.040388122 -0.06401561 -0.0050417706
0000c0 9e 00 05 be cc a7 98 bd 6b a6 16 3c c5 27 a1 3b
       -0.12988517 -0.0745388 0.009194951 0.004918071
0000d0 72 86 89 3d 1f 34 93 bd a6 93 03 3d 4d 01 1f bd
       0.067150965 -0.07187676 0.03212323 -0.0388196
0000e0 4a 0c fa bd 58 60 31 3d 6c 4d 53 bd cd e5 45 bd
       -0.12209375 0.04330477 -0.051587507 -0.04831486
0000f0 50 fb dc 3b a1 80 04 be 0f b9 39 bd 84 91 b3 bc
       0.006743826 -0.12939693 -0.0453425 -0.021919973
000100 2a fb 58 bd 31 1b e8 bd d0 1d b5 bb e8 67 51 3d
       -0.052973904 -0.11333311 -0.0055272356 0.051124483
000110 d2 6c c9 bc b8 54 1d 3c 42 c6 a9 3c 0e c6 85 3d
       -0.024588022 0.009602718 0.02072442 0.065319166
000120 2d 66 1c bc 7c d0 17 3d 2c 9b ee 3c ba 71 e0 bc
       -0.009545845 0.03706406 0.029126726 -0.027397979
000130 5a 0b e5 3c 60 29 12 bd 94 a1 81 bd 21 de 95 bd
       0.027959514 -0.03568399 -0.06329647 -0.07317758
000140 7b c1 93 bd c8 3f 01 3d 22 72 a3 bd 8f 79 01 be
       -0.07214638 0.031554967 -0.079807535 -0.12644027
000150 09 29 b0 bd 06 49 0f bd 91 c1 02 be 7c 76 b6 3c
       -0.08601577 -0.03498175 -0.12769152 0.022273295
000160 2a 69 e9 bd ea 43 98 bd 5c ac 5e bd 90 7f 18 bd
       -0.113970116 -0.074348286 -0.054363593 -0.037231028
000170 2d 59 9b 3c 6f f5 0f bd f1 1d 29 3c 7c 8f 58 3d
       0.01896342 -0.035146173 0.01032208 0.052871212
000180 28 8c e3 bc a0 f2 d6 bb 5c 38 84 3d ed 5f 7e bc
       -0.027776793 -0.006559685 0.06456062 -0.0155258
000190 0c 55 7a 3d e6 92 5b 3c 98 b5 4a bd 7a b9 91 bd
       0.061116263 0.013401723 -0.049489588 -0.07115455
0001a0 29 5f 86 bd b3 b5 8b bc cb 88 4c bd d0 96 04 3c
       -0.06561119 -0.017054414 -0.049935143 0.008092597
0001b0 98 c1 29 3c 8e 14 25 bc f4 42 af bd 40 b7 b7 bb
       0.010361098 -0.010075701 -0.08557692 -0.005606562
0001c0 ff fe f7 bd 66 7d 84 bc 3d 7a e0 bd 27 74 69 bd
       -0.121091835 -0.016173076 -0.10960815 -0.056995537
0001d0 f4 66 95 3d cb d0 25 bd a0 3c f3 3c 68 ee e2 bc
       0.072950274 -0.040482324 0.029691994 -0.027701572
0001e0 4e 2e 89 bc db e4 d2 bd a8 70 24 bc 24 16 91 bd
       -0.016745713 -0.10297557 -0.010036625 -0.07084301
0001f0 bc 32 8b 3d 16 e5 6e bd 73 e6 f1 bc 12 e6 92 bd
       0.06796786 -0.058323942 -0.029528832 -0.07172789
000200 96 72 da bd 60 4f 9d bd d4 4f 07 3d 86 dc ad bd
       -0.10666387 -0.07681155 0.033035114 -0.08489327
000210 64 f2 88 3b ac d0 04 bc 3d 34 83 3a 36 21 c8 bd
       0.004179286 -0.008106392 0.0010010075 -0.097719595
000220 a8 c1 71 3c d3 0c a2 bd 98 de df bc d6 23 fb bc
       0.014755644 -0.07912602 -0.02732782 -0.030656736
000230 0c 29 50 bd 40 12 4d bb 91 f0 88 3c 50 e8 84 3b
       -0.050820395 -0.0031291395 0.016716274 0.004056014
000240 02 c5 c6 bc a8 39 d0 3c f7 db 98 3c 20 68 ba bb
       -0.024263863 0.025418118 0.018659575 -0.005688682
000250 80 ca 26 bb 51 61 81 3c e5 3b 8e bd 3c 35 95 3d
       -0.002545029 0.015793474 -0.06945018 0.07285544
000260 ba ed a5 3d a5 84 ba 3c a3 8e 8d 3b e8 c0 f1 3c
       0.08101983 0.022768328 0.004319982 0.02951093
000270 ac fb 94 3d d0 d4 11 bc d9 6a e4 bd 63 48 9c 3c
       0.07274565 -0.008900836 -0.11153192 0.019077485
000280 76 df f6 bd 49 22 b5 bd 90 1b 98 bd 36 3e a1 bd
       -0.120543405 -0.0884443 -0.07427132 -0.07873194
000290 b3 d6 a2 bd 0a 7f 9d bd 08 45 33 3c 80 f7 12 3c
       -0.07951107 -0.076902464 0.010941751 0.008970141
0002a0 40 c6 22 bd db 98 f2 bc 40 01 4d 3b de 3b 41 bd
       -0.039739847 -0.029613903 0.0031281263 -0.047176234
0002b0 20 a7 61 bd dd 25 96 bd e4 bc 5c 3d 59 82 9d bd
       -0.055091023 -0.073314406 0.053891078 -0.076908775
0002c0 a8 ce 75 3d b0 69 92 3c ac 8a 00 bd c0 9e 17 3d
       0.060011536 0.017872661 -0.031382248 0.03701663
0002d0 70 6c 57 3d 92 d7 33 bd a3 5a a5 bd 58 ce 87 3d
       0.05259365 -0.043906756 -0.08073928 0.06631154
0002e0 a8 98 17 3c a8 00 f4 bd c8 e3 30 bd 18 5a a3 3c
       0.009252705 -0.11914188 -0.04318598 0.019940421
0002f0 04 3f 74 bd 7a 37 9d bd af ef 05 bc 98 ba 9a bc
       -0.05963041 -0.07676597 -0.008174821 -0.018887803
000300 ec cc 3f bd 40 cf 4a 3d ad e9 14 bd 62 25 6a bd
       -0.046826288 0.049514055 -0.036355663 -0.057164557
000310 3c fb 44 3d e4 ad 2b 3d 21 ae d8 bc c4 39 6d 3c
       0.04809116 0.041913882 -0.026450219 0.014479104
000320 be 37 80 bd 14 b5 96 bc c0 43 66 3d b2 d5 cf bd
       -0.06260632 -0.018396892 0.056216955 -0.10148181
000330 c8 22 9a 3d 56 41 07 be b9 f9 02 bd e4 a1 42 bd
       0.07526165 -0.13208517 -0.031976435 -0.047517672
000340 02 2a 29 3d 5c 1a 25 bd f4 a6 af 3c 46 2b b9 bd
       0.041299827 -0.04030834 0.021441914 -0.09041457
000350 e6 d9 71 bd 40 92 80 bc 42 1b 15 3d 65 03 23 bd
       -0.059045695 -0.015694737 0.03640295 -0.03979816
000360 a4 b1 e7 3c aa 17 28 3d fc 9a bc bd d8 5f 36 3c
       0.028282948 0.041038193 -0.092092484 0.011131249
000370 af 84 05 bc 1c 35 b3 bc 2f 22 04 be 2c db 93 3d
       -0.00814931 -0.02187591 -0.12903665 0.07219538
000380 92 f1 6b bd 12 23 9a bd f9 ba 46 bd 2a e3 12 3c
       -0.057603426 -0.075262204 -0.048518155 0.008965293
000390 09 d1 0f bd 3c c6 4a 3d 49 da 8e bd 60 37 40 3d
       -0.03511146 0.049505457 -0.06975228 0.04692781
0003a0 c4 87 9a 3d b4 0b b4 3c 3d 5f 59 bb fc d7 a9 3c
       0.075454265 0.021978237 -0.0033168339 0.020732872
0003b0 d9 21 6e bd 65 5b 2c bd 6c 6f 36 bd ca 0f b9 bc
       -0.05813775 -0.042079348 -0.044539854 -0.022590537
0003c0 15 ad 06 be 73 b2 2d bd 64 eb 8a 3c dc ce 88 3c
       -0.13151963 -0.04240651 0.016957946 0.0167002
0003d0 cf 6a ec 3c 30 59 1e bc 9a 71 1e bd fa 57 6a bd
       0.028859524 -0.009664819 -0.038682558 -0.057212807
0003e0 58 07 3c bd 70 72 6d 3c b8 95 42 3d 9f f9 62 bd
       -0.04590544 0.014492616 0.047506064 -0.05541384
0003f0 50 9f 58 3d 12 54 8e bd bc dd 8c bd 39 7d d0 bd
       0.052886307 -0.06949629 -0.0687823 -0.10180134

fc2.bias f4 [60]
000000 f9 48 e6 bd 59 c9 97 bd 0e 2c 08 bb 05 4d 58 3f
       -0.11244387 -0.07411451 -0.0020778212 0.8449252
000010 e0 ff 3e bd 05 fc 68 be 86 06 81 bc 13 82 93 3e
       -0.04663074 -0.22752388 -0.01575018 0.28810176
000020 e1 08 ad bd 9b f8 9a 3e cd 39 ba 3d 26 89 ac bd
       -0.08448959 0.30267796 0.09093056 -0.084245965
000030 fa ea 95 3e 46 be 05 be 03 f3 f8 3e d3 cd 87 bd
       0.29280835 -0.13060865 0.48622903 -0.06631055
000040 7f 35 ec 3e c2 ac 24 be 76 76 ac 3e b3 fd 33 be
       0.46134564 -0.16081527 0.3368413 -0.17577247
000050 3b 54 b8 bb ba 16 11 3e 56 e3 9f be 17 60 93 bc
       -0.0056252754 0.14168826 -0.3122813 -0.017990155
000060 76 c5 2e 3d d4 26 a7 bc f1 17 0e be 16 71 ad bd
       0.042668782 -0.020404257 -0.1387632 -0.08468835
000070 af f7 d0 3e 88 29 61 bd 3f d9 a5 3e c6 27 81 bd
       0.40813968 -0.054971248 0.32392308 -0.06306414
000080 a4 c8 48 bc 08 2f 2c bd ed 45 1a be d5 42 5d bd
       -0.012254868 -0.04203704 -0.15065737 -0.054018814
000090 30 af 2c be 2b cd a0 3e 82 0f 61 bd bf 5f a4 bd
       -0.16863704 0.3140653 -0.05494643 -0.080260746
0000a0 df 22 bc 3d 1b 02 4f 3f e2 77 e8 3d 30 81 b8 be
       0.09186339 0.8086259 0.11350991 -0.36036062
0000b0 46 9d 4f bd 94 2b 0a 3f ae c1 a3 bd 9c 82 6d bd
       -0.050687097 0.53972745 -0.07995926 -0.057985887
0000c0 c1 4b 58 3e 86 ca eb bd 62 e2 bc be b8 93 da bd
       0.21122648 -0.11513238 -0.36891466 -0.10672706
0000d0 67 cf 90 3d e0 39 9a bd 17 da 85 be 50 1a 50 be
       0.07070809 -0.0753057 -0.26142952 -0.20322537
0000e0 f6 9d 0f 3f c0 b7 f1 bd 73 2b a6 bd 6a a3 e5 3c
       0.56100404 -0.11802626 -0.08113756 0.028032023

out.weight f4 [9, 60]
000000 13 4b 9f bd fc 28 4f bd b0 c2 c9 bc 62 0e 89 3e
       -0.07777991 -0.050576195 -0.024628967 0.26768786
000010 5b 93 a3 bc 93 37 86 3d b0 06 31 3d 3c 52 f0 3e
       -0.019967726 0.06553569 0.04321927 0.4693774
000020 99 6c 5a 3d 91 64 fe 3e c5 5f 9f 3e e4 5f 91 3c
       0.053326223 0.496861 0.31127754 0.01774592
000030 b8 b9 b8 3e 0b 7c 9f 3e 38 6a fd bf 56 47 de 3d
       0.36079192 0.31149325 -1.979804 0.1085345
000040 d4 16 00 40 ea 5a 24 bd e3 bb 7c 3e 8e e5 46 3e
       2.0013933 -0.040125765 0.24681048 0.19423506
000050 0f bc fd 3e 21 bf 07 3f b6 fd c6 3d 5a 48 46 c0
       0.4955754 0.53026015 0.0971636 -3.098166
000060 27 bb d0 3d 5c 0c 2d 3d 77 d2 14 3d c8 21 4e 3d
       0.101919465 0.042248115 0.036333527 0.050325185
000070 86 f7 9d be f9 14 88 bc 4a 4b 88 3e 00 cf e1 3a
       -0.30852908 -0.016611563 0.2661994 0.0017227829
000080 03 80 b4 bc 8d fd f3 3d 4c 34 32 bd 97 85 f4 bb
       -0.022033697 0.11913595 -0.043506905 -0.007462214
000090 34 1c 17 be 74 e1 1e c0 25 0e 41 be 9d dd a5 bb
       -0.14756852 -2.4825106 -0.18853052 -0.0050618188
0000a0 05 4f b4 3e 28 cd 8b bf 34 a7 a3 c0 d4 f2 34 3f
       0.35216537 -1.0921984 -5.1141605 0.70683026
0000b0 78 5c 64 be ba 71 83 bf 00 84 7a 39 6b 9b 0a be
       -0.22300899 -1.0269082 0.00023891032 -0.1353585
0000c0 9f 47 6d 3e a1 a8 17 3c 85 e2 9a be a5 c6 f7 3c
       0.23171853 0.009256513 -0.30250946 0.030246088
0000d0 cb c0 34 3f a9 94 ba bc 46 6f 32 bd 62 95 be bd
       0.7060668 -0.022775965 -0.04356315 -0.09305836
0000e0 7c da a3 3e 85 05 28 bc 59 5b 1d be 0a 39 3a 3e
       0.32002628 -0.010255222 -0.15366878 0.18185821
0000f0 54 fe ed bc 10 cc 88 bc c0 30 fd 3a d4 5e f1 bf
       -0.029051937 -0.016698867 0.0019316897 -1.8857064
000100 94 f2 4d bd 9f 61 ce bd 44 c1 d3 3d 19 50 be bf
       -0.05028017 -0.100772135 0.10339597 -1.4868194
000110 81 65 d4 bd ae 99 6a bf c6 a3 f2 bd 62 d9 5f 3c
       -0.10370923 -0.91640747 -0.118476436 0.013662668
000120 ac 1e f5 bf e9 c7 52 bf 8b 41 7e 3e 09 38 bc bd
       -1.9149985 -0.8233629 0.2482969 -0.09190375
000130 c5 24 1f 3f ee 86 c3 bb 04 05 17 3f 7a 70 07 3d
       0.6216548 -0.0059670126 0.5899203 0.03306625
000140 07 6e fe bf b8 d1 3a c0 76 c8 e2 bd 2f 35 2c bf
       -1.9877328 -2.9190502 -0.11073391 -0.6726865
000150 40 04 85 3d ed e3 e7 bd 1e cb 58 3d 4c fc d8 3d
       0.06494951 -0.1132277 0.052928083 0.10594997
000160 c9 34 0f 3f 39 72 30 bd ea 65 50 3f fb 91 a0 bd
       0.5593992 -0.04307768 0.8140551 -0.078403436
000170 23 53 63 3d c2 ad 1b 3d 83 e8 92 bc b5 a9 c8 3c
       0.055499207 0.038007505 -0.017933136 0.024494985
000180 2f 32 e6 3e 3b 98 05 3f 5d 66 f3 3e b2 41 fc bd
       0.44960162 0.5218541 0.47539034 -0.12317218
000190 8c 53 23 bf ae 8f 26 3e 11 b7 4a 3f 63 dc ef 3f
       -0.6379936 0.16265747 0.7918559 1.8739132
0001a0 0c 5f 07 3f dc 99 0f bf 14 10 ea 3d 39 b3 33 bd
       0.52879405 -0.56094146 0.11428848 -0.043872092
0001b0 e1 13 7f 3e 3c f9 01 3e 2c 0f 86 3e 12 77 54 3e
       0.24909927 0.12692732 0.2618345 0.20748547
0001c0 d0 97 3c 3f 10 6c c3 bd 56 9d 01 3f b0 93 30 be
       0.7366915 -0.09542096 0.506307 -0.17243838
0001d0 a7 e4 a4 bf 61 84 28 be 51 99 ce bc 43 e0 20 3f
       -1.2882279 -0.16456749 -0.025219591 0.62842196
0001e0 9a 34 90 3c 5c 84 97 bd 7f af 04 bc 13 ae 9c 3e
       0.017603207 -0.073982924 -0.008098482 0.30601558
0001f0 93 39 e0 3d ba d6 12 be 15 4d ce 3d ec 89 0b 3f
       0.109484814 -0.14339724 0.10073296 0.5450733
000200 37 80 1d be bb 04 f7 3e 19 8a ca 3e 12 da e0 bd
       -0.15380941 0.48245797 0.39558485 -0.109790936
000210 fc 98 04 3f 65 41 87 3e 3b 2c b8 be a2 ad dc 3d
       0.51795936 0.2641708 -0.35971245 0.10775305
000220 02 54 8c c0 44 f7 4e 3d a6 fa 8c c0 35 79 05 bc
       -4.385255 0.05052878 -4.4055967 -0.008146574
000230 2d c3 2d 3e a2 48 b4 3e a1 b9 f8 bd fb d5 15 3f
       0.16968985 0.35211664 -0.12144781 0.58529633
000240 55 bf 74 3e 79 42 d0 bd c6 11 d7 bc f9 76 e3 bd
       0.23901112 -0.10168929 -0.026253592 -0.111066766
000250 62 22 82 c0 7c 5a 8c 3d 3d d3 05 3f 40 23 2f bb
       -4.066697 0.06853196 0.5227545 -0.0026723891
000260 c4 6b 0d bc 87 b8 39 3d e2 c2 f7 bc 55 87 21 be
       -0.00863165 0.045341995 -0.030244295 -0.15774281
000270 d8 80 25 c0 9a 1d b4 3d f8 a6 24 bd 20 69 35 3d
       -2.585989 0.087947085 -0.040198296 0.04428971
000280 0d 63 1e 3f c5 3c 28 40 ca 30 4b 3f a8 90 a1 3e
       0.6186989 2.628709 0.7937132 0.31555676
000290 7a 84 ea bf d0 40 f7 be ae 72 fb 3d b4 16 ab bd
       -1.8321679 -0.48291636 0.12277733 -0.0835394
0002a0 97 7f 1c c0 f7 65 17 3e c6 a9 bc c0 8d 79 6d bd
       -2.4452875 0.1478499 -5.8957243 -0.057977248
0002b0 a2 b0 9d 3e 96 39 3d 3d aa e3 99 be b7 32 03 3e
       0.30798823 0.046197496 -0.30056506 0.12812315
0002c0 b6 f5 e3 3e 3b c1 ac bd b3 7e 9b bd 55 25 84 c0
       0.445234 -0.08435293 -0.07592525 -4.129557
0002d0 e5 6f f2 bc 42 b9 90 bc bd 86 85 3d ac 36 5e 3f
       -0.029594371 -0.017666463 0.0651984 0.8680217
0002e0 9d 5c c0 bd e7 98 7b 3d 61 47 2d bd 94 5c 0d be
       -0.093926646 0.061425116 -0.0423044 -0.13804847
0002f0 59 9e a0 3d ec 3c 0c 3f b6 87 81 bf f0 b4 cf bc
       0.078427024 0.5478046 -1.0119541 -0.025354832
000300 46 6c bb 3e ec c4 a3 bf dd ca 2e bf d3 3a 02 3e
       0.36606044 -1.2794471 -0.68278295 0.12717752
000310 53 97 74 c0 3b 99 c8 3c df cb ba 3f 6b bd 17 c0
       -3.821736 0.024487128 1.4593467 -2.3709362
000320 15 46 22 3f 65 33 c1 3e a0 51 c0 bc b5 b9 11 bf
       0.63388187 0.37734523 -0.023476422 -0.5692399
000330 18 7f f1 bf e8 6c c1 bd b7 3b b5 bc ce ca b9 3d
       -1.8866911 -0.094446 -0.0221232 0.09071885
000340 b2 1e 5b bf a6 95 64 bd ec 73 3e bf 90 cc 0e 3d
       -0.8559371 -0.05580678 -0.7439563 0.034863055
000350 c4 dd cb 3d 1f 67 ec 3b e5 95 6f 3b 41 6e e2 bc
       0.09954408 0.0072144414 0.003655785 -0.027640464
000360 7f fa ab bf 11 24 30 c0 07 12 25 c0 ec 70 24 be
       -1.343582 -2.7522013 -2.5792253 -0.16058701
000370 da a8 45 bf e9 a2 8b 3e b8 bb 6c bf 2b 9d 61 bf
       -0.7721077 0.27272728 -0.92473936 -0.88130444
000380 16 46 0c be 84 17 a7 3e d0 31 b3 bb 96 f9 a9 bd
       -0.1369861 0.32635128 -0.0054685846 -0.08299558
000390 ff 70 64 3f 42 71 ae 3c e7 8f 3e bf f9 fb c4 bf
       0.8923492 0.02129424 -0.7443833 -1.5389396
0003a0 29 49 89 bf fb 68 04 be 27 4b 05 c0 e7 20 bf bd
       -1.0725452 -0.12930672 -2.082712 -0.093324475
0003b0 9c 8c 35 3e 34 22 5a 3d 7e fd 19 be 10 8a 21 bf
       0.1772942 0.053255275 -0.15038106 -0.6310129
0003c0 23 4c 23 be ef 7c ef bd 77 b5 a4 bd a8 63 db 3f
       -0.15947013 -0.11693751 -0.08042424 1.7139788
0003d0 00 6a 65 bd 5b f5 c4 3d 0b ac 0f be 44 a8 a7 be
       -0.056009293 0.0961711 -0.14030473 -0.32745564
0003e0 b8 9e 5a bd 1f 23 54 c0 c8 3e 5d be cf d7 15 ba
       -0.053374022 -3.3146436 -0.2160598 -0.0005716057
0003f0 9f d9 fa bf 0a 1b 5a bf a0 86 fb 3e 80 a2 ff 3b
       -1.9597663 -0.8519751 0.49126148 0.007801354

out.bias f4 [9]
000000 f8 36 bb be 0f 18 fa be e0 19 8a 3e 56 15 ac 3e
       -0.36565375 -0.4884648 0.26972866 0.33610028
000010 2d dd 95 3f 8b 7b 16 bf a2 e1 09 bf b9 df 0d 3f
       1.1708122 -0.5878226 -0.53859913 0.554195
000020 33 28 1b be
       -0.15152054
