Machine_Learning/Final/MLPW9.pt (torch, 166935 bytes, 6 tensors)

fc1.weight f4 [150, 210]
0	0xbf2f5506	-0.6848911
1	0xbf1cbcd4	-0.6122563
2	0xbf9cb361	-1.2242242
3	0xbfc2e6a4	-1.5226636
4	0x3e14c7f6	0.14529404
5	0x40048cce	2.071094
6	0x3fc9aa9f	1.5755194
7	0x3fb151e5	1.3853117
8	0x3fc8e6b5	1.5695406
9	0x403475cc	2.8196898
10	0x40493412	3.1438031
11	0x403d3a55	2.9566853
12	0x4026b7f0	2.6049767
13	0x401e3afc	2.4723501
14	0x3fcddfd2	1.608393
15	0x3f3d014b	0.738301
16	0xbee46b9a	-0.44613343
17	0xbfe01d9d	-1.7509037
18	0xc02e1faf	-2.7206838
19	0xc0816c64	-4.0444813
20	0xc0907ca3	-4.5152144
21	0xc0a9e301	-5.3089604
22	0xc0b1b220	-5.552994
23	0xc080b346	-4.021884
24	0xc0834a75	-4.102839
25	0xc0313185	-2.7686474
26	0xbed766af	-0.4207053
27	0x4003a54e	2.0569644
28	0x4038affd	2.8857415
29	0x403d2fd4	2.9560442
30	0x3ffcfed6	1.976527
31	0x402a1d5e	2.6580424
32	0x3fd7c204	1.6856084
33	0x3be5d06b	0.0070133707
34	0x3f15196a	0.58241904
35	0x3e359329	0.17731918
36	0xbf668d62	-0.90059483
37	0xc017f0ca	-2.3740716
38	0xbff59755	-1.9186808
39	0xc0026360	-2.0373154
40	0xc040e46a	-3.0139413
41	0xc0a0390d	-5.006964
42	0xc08b3f90	-4.351509
43	0xc0854b8c	-4.165472
44	0xc06165f9	-3.521849
45	0xc019e84e	-2.4048038
46	0xbfe252f5	-1.7681566
47	0x3f4489cf	0.7677278
48	0x3fde8b07	1.7386178
49	0x3fba28c3	1.454369
50	0x3fcccd99	1.6000243
51	0x3ffc5a66	1.9715087
52	0x3fc5c317	1.5450162
53	0x3feab36a	1.8336003
54	0x3fa9bacb	1.326013
55	0x3f8354f3	1.02603
56	0x3f957409	1.1676036
57	0x3f8f3dee	1.1190774
58	0xbf6ac005	-0.9169925
59	0xc044ace7	-3.0730531
60	0xc0a6339c	-5.1938
61	0xc0b88739	-5.7665067
62	0xc0c9add1	-6.302468
63	0xc0bfc8fb	-5.9932837
64	0xc0b1fe19	-5.562268
65	0xc090b4c8	-4.522068
66	0xc017a37f	-2.369354
67	0xbf0b5dbf	-0.5443992
68	0xbe0ee21e	-0.13953444
69	0x3e299cd3	0.1656373
70	0xbf8f563e	-1.1198194
71	0xc0103aea	-2.2535958
72	0x3f26e3a0	0.6519108
73	0xbe1c72eb	-0.15278213
74	0xbf351e6c	-0.70749545
75	0x3e6d05f2	0.23146799
76	0x3f9f9591	1.2467519
77	0x3e998ef6	0.29991883
78	0x3f8fdd0a	1.1239331
79	0x3fb8aa9a	1.4427063
80	0x3ffca5c2	1.9738085
81	0x40089c20	2.134529
82	0x40040804	2.0629892
83	0x3ff2e7a7	1.8976945
84	0xbfed70e1	-1.8550073
85	0xbfde7d4e	-1.738199
86	0x3d17f205	0.037096042
87	0x4035cb25	2.840524
88	0x40bbfcaf	5.874595
89	0x410be80d	8.744153
90	0x410814ad	8.505048
91	0x4100851e	8.032499
92	0x40cfe4dc	6.496687
93	0x409c7e17	4.890392
94	0x40036592	2.0530744
95	0xbf7d7155	-0.99001056
96	0xc0988c2a	-4.76711
97	0xc0df5fd4	-6.980448
98	0xc0ce3c3b	-6.4448524
99	0xc0e5deb0	-7.1834335
100	0xc124168b	-10.255504
101	0xc13dccc9	-11.862496
102	0xc11ff494	-9.997211
103	0xc0c61e09	-6.1911664
104	0xc06f2ccc	-3.7371092
105	0xbdc5bb0a	-0.096548155
106	0x4090c63d	4.524199
107	0x41076a5f	8.4634695
108	0x4115d51e	9.364531
109	0x40f38044	7.6094074
110	0x40bd4de2	5.915757
111	0x408d7251	4.4202046
112	0x402dbaa2	2.7145162
113	0x400bda92	2.1852155
114	0x3fabbd32	1.3417113
115	0x3fae7220	1.3628578
116	0x3f1f885f	0.6231746
117	0x3edca856	0.4309718
118	0x3e68b8a8	0.22726691
119	0x3f35345a	0.7078301
120	0x3f138f7a	0.576408
121	0xbe2f5ebe	-0.17125985
122	0xbf71c53a	-0.9444157
123	0xbfde49c3	-1.736626
124	0xbfea66d4	-1.8312631
125	0xc0118c87	-2.274202
126	0x3fe546dd	1.7912251
127	0x3f9a598a	1.2058575
128	0x402a31b5	2.6592839
129	0x4034ebc1	2.8268893
130	0x3f8ae2e7	1.0850495
131	0xc0300d5d	-2.7508156
132	0xc0010034	-2.0156374
133	0xc002ab35	-2.0416996
134	0xc0131054	-2.2978716
135	0xc05b6faa	-3.4286904
136	0xc04c9d46	-3.1970992
137	0xc00f17fd	-2.2358391
138	0xbffb12fb	-1.9615167
139	0xbfc1b1ec	-1.5132422
140	0xc027b939	-2.62068
141	0xbf904e2e	-1.1273859
142	0x3f32d46f	0.698554
143	0x4056dd78	3.3572674
144	0x40994d15	4.7906594
145	0x40bb01f8	5.8439903
146	0x40cb43a0	6.352005
147	0x40c73033	6.2246337
148	0x40b38d20	5.610977
149	0x4043b3cb	3.0578487
150	0x401fd7ca	2.4975457
151	0x400fd398	2.2472897
152	0xbf529128	-0.8225274
153	0xc021e8ea	-2.529841
154	0xc016d5a9	-2.3567908
155	0xbfad25e5	-1.352719
156	0xbf9e425e	-1.2364004
157	0xc02bd6f1	-2.684994
158	0xbfe7086a	-1.8049443
159	0xbfe80926	-1.8127792
160	0xbfe4f8d6	-1.7888439
161	0xbe3fef58	-0.18743646
162	0x3fc74003	1.556641
163	0x3f9f0675	1.2423846
164	0x3fe93f09	1.8222362
165	0x3fb94c72	1.4476454
166	0x3f6f9f08	0.9360204
167	0x402078f7	2.507383
168	0xbf6b963b	-0.9202611
169	0xbe541ff5	-0.20715316
170	0x3e100ba0	0.14066935
171	0x3e09b7cc	0.13449019
172	0x3e373527	0.1789137
173	0x3e660b4f	0.22465251
174	0xbe1d1e7e	-0.15343663
175	0x3dba867e	0.091076836
176	0xbe5c0146	-0.21484861
177	0xbed63c28	-0.4184277
178	0xbf27f119	-0.6560226
179	0xbefe3708	-0.4965136
180	0xbe9a01f6	-0.3007962
181	0xbe818d60	-0.25303173
182	0xbf180038	-0.59375334
183	0xbecc6e9e	-0.39928144
184	0xbf55bbca	-0.8348967
185	0xbf470032	-0.77734673
186	0xbf44d226	-0.7688316
187	0xbe4e7749	-0.20162691
188	0x3e865f6d	0.2624468
189	0x3d865edc	0.06561062
190	0x3e73401b	0.23754923
191	0x3f16fff5	0.5898431
192	0x3f81fbdb	1.0154985
193	0x3f9aa621	1.2081949
194	0x3fb079b7	1.3787144
195	0x3fce83e0	1.6133995
196	0x3f63d740	0.8900032
197	0x3ee428fc	0.4456252
198	0x3e036064	0.12829739
199	0xbe650ae8	-0.22367442
200	0xbebbe166	-0.36695403
201	0xbf983b3e	-1.1893079
202	0xbfa69524	-1.3014264
203	0xbffd5950	-1.9792881
204	0xbfe174d7	-1.7613782
205	0xbf79880e	-0.9747323
206	0xbfb3f15f	-1.4058036
207	0xbfa245fd	-1.2677609
208	0xbf1eb123	-0.6198904
209	0xbfd5bea4	-1.6698804
210	0xbd2ebcc4	-0.04266049
211	0xbc21dbac	-0.009879034
212	0x3d0cb69a	0.03435383
213	0xbb705820	-0.003667362
214	0xbd4dc889	-0.050240073
215	0x3c78a508	0.015176065
216	0xbd51ce04	-0.051221862
217	0x3d78af2e	0.06071394
218	0x3cdff3c0	0.027337909
219	0x3bc3bc80	0.0059733987
220	0xbd5d11dd	-0.053972114
221	0x3d891707	0.06693845
222	0xbd88c140	-0.066774845
223	0xbb3c9420	-0.0028774813
224	0xbd68cd10	-0.056836188
225	0xbd69c743	-0.057074796
226	0x3c90f654	0.017695583
227	0x3d3efb8a	0.046626605
228	0x3cca9350	0.024728447
229	0x3d85607d	0.06512544
230	0xbbb63860	-0.0055609196
231	0xbd4d315e	-0.05009591
232	0x3c82001c	0.015869193
233	0xbbc4ad20	-0.0060020834
234	0x3c187d60	0.0093072355
235	0xbbd27dc0	-0.006423682
236	0xbd7f8608	-0.06238368
237	0xbcc9a3f4	-0.024614312
238	0x3d857d05	0.06517986
239	0x3d24a62e	0.040197544
240	0x3d6b3886	0.05742695
241	0x3c98d964	0.018658347
242	0x3d70b522	0.05876649
243	0x3c4da968	0.012552597
244	0x3be651b0	0.007028781
245	0xbc145808	-0.009054191
246	0xbce8aaec	-0.028401814
247	0x3d228334	0.039675906
248	0xbd41c29c	-0.047304735
249	0xbc9c96e4	-0.019114919
250	0x3d09fd30	0.033688724
251	0xbbc01910	-0.0058623627
252	0xbd2d85ed	-0.04236405
253	0xbc4875c4	-0.012235109
254	0x3ce6cdf0	0.02817437
255	0xbcc178aa	-0.023617107

fc1.bias f4 [150]
0	0xbe79c09a	-0.24389878
1	0xbd8acdde	-0.06777547
2	0xbeda9a1e	-0.42695707
3	0xbe1cb8af	-0.15304826
4	0xbc63b913	-0.013899106
5	0xbd8a70c7	-0.06759792
6	0xbe66c011	-0.22534205
7	0xbe2bf1ae	-0.16791412
8	0xbd82f3ab	-0.06394132
9	0xbd620cb7	-0.055187907
10	0xbd6d994c	-0.058007523
11	0xbee389f6	-0.44441193
12	0xbd0e6f83	-0.034774315
13	0xbd4e5ce9	-0.050381575
14	0xbcebac1a	-0.028768588
15	0xbcea7924	-0.028622217
16	0x3e971c72	0.2951389
17	0xbcacaa94	-0.021077432
18	0x3e19b6c4	0.15011126
19	0xbf2f7ced	-0.68549997
20	0xbce46294	-0.027879037
21	0xbf07651b	-0.5288865
22	0xbd8094c4	-0.06278375
23	0xbbfd5121	-0.0077306186
24	0xbdf825c1	-0.12116576
25	0x3efe0e53	0.49620304
26	0xbed9e2f3	-0.4255596
27	0xbd9db8dc	-0.07701275
28	0xbd7385b5	-0.059453685
29	0xbe0c38f3	-0.136936
30	0x3d4f2565	0.05057277
31	0xbd1a6d28	-0.037701756
32	0xbc22a740	-0.009927571
33	0xbd804558	-0.06263226
34	0xbe959472	-0.29214817
35	0xbeae206d	-0.34009114
36	0xbd779420	-0.060443997
37	0xbd583b48	-0.05279091
38	0xbeb4eb34	-0.35335696
39	0xbd08af5f	-0.033370372
40	0xbd835dda	-0.06414385
41	0xbd580911	-0.05274302
42	0xbee6750a	-0.4501117
43	0xbddf0d59	-0.10891218
44	0xbd2c1762	-0.042014487
45	0x3ebfa8d9	0.37433508
46	0x3e2141bd	0.15747733
47	0xbcc0fb3a	-0.023557294
48	0xbd240a14	-0.040048674
49	0xbd666de8	-0.05625716
50	0xbd612c9f	-0.054974195
51	0xbc1ce0fc	-0.009575125
52	0xbe5deb1b	-0.21671717
53	0xbd84df64	-0.06487921
54	0x3e427dbc	0.18993276
55	0x3ecee5c9	0.40409687
56	0x3e383725	0.17989786
57	0xbe864fd5	-0.26232782
58	0xbe5b0e9a	-0.21392289
59	0xbd6716f0	-0.05641836
60	0xbd2ea218	-0.042635053
61	0xbcb6fb60	-0.022336662
62	0xbee2b1fb	-0.44276413
63	0xbd6e1d93	-0.058133673
64	0xbcbf17d6	-0.023326796
65	0xbd34573e	-0.044028513
66	0xbd64680c	-0.05576329
67	0x3e934e86	0.28770846
68	0xbe54189d	-0.20712514
69	0xbb12b6e2	-0.0022386839
70	0xbd500f76	-0.050795995
71	0xbcbf586c	-0.023357593
72	0xbd108745	-0.035285253
73	0xbd4681b6	-0.048463546
74	0xbd173515	-0.036915857
75	0xbc864e80	-0.016394854
76	0xbd7e2b81	-0.062053207
77	0x3e43bc1e	0.1911473
78	0xbe74655a	-0.23866788
79	0xbd61f124	-0.05516161
80	0xbeacd593	-0.33756694
81	0xbe5e704e	-0.21722528
82	0xbd56c176	-0.052430592
83	0xbd519843	-0.0511706
84	0xbc758400	-0.0149850845
85	0xbd43ccd8	-0.047802776
86	0x3de82ecd	0.113370515
87	0xbc8e20b4	-0.017349578
88	0xbd7fff9c	-0.062499627
89	0xbecde0d0	-0.4021058
90	0xbcba0522	-0.022707526
91	0xbeb3c222	-0.3510905
92	0xbdaa44aa	-0.08313878
93	0xbeab20b9	-0.33423403
94	0xbcc78d28	-0.0243593
95	0xbe4892df	-0.19587277
96	0xbd689bf1	-0.056789342
97	0xbd7b442d	-0.061344314
98	0xbf0c787d	-0.5487135
99	0xbd741d49	-0.05959824
100	0xbd895ab1	-0.06706751
101	0xbd787329	-0.0606567
102	0xbdab9554	-0.083780915
103	0xbf1a8f20	-0.6037464
104	0xbb5410c5	-0.0032358628
105	0xbd72b53d	-0.059254874
106	0xbc89c564	-0.016817756
107	0xbd8cb850	-0.06871092
108	0xbd1c5fee	-0.038177423
109	0xbc42d4e0	-0.011891574
110	0xbd82139d	-0.06351397
111	0xbe42c8e2	-0.19021943
112	0xbed5d18d	-0.41761437
113	0xbc9a04e2	-0.018801156
114	0x3cf0de32	0.029402826
115	0xbd0534e0	-0.03252113
116	0xbd18b301	-0.037280086
117	0xbf1e55a3	-0.6184942
118	0xbd185163	-0.03718699
119	0xbcdfc1ce	-0.027314093
120	0xbe00e770	-0.12588286
121	0xbf130fe0	-0.574461
122	0x3ed75a7e	0.42061228
123	0xbea471db	-0.32118115
124	0xbe46d27a	-0.19416228
125	0xbf338793	-0.70128745
126	0xbd7033a9	-0.058643017
127	0xbdeb43b0	-0.1148752
128	0xbd890b51	-0.066916116
129	0xbdcb15c9	-0.099162646
130	0x3ecf9f2f	0.40551135
131	0xbd870a1c	-0.06593725
132	0xbc78acdc	-0.015177932
133	0xbcb8f90a	-0.022579689
134	0x3e6cbec8	0.23119652
135	0xbcd008d0	-0.025394827
136	0xbd2ea86c	-0.04264109
137	0xbe5404d8	-0.20704973
138	0xbd7933b0	-0.06084031
139	0x3d12c370	0.035830915
140	0xbd56ab24	-0.052409306
141	0xbcd30bfe	-0.025762554
142	0xbd883e36	-0.06652491
143	0xbe5b40e8	-0.21411479
144	0x3e2263ba	0.15858355
145	0xbe18ecfb	-0.14934151
146	0xbd872882	-0.06599523
147	0xbce72712	-0.028216872
148	0xbd0d12ca	-0.034441747
149	0xbc335cdc	-0.010947432

fc2.weight f4 [60, 150]
0	0x40430b38	3.0475597
1	0x3d1cc3c0	0.03827262
2	0xbf8b109c	-1.0864444
3	0x400854f9	2.1301863
4	0xbd3d5c6f	-0.04623073
5	0x3d7b07e0	0.061286807
6	0x403cc3b5	2.949445
7	0xbfb57a2f	-1.4177912
8	0x3ce6bf4e	0.028167393
9	0x3cefa608	0.029253975
10	0xbdfc36bc	-0.12315127
11	0x3f3e8a5f	0.7442989
12	0x3d93fbae	0.072257385
13	0xbfc690f5	-1.5512987
14	0xbd721a18	-0.059106916
15	0x3ff55014	1.9165063
16	0x3eb18942	0.34675032
17	0x3c9b60ec	0.018967114
18	0x3fc506cc	1.5392699
19	0x3f8218d6	1.0163829
20	0x3d9a02e2	0.07520081
21	0x3f81879b	1.0119509
22	0xbcd30cce	-0.025762942
23	0xbf8da8dc	-1.1067157
24	0x3ef5b77c	0.4799155
25	0x3f809d4d	1.0048004
26	0xbf814fc9	-1.0102473
27	0x4044f90c	3.0777006
28	0x3db2eb57	0.08736294
29	0x3ee14874	0.4400059
30	0x3faaf14a	1.3354886
31	0x3d9baff2	0.07601918
32	0x3d9d5006	0.07681279
33	0x3d341164	0.043961897
34	0x3ff8585c	1.9401965
35	0xbdbdadaf	-0.09261643
36	0x3cc508f4	0.02405212
37	0xbd2925d3	-0.041295838
38	0x4004a48c	2.0725431
39	0xc020bc6f	-2.511501
40	0x3cea5888	0.028606668
41	0x3fd2fcd3	1.6483406
42	0x3eeb33ee	0.45938057
43	0x3f6f2e1b	0.93429726
44	0xbc178a48	-0.009249277
45	0xbf4b6b1f	-0.7946033
46	0x3f88d1b7	1.0689
47	0xbd200315	-0.03906544
48	0xbd62238f	-0.055209693
49	0x390c6804	0.00013390189
50	0xbdfc3591	-0.123149045
51	0xbd88f04a	-0.066864565
52	0x4031bee8	2.777277
53	0xbc99835f	-0.0187394
54	0xbe2cfe11	-0.16893794
55	0xbf00af5e	-0.5026759
56	0xc03197c8	-2.774889
57	0x3e74a1b0	0.23889804
58	0x3fb057d2	1.3776801
59	0xbd8a2ce2	-0.06746842
60	0xbd84a4fb	-0.0647678
61	0xbc9bd9ac	-0.019024692
62	0xbdf5434d	-0.11975727
63	0x3dcbffd5	0.099609055
64	0x3da02e52	0.07821335
65	0xbda39620	-0.079876184
66	0xbca65ff4	-0.020309426
67	0x3f5980a3	0.8496191
68	0xbe8d935f	-0.27651498
69	0x3de3a46d	0.11115346
70	0xbf5713a6	-0.84014356
71	0xbc034728	-0.00801257
72	0x3b0f1160	0.0021830425
73	0xbcdc88a4	-0.026920624
74	0x3d1ea906	0.038735412
75	0xbb259a20	-0.0025268868
76	0xbcf6e134	-0.030136682
77	0xbfae66d0	-1.3625126
78	0xc01148f4	-2.2700777
79	0x3c9099dc	0.01765149
80	0x4032c1cb	2.7930782
81	0x3fc28fcb	1.5200132
82	0x3d31a49c	0.043369874
83	0xbd208a61	-0.03919447
84	0xbd8ce99a	-0.068804935
85	0xbd85dd21	-0.065363176
86	0xbf7e7a8c	-0.9940574
87	0xbcf75860	-0.030193508
88	0x3d4cb7e4	0.04998006
89	0x3fb15dc9	1.3856746
90	0xbd9181e3	-0.07104852
91	0x3ecbdb19	0.39815596
92	0x3e7330b3	0.23749046
93	0x3f12983e	0.57263553
94	0xbda2c3d5	-0.07947508
95	0x402ba014	2.6816454
96	0xbde2238c	-0.11041936
97	0xbdd2a2fe	-0.102849945
98	0xbf6d9f71	-0.92821413
99	0xbda039d9	-0.078235336
100	0x3d2e8f7c	0.042617306
101	0xbd0dd306	-0.034625076
102	0xbe4fbe36	-0.20287403
103	0x3fa3eb09	1.2806102
104	0x3f107247	0.56424373
105	0x3d6fb90a	0.058526076
106	0xbd732d2a	-0.059369244
107	0x3d0acb16	0.033885084
108	0xbcb3ecd6	-0.021963518
109	0x3d4408d0	0.047859967
110	0x3c834f24	0.016028948
111	0x3e32157e	0.17391011
112	0x3de69409	0.11258704
113	0xbc771598	-0.015080832
114	0x3fcde0b4	1.6084199
115	0xbd9a1272	-0.075230494
116	0xbd267ea2	-0.04064811
117	0x3e81449e	0.25247663
118	0x3b740b40	0.003723815
119	0xbd23ff54	-0.04003842
120	0xbf6a1f73	-0.9145424
121	0xbe173b45	-0.14768703
122	0xbf5b1cae	-0.85590637
123	0xbe859d93	-0.26096782
124	0x407796e8	3.8685856
125	0xbebb7fec	-0.36621034
126	0xb9a177a8	-0.00030797464
127	0xbf3d2098	-0.7387786
128	0x3c83ba20	0.016079962
129	0xbdf6e10f	-0.12054645
130	0xbcd46f28	-0.02593191
131	0xbf46e016	-0.7768568
132	0xbc8bdcb4	-0.017073013
133	0x3d8a7a96	0.06761663
134	0x3f5b360f	0.8562936
135	0xbd0d0d2a	-0.034436382
136	0xbcf1f696	-0.029536527
137	0x4032667a	2.7875047
138	0xbda2252b	-0.079172455
139	0xbdb2c87c	-0.087296456
140	0xb9f26a00	-0.00046236813
141	0xbd2e2eec	-0.042525217
142	0x3d354a7c	0.044260487
143	0x3ef6bb4f	0.4818978
144	0xbf446b0e	-0.7672585
145	0x3e2550de	0.1614413
146	0xbb979830	-0.0046262965
147	0xbd14d314	-0.036334112
148	0xbd1bf663	-0.03807677
149	0xbc9598f4	-0.01826141
150	0xbcc56f38	-0.024100885
151	0xbd53f4ae	-0.051747017
152	0xbe0f9eb6	-0.14025387
153	0xbdc1f83d	-0.09471176
154	0xbe0268f2	-0.12735346
155	0xbd985b9f	-0.0743935
156	0xbd8c0788	-0.06837374
157	0xbe150b03	-0.14554982
158	0x3cf00a1c	0.029301696
159	0xbd5827c0	-0.052772284
160	0x3d959384	0.07303527
161	0xbdc0bf9c	-0.094115466
162	0xbd0decd3	-0.03464968
163	0xbde25799	-0.11051864
164	0x3d8506ae	0.06495415
165	0xbcca686c	-0.024707995
166	0xbd9e22ca	-0.07721479
167	0x3c799038	0.015232138
168	0xbc97d4c3	-0.01853407
169	0xbc1608a0	-0.00915733
170	0x3d8e0f10	0.06936467
171	0xbd7c996f	-0.061669763
172	0xbd691368	-0.056903273
173	0xbe183dbe	-0.14867303
174	0xbe0a05b1	-0.13478734
175	0xbd53f08c	-0.051743075
176	0xbd6f88b1	-0.05847997
177	0xbd93d270	-0.07217872
178	0x3c5cc7b8	0.013475351
179	0xbda7f57f	-0.082011215
180	0xbd522d11	-0.05131251
181	0x3b294ee0	0.0025834367
182	0xbd8a6714	-0.06757942
183	0xbc77a650	-0.015115336
184	0xbd58a4d2	-0.05289156
185	0xbdede574	-0.1161603
186	0xbcc4dfc8	-0.024032488
187	0xbd014296	-0.031557642
188	0xbbe11659	-0.006869119
189	0xbc261e07	-0.010138995
190	0x3d56a7d4	0.052406147
191	0xbd33362b	-0.04375283
192	0xbde523e2	-0.11188485
193	0xbd718fe6	-0.058975123
194	0x3d3a7a18	0.045526594
195	0xbd7821d2	-0.06057913
196	0xbe130946	-0.14359006
197	0x3c816020	0.015792906
198	0x3c8e95b4	0.017405368
199	0x3d4804ec	0.04883282
200	0xbca96a66	-0.020680618
201	0x3b069700	0.002053678
202	0xbdacba34	-0.08433953
203	0x3c6fd630	0.014638469
204	0xbd90f1ca	-0.070773676
205	0x3b5826e4	0.0032982165
206	0xbc007f76	-0.007842889
207	0xbd4fcb12	-0.050730772
208	0xbc581c3f	-0.013190328
209	0xbcf5bc06	-0.029996883
210	0x3d3e6a7c	0.04648827
211	0x3badb650	0.0053012744
212	0xbd15aeea	-0.036543764
213	0xbd13c1c2	-0.036073454
214	0xbd91f54f	-0.07126867
215	0xbd86b05a	-0.06576605
216	0x3cbb6180	0.02287364
217	0xbd6da566	-0.058019064
218	0x3b822e92	0.003972837
219	0xbd7c053d	-0.061528433
220	0xbdae9b68	-0.08525735
221	0x3d963166	0.07333641
222	0xbd9f39e0	-0.07774711
223	0x3d920ad0	0.071309686
224	0x3d0fcd10	0.035107672
225	0x3d5efe2c	0.054441616
226	0x3cda1858	0.026622936
227	0xbdca9dab	-0.09893354
228	0xbdb28223	-0.08716228
229	0xbbdf4b90	-0.0068144277
230	0xbc3d0ca1	-0.0115386555
231	0xbdce695a	-0.10078688
232	0xbd940bd8	-0.072288215
233	0x3da0ebd4	0.07857481
234	0x3d1b795c	0.037957534
235	0xbd5c70d0	-0.053818524
236	0xbe1035f1	-0.14083077
237	0xbd8f8827	-0.07008391
238	0x3d90f97c	0.07078835
239	0xbe1a55bb	-0.15071766
240	0xbd917d29	-0.071039505
241	0xbd8fdebe	-0.070249066
242	0xbde017c6	-0.109420344
243	0xbde28604	-0.11060718
244	0x3ca9ac08	0.020711914
245	0xbc1bd81e	-0.009511976
246	0xbd371202	-0.044694908
247	0x3b957430	0.00456097
248	0xbd04b869	-0.03240243
249	0xbcd2fb40	-0.025754571
250	0x3cba4324	0.022737093
251	0xbd995044	-0.074860126
252	0xbdc7492e	-0.09730755
253	0xbe1f2f13	-0.15545301
254	0xba9aec98	-0.0011819778
255	0x3c8e545c	0.01737421

fc2.bias f4 [60]
0	0xbfd4ccab	-1.662496
1	0xbde01e64	-0.109432966
2	0xbedb07c1	-0.42779353
3	0xbd8fce34	-0.07021752
4	0xbdb3ce1d	-0.08779547
5	0xbd329780	-0.043601513
6	0xbd42dd7a	-0.047574498
7	0xbe7c159c	-0.24617618
8	0xbf1b707c	-0.6071851
9	0xbd74a4c4	-0.059727445
10	0x3f97e5a4	1.1866956
11	0xbe9c7aff	-0.3056259
12	0xbd7486ab	-0.059698742
13	0x3d05da74	0.032679036
14	0xbe8fe190	-0.28101778
15	0xbdb87235	-0.09006158
16	0xbe902331	-0.2815185
17	0x3f149507	0.580399
18	0xbd0a286a	-0.033729948
19	0xbe464e7b	-0.19365875
20	0xbec8e99d	-0.39240733
21	0x3c2c2741	0.010507406
22	0xbe168c03	-0.14701848
23	0xbe082f47	-0.13299285
24	0xbd095705	-0.033530254
25	0xbc41f521	-0.011838228
26	0xbf488ebf	-0.78342813
27	0xbd32afc8	-0.04362467
28	0xbdbc85b9	-0.09205193
29	0xbe6575bd	-0.22408195
30	0x3f91ec74	1.1400285
31	0xbe4eda0d	-0.20200367
32	0xbda7a983	-0.08186629
33	0x3ed2d7c5	0.41180244
34	0xbece4077	-0.40283558
35	0x3f9f93c0	1.2466965
36	0xbc984f84	-0.018592604
37	0xbe07ff66	-0.1328102
38	0xbef1f38a	-0.47256118
39	0x3f03c102	0.5146638
40	0xbeb3bfe7	-0.35107347
41	0xbfa284f8	-1.2696829
42	0xbe685021	-0.22686817
43	0xbd238872	-0.039925046
44	0xbcbababb	-0.022794118
45	0xbf2a5d04	-0.6654818
46	0xbd87cbb3	-0.066306494
47	0x3f3d9ee2	0.7407056
48	0xbe699ce7	-0.2281376
49	0xbd01a2b6	-0.031649314
50	0xbe94c1f9	-0.2905424
51	0xbe0848b4	-0.13308984
52	0xbd19f2c4	-0.037585035
53	0x3f708ab2	0.9396163
54	0xbe5d36ee	-0.21602985
55	0xbfd2560c	-1.643251
56	0xbe2ce751	-0.16885115
57	0xbeb121a5	-0.3459598
58	0x3e8962de	0.26833242
59	0x3f95efac	1.1713767

out.weight f4 [9, 60]
0	0xc00b43b6	-2.1760077
1	0xbcdf3be3	-0.027250236
2	0xbd9db75e	-0.0770099
3	0xbe16e53c	-0.14735883
4	0x3febd36b	1.8423895
5	0xbdafbd20	-0.085809946
6	0x3d8e1130	0.06936872
7	0xbd14712e	-0.03624075
8	0x3f35fe37	0.71091026
9	0x3d74e9f2	0.05979342
10	0xc018873e	-2.3832545
11	0x3e9654e3	0.29361638
12	0xbddd488e	-0.10804854
13	0xbf21317f	-0.6296615
14	0x3ea79e65	0.32738033
15	0x3cad5a64	0.021161266
16	0x3db9c3a3	0.09070518
17	0xc0966c2c	-4.7007046
18	0x3cb6ca75	0.022313336
19	0x3c1925a6	0.009347355
20	0xbcf44321	-0.029817166
21	0x3f338116	0.70118845
22	0x3c71fa95	0.014769216
23	0x3d6aedef	0.057355817
24	0xbc96135e	-0.018319782
25	0x3d64b0f5	0.055832822
26	0x3f12f4bd	0.5740469
27	0xbe089bbd	-0.1334066
28	0x3d17e665	0.037084956
29	0x3dcb1b04	0.09917262
30	0x3ef55edf	0.47923943
31	0xbb0503c0	-0.0020296425
32	0xbe11ebdc	-0.1425013
33	0x3f3ec15d	0.745138
34	0x3eddee48	0.43345857
35	0xbdb85931	-0.09001387
36	0xbc5f68fd	-0.013635871
37	0x3c86f065	0.01647205
38	0x3faf4ebf	1.3695906
39	0x3f47ac5c	0.77997375
40	0xbfc7547b	-1.5572656
41	0xbe43b5af	-0.19112276
42	0xbe541afe	-0.20713422
43	0x3ca8fe9a	0.020629216
44	0x3bfb2eee	0.0076655066
45	0xbefa9759	-0.48943594
46	0xbd9195db	-0.07108661
47	0x3ecdea49	0.40217808
48	0xbdc44a18	-0.09584445
49	0x3cc06e16	0.023489993
50	0xc0589380	-3.3840027
51	0x3d4daf89	0.05021623
52	0x3dda0c43	0.1064687
53	0x3ef75aee	0.4831156
54	0xbf85e4d8	-1.0460463
55	0xc0cf230b	-6.4730277
56	0xbdfba02e	-0.12286411
57	0xbec3b26c	-0.38222063
58	0x3ea43b1a	0.3207634
59	0xbec1c94e	-0.37848896
60	0xbe21ff24	-0.15819985
61	0xbd8807e8	-0.06642133
62	0xbe874ddf	-0.26426598
63	0xbcfd9586	-0.030955087
64	0xbfa25f01	-1.2685243
65	0xbdb9dda9	-0.090754814
66	0x3d0f1841	0.03493524
67	0x3dd5733e	0.10422371
68	0x3ed401f0	0.41407728
69	0x3cb0d231	0.021584602
70	0xc08266c7	-4.075046
71	0x3c857b20	0.016294062
72	0x3d834d7c	0.06411263
73	0x3f8d46f4	1.1037278
74	0x3d72e26a	0.059297957
75	0xbde4b63c	-0.11167571
76	0xbd4b99fc	-0.049707398
77	0xbeae55a4	-0.34049714
78	0xbc6a4ae6	-0.014300084
79	0xbdf840d6	-0.121217415
80	0x3deb3028	0.114837945
81	0xc0679c7d	-3.6189263
82	0xbc9e0ea4	-0.01929409
83	0xbe0322b1	-0.12806202
84	0xbd70bd33	-0.058774184
85	0xbe56fdd7	-0.2099527
86	0xbf1a7fae	-0.60351074
87	0xbdc65f5b	-0.09686156
88	0xbe110651	-0.14162566
89	0x3d1e12fb	0.03859232
90	0xbe6d7c26	-0.2319189
91	0x3d08c8bf	0.03339457
92	0x3d43ebb3	0.047832202
93	0x3d962853	0.0733191
94	0x3f29f1c0	0.66384506
95	0xbfd3f5cd	-1.6559387
96	0xbe1ad4dd	-0.15120263
97	0x3cdabc24	0.02670104
98	0xbf991270	-1.1958752
99	0xbfb6281a	-1.4230988
100	0xbe475f26	-0.1946989
101	0x3f306345	0.68901473
102	0x3dc59177	0.09646886
103	0x3c1c2434	0.009530116
104	0xbcb96174	-0.022629477
105	0x3e0bac0b	0.13639848
106	0x3c300dc1	0.010745467
107	0x401389a6	2.3052764
108	0x3e3c991f	0.18417786
109	0xbd80316b	-0.06259426
110	0x3ebc5a58	0.36787677
111	0xbd92d4c9	-0.07169492
112	0x3e285f04	0.16442496
113	0xc04fc916	-3.2466483
114	0x3f13045c	0.57428527
115	0x3fee7b77	1.8631428
116	0x3e6f73d3	0.23384027
117	0x3e575817	0.21029697
118	0xbeddb4fa	-0.43302137
119	0xbf92e861	-1.1477166
120	0x3f5cba0d	0.8622139
121	0xbd16b21d	-0.036790956
122	0xbe69c864	-0.22830349
123	0xbd84f37c	-0.064917535
124	0x3e22b145	0.15887935
125	0x3dcf51b1	0.10123003
126	0x3d1d5d0f	0.038418826
127	0x3d888d4e	0.06667577
128	0xc0a55eb9	-5.167813
129	0x3c5f9e17	0.013648531
130	0x3f931f02	1.1493838
131	0xbde63882	-0.11241247
132	0xbd32c3f2	-0.0436439
133	0xc0e4594c	-7.1359005
134	0xbe26f4bf	-0.163043
135	0xbe1da0ec	-0.15393418
136	0x3dbf42a1	0.0933888
137	0xbfff4778	-1.9943686
138	0x3bb4a74c	0.0055131074
139	0xbc4bfcd8	-0.012450419
140	0xbd9aa774	-0.075514704
141	0x3f89f318	1.0777311
142	0xbe1ba0b6	-0.15198025
143	0xbe427821	-0.18991138
144	0x3d6e5874	0.058189824
145	0x3e28c1c2	0.16480163
146	0xc093bc46	-4.6167326
147	0xbcf75de2	-0.030196134
148	0xbcb78fe0	-0.022407472
149	0xbd62aa63	-0.055338275
150	0x3f575f5f	0.841299
151	0x3c3f1559	0.0116628045
152	0xbd1c17b2	-0.038108535
153	0xc00bfd8a	-2.1873498
154	0xbe0913fb	-0.13386528
155	0x3f8eed76	1.1166217
156	0xbcfa01ac	-0.030518375
157	0xbb7bbb24	-0.0038411105
158	0x3d236ae3	0.039896857
159	0xbef23f26	-0.47313803
160	0xc07a3f01	-3.9100955
161	0x3f8f10f5	1.117705
162	0xbddcc958	-0.10780591
163	0xbc320873	-0.010866272
164	0x3ddc3c2d	0.10753665
165	0x3f48ab2b	0.7838618
166	0x3c4f3203	0.012646201
167	0x3f9788dc	1.1838641
168	0xbe838710	-0.25688982
169	0x3d2a0f22	0.041518338
170	0xbf33de35	-0.70260936
171	0xbd9aaaef	-0.07552134
172	0xbd796a15	-0.060892183
173	0x3fbd0d92	1.4769766
174	0x3f88eb19	1.0696746
175	0xbfe8ea98	-1.8196592
176	0xbe40234c	-0.18763465
177	0x3e25d083	0.16192822
178	0x3f3963e6	0.7241806
179	0x3f7f7514	0.9978802
180	0xc052f4f4	-3.2962008
181	0xbe1e4237	-0.15454946
182	0x3e02de14	0.12780029
183	0xbd0e712b	-0.034775894
184	0xbfb69661	-1.4264642
185	0xbd7b3274	-0.061327413
186	0xbc5052d4	-0.01271506
187	0xbe044a94	-0.12919074
188	0x3ea5062a	0.32231265
189	0xbbf5b639	-0.0074985293
190	0x3fa16397	1.2608517
191	0xbdcdb567	-0.100443654
192	0xbd8cac66	-0.0686882
193	0xbfe47003	-1.7846683
194	0xbd885a41	-0.066578396
195	0xbce2d4c2	-0.027689341
196	0x3b29864a	0.0025867396
197	0x3ee2084f	0.44146964
198	0xbe0c4442	-0.13697913
199	0xbd13eac6	-0.03611257
200	0xbd31a98a	-0.043374576
201	0x3e81ac61	0.25326827
202	0xbdedd702	-0.11613275
203	0x3e41be31	0.18920209
204	0x3d1b6395	0.037936766
205	0xbdbe3bb0	-0.09288728
206	0x3f415e15	0.7553418
207	0x3d237e35	0.039915282
208	0xbe220fef	-0.1582639
209	0xbb722966	-0.0036950945
210	0x3f8835da	1.0641434
211	0x3d8b9906	0.06816296
212	0xbe1c0168	-0.15234911
213	0x3fce86e2	1.6134913
214	0xc0a147ab	-5.0399985
215	0x3f0841a3	0.53225154
216	0x3c71c35d	0.014756051
217	0xbe319e20	-0.17345476
218	0xbf23650f	-0.6382608
219	0x3f8797bf	1.0593184
220	0x3fcb60cd	1.5888916
221	0xc0af48f5	-5.477656
222	0x3e931c79	0.2873266
223	0x3ca77859	0.020443128
224	0x3d37eab2	0.044901557
225	0x3e1ac4c7	0.15114127
226	0xbdb27227	-0.08713179
227	0x3d3a3fa8	0.045470864
228	0xbe859fac	-0.26098382
229	0xbd80fe33	-0.06298485
230	0xbf4f5ea9	-0.81003815
231	0xbcf70036	-0.030151468
232	0x3d1fa535	0.038975913
233	0xbfea7d94	-1.8319573
234	0xc0b4d1c9	-5.6506085
235	0xc092229f	-4.566726
236	0x3e670f3b	0.22564404
237	0xbe4f59ca	-0.20249096
238	0x40120994	2.2818346
239	0x3e794910	0.24344277
240	0xbff83825	-1.9392134
241	0xbdd7e4e1	-0.10541702
242	0xbeb1524a	-0.34633094
243	0xbd478109	-0.048707042
244	0xbedf908b	-0.43664965
245	0xbd8c9688	-0.06864649
246	0xbe39f837	-0.18161093
247	0xbd996d93	-0.07491603
248	0xbda34ccc	-0.07973632
249	0x3ce82411	0.02833751
250	0xbebfefca	-0.37487632
251	0x3c99e63d	0.018786544
252	0x3d351b3c	0.044215426
253	0x3f71e43f	0.944889
254	0xbd579547	-0.052632596
255	0x3d067214	0.032823637

out.bias f4 [9]
0	0xbecab0f9	-0.39588144
1	0xbef375a3	-0.47550687
2	0x3f802687	1.0011758
3	0xbf0b4929	-0.5440851
4	0x3fb1888f	1.3869799
5	0xbf2cd640	-0.6751442
6	0xbf87318c	-1.0561996
7	0x3f4286a0	0.7598667
8	0x3e3514c0	0.17683697
