Machine_Learning/Final/MLPW9.pt (torch, 220951 bytes, 6 tensors)

fc1.weight f4 [150, 300]
0	0x3d31abd2	0.04337675
1	0xbcd79bea	-0.026319463
2	0xbc229880	-0.009924054
3	0x3d072338	0.03299257
4	0xbd370d78	-0.04469058
5	0x3c161a88	0.009161599
6	0x3c8c11f4	0.017098404
7	0xbd61a55f	-0.05508935
8	0x3c2561a8	0.010094084
9	0xbca52d08	-0.020163074
10	0x3d542204	0.051790252
11	0x3b259fd0	0.0025272258
12	0x3d32db22	0.043666013
13	0x3cd536c4	0.02602709
14	0x3cb6837c	0.022279494
15	0xbd603e1a	-0.054746725
16	0x3d4c4ba6	0.04987683
17	0xbd414eb0	-0.047194183
18	0x3ccde8c8	0.025135413
19	0x3cd6d8bc	0.026226394
20	0xb9c57300	-0.0003766045
21	0x3d4bbad6	0.049738728
22	0xbc7a55cc	-0.015279245
23	0xbd0b94ba	-0.034077384
24	0x3c9bbe1c	0.01901155
25	0xbc52aa74	-0.012858022
26	0xbd474872	-0.048653074
27	0xbd281162	-0.041032203
28	0xbd16ef9d	-0.036849607
29	0x3c882c78	0.016622767
30	0xbd2559ad	-0.040368725
31	0x3cd7b560	0.026331604
32	0x3d36e724	0.044654027
33	0xbcbfe5ae	-0.02342495
34	0x3d05bf74	0.032653287
35	0x3a9e7e80	0.0012092143
36	0x3d16bd40	0.036801577
37	0xbbee8c10	-0.0072798803
38	0xbd13acd1	-0.036053482
39	0x3d32cf0a	0.04365448
40	0xbd116bd2	-0.035503216
41	0x3c5bb310	0.013409391
42	0x3d06c4fa	0.032902695
43	0xbd2b2d9a	-0.041791536
44	0xbd56f94d	-0.052483846
45	0x3d0425d4	0.03226264
46	0xbd69b5a7	-0.057058003
47	0xbd3081a9	-0.043092404
48	0x3ccd029c	0.025025658
49	0xbc9e9024	-0.019355841
50	0x3d26ebfc	0.040752396
51	0xbc4c6384	-0.012474898
52	0x3c184118	0.009292863
53	0xbd02a3fd	-0.031894673
54	0x3c3b0ce8	0.011416651
55	0xbd5a6b90	-0.053325236
56	0xbd33d6b2	-0.04390592
57	0xbd35aefa	-0.044356324
58	0x3bdead90	0.0067955926
59	0xbc280eec	-0.010257464
60	0x3d6b6212	0.057466574
61	0x3b0d9800	0.0021605492
62	0x3d4bd970	0.04976791
63	0xbd0c8d11	-0.03431422
64	0x3c6aa700	0.014322042
65	0xbc225e04	-0.00991011
66	0x3d5647be	0.052314512
67	0x3c9dd164	0.019264884
68	0x3b8821a0	0.004154399
69	0xbd172e74	-0.036909536
70	0xbd48c791	-0.049018446
71	0xbc96d9a6	-0.01841433
72	0x3cf3b5a8	0.029749706
73	0xbcffc2b9	-0.03122078
74	0xbcc6a90a	-0.024250526
75	0xbd4ef1d0	-0.05052358
76	0x3d5f0f10	0.054457724
77	0x3d55b196	0.052171312
78	0xbd080db9	-0.033216212
79	0x3af3cd00	0.0018600523
80	0xbb52b1f0	-0.0032149516
81	0x3c27b710	0.010236517
82	0xbd19ae5f	-0.03751981
83	0xbd13895e	-0.036019675
84	0xbc0af0a4	-0.008480225
85	0xbd35cfe2	-0.044387706
86	0x3bd2b170	0.0064298436
87	0xbcf1cced	-0.029516662
88	0xbd3aed00	-0.045636177
89	0xbb3ab430	-0.0028488748
90	0xbcc622ac	-0.024186455
91	0x3cc3784c	0.023861073
92	0x3d404866	0.046944045
93	0xbd0bacfe	-0.034100525
94	0xbc93ca80	-0.018040895
95	0xbc27090c	-0.010195028
96	0xbd66765d	-0.056265224
97	0xbd656074	-0.056000188
98	0x3cbc9ea8	0.023024872
99	0xbb759ad0	-0.0037476309
100	0xbcf1c7ee	-0.02951428
101	0x3d61fa7c	0.05517052
102	0xbd6bac14	-0.057537153
103	0x3d50febc	0.051024184
104	0xbd61c6ee	-0.055121355
105	0xbd0b3e6c	-0.033995077
106	0x3d017210	0.03160292
107	0xbc6f6dd0	-0.014613584
108	0xbc8e0178	-0.017334685
109	0xbd2164e5	-0.03940286
110	0x3c907aec	0.017636739
111	0x3d3ea4a8	0.046543747
112	0x3c9a225c	0.018815212
113	0x3d6780d2	0.056519337
114	0xbd3bcc5c	-0.04584919
115	0xbd42c18f	-0.047547873
116	0xbd0dc258	-0.03460917
117	0xbbbfddd8	-0.0058553033
118	0x3c254eb0	0.010089561
119	0x3a9a2020	0.0011758842
120	0x3be147d0	0.006875016
121	0xbd18e9e8	-0.037332445
122	0xbc756384	-0.01497734
123	0x3b9aef90	0.004728265
124	0x3c86c434	0.016450979
125	0xbd1f2b7a	-0.03885982
126	0x3d20ce2e	0.03925913
127	0xbb920288	-0.004455868
128	0x3caffed4	0.021483816
129	0x3d55ac22	0.05216611
130	0x3cf9d380	0.030496359
131	0x3cba972c	0.022777162
132	0xbcb118fa	-0.021618355
133	0xbd26af08	-0.040694267
134	0x3ca62b20	0.020284235
135	0x3d40dcb6	0.047085486
136	0x3cff6410	0.031175643
137	0x3b9a9298	0.0047171824
138	0x3d43cac8	0.04780081
139	0xbca66de8	-0.02031608
140	0xbcbd4704	-0.023105152
141	0xbccde46a	-0.02513333
142	0xbcfc3b46	-0.030789983
143	0xbb189d50	-0.0023287125
144	0xbd6462f6	-0.05575844
145	0x3d2796ba	0.04091523
146	0xbd6c4dd2	-0.057691403
147	0xbce0ae55	-0.027426878
148	0x3cbdaad0	0.023152739
149	0xbb528870	-0.003212478
150	0xbcc2b718	-0.023768947
151	0xbd5403e7	-0.051761534
152	0x3d0c587a	0.034264065
153	0x3d5e73b4	0.05430956
154	0x3b8f9278	0.004381474
155	0xbcba25c4	-0.022723086
156	0xbc5c5e7c	-0.013450261
157	0xbd307db3	-0.043088626
158	0x3c873f28	0.016509607
159	0x3cc52b78	0.02406858
160	0xbc411640	-0.01178509
161	0xbce87ebc	-0.028380744
162	0x3cf6b840	0.030117154
163	0xbbee6548	-0.0072752573
164	0x3cae64e4	0.021288343
165	0x3c3c3788	0.011487849
166	0x3d210e4e	0.039320283
167	0xbcdf3ad2	-0.027249727
168	0xbd5362f6	-0.05160805
169	0x3b89b2c0	0.004202217
170	0xbd46a0fa	-0.048493363
171	0xbd5c2d17	-0.05375394
172	0x3d2e989a	0.042626
173	0xbb990178	-0.0046693645
174	0x3d20424e	0.039125733
175	0x3cd486a4	0.025943108
176	0x3d47872a	0.048712887
177	0x3c318368	0.010834552
178	0x3d573744	0.05254294
179	0xbcc35f52	-0.023849163
180	0xbd13d686	-0.036093257
181	0xbb407150	-0.0029364415
182	0xbc565a84	-0.013083104
183	0x3d0a83b0	0.033816993
184	0xbbff2ff0	-0.007787697
185	0x3bda90f0	0.00667011
186	0xbce440cc	-0.027862929
187	0xbd374584	-0.04474403
188	0x3cac87ac	0.021060787
189	0xbceacc4c	-0.02866187
190	0x3d5b118a	0.053483523
191	0x3d5811da	0.0527514
192	0xbd500712	-0.050787993
193	0xbcc5217a	-0.024063814
194	0xbd1280b6	-0.03576728
195	0x3d6c37ee	0.057670526
196	0xbcf27e51	-0.029601248
197	0x3d5f59e6	0.054529093
198	0x3d3bbb18	0.045832723
199	0xbc026fb8	-0.007961206
200	0xbc8c4d7a	-0.017126787
201	0x3d2da3d6	0.042392574
202	0xbc138fe4	-0.009006474
203	0xbc08bf1c	-0.008346345
204	0x3c2aa788	0.010415919
205	0xbd5c784e	-0.05382567
206	0xbb1943f0	-0.0023386441
207	0x3cf64fb8	0.03006731
208	0xbcc31abe	-0.023816463
209	0xbbb9cc10	-0.005670078
210	0xbd12321e	-0.035692327
211	0xbc076b94	-0.008265395
212	0x3ceb7558	0.028742477
213	0xbb491630	-0.003068339
214	0xbd2c2bb2	-0.04203386
215	0x3c5007f0	0.012697205
216	0xbd2f8906	-0.042855285
217	0x3d501070	0.050796926
218	0x3cbb5f30	0.022872537
219	0x3ba3c3c0	0.0049977005
220	0xbd38f5d2	-0.045156308
221	0x3d656536	0.056004725
222	0xbd64d5ae	-0.055867843
223	0xbb1dc6c0	-0.0024074763
224	0xbd42c67b	-0.047552567
225	0xbd4397d0	-0.0477522
226	0x3c729178	0.01480519
227	0x3d1fc99a	0.03901062
228	0x3ca97c9c	0.020689301
229	0x3d5f2ea8	0.054487854
230	0xbb9874d0	-0.004652597
231	0xbd2bad39	-0.041913245
232	0x3c598840	0.013277113
233	0xbba48d18	-0.0050217025
234	0x3bff2a10	0.0077869967
235	0xbbb01c10	-0.005374439
236	0xbd55c94e	-0.052193932
237	0xbca8b45a	-0.02059381
238	0x3d5f5e66	0.054533385
239	0x3d09c15e	0.033631675
240	0x3d44ccc2	0.048046835
241	0x3c7fc400	0.015610695
242	0x3d4963f2	0.04916758
243	0x3c2c11a8	0.010502256
244	0x3bc0b2e0	0.0058806986
245	0xbbf83a10	-0.007575281
246	0xbcc2a9ea	-0.023762662
247	0x3d07f7be	0.03319525
248	0xbd221c86	-0.039577983
249	0xbc83031a	-0.01599269
250	0x3ce6e658	0.028186008
251	0xbba0b878	-0.004904803
252	0xbd112e0c	-0.035444304
253	0xbc27b784	-0.010236625
254	0x3cc11ad8	0.02357237
255	0xbca1dea6	-0.019759487

fc1.bias f4 [150]
0	0xbd4eae55	-0.050459225
1	0xbc41c9d4	-0.011827905
2	0xbce08704	-0.02740813
3	0xbddf39b5	-0.108996786
4	0xbe9c2dea	-0.3050378
5	0xbd20c9bf	-0.0392549
6	0xbd0b8fe2	-0.034072764
7	0xbd53eddf	-0.051740523
8	0xbdea66d2	-0.11445393
9	0x3e9fb518	0.3119285
10	0x3d399e6b	0.045317095
11	0xbe08d88c	-0.13363856
12	0x3ecc0ddd	0.39854327
13	0xbdb8a667	-0.09016114
14	0xbd8119d1	-0.06303752
15	0xbddef0cc	-0.10885772
16	0xbc151cfc	-0.009101149
17	0xbd890580	-0.06690502
18	0xbe82a445	-0.25515953
19	0xbd11c4ae	-0.03558796
20	0xbcb392ae	-0.021920528
21	0xbc787b04	-0.015166048
22	0xbe492609	-0.19643416
23	0xbce972c8	-0.028497115
24	0xbd38806b	-0.045044344
25	0xbac9f7c3	-0.0015408922
26	0xbc7ee6e0	-0.015557975
27	0xbd3651f1	-0.04451174
28	0xbc470a54	-0.0121484585
29	0x3d93805a	0.072022155
30	0xbd0b1d74	-0.033963636
31	0xbbf4ab28	-0.0074666925
32	0xbe03a5a5	-0.12856157
33	0xbd1eba5c	-0.038751945
34	0xbd4ba241	-0.049715284
35	0xbeaefbf4	-0.341766
36	0x3ea4a277	0.321552
37	0xbd0522d9	-0.032503936
38	0xbe68690f	-0.22696327
39	0xbd32963d	-0.04360031
40	0x3f0792cb	0.52958363
41	0xbe3b1616	-0.18270144
42	0xbc9e80d4	-0.01934854
43	0xbcff32e0	-0.031152189
44	0xbca746e4	-0.020419545
45	0xbcc741f6	-0.024323445
46	0x3e5befad	0.21478148
47	0x3eb4c3ed	0.3530573
48	0xbd376491	-0.044773642
49	0x3de7b1de	0.11313222
50	0x3e099583	0.1343594
51	0xbe126436	-0.1429604
52	0xbce9bd07	-0.028532518
53	0xbdc6c6f5	-0.09705917
54	0xbe625310	-0.22101998
55	0xbe62bcd9	-0.22142352
56	0x3ecda876	0.40167588
57	0xbcf34558	-0.029696152
58	0xbcaffeae	-0.021483745
59	0x3d60ec1c	0.05491267
60	0xbd2282f7	-0.03967568
61	0x3e89c4bd	0.26907912
62	0xbd079926	-0.033105038
63	0xbe138c45	-0.14408977
64	0xbc03b70c	-0.008039247
65	0x3df2628d	0.11835203
66	0x3c1f3c08	0.009718902
67	0xbd255eec	-0.040373728
68	0x3e093348	0.13398468
69	0x3e3087e5	0.1723934
70	0xbe309dc0	-0.17247677
71	0xbcd6ae0c	-0.026206039
72	0xbef4dfe2	-0.4782706
73	0xbc390f14	-0.011295099
74	0xbd483180	-0.048875332
75	0xbd2019b4	-0.039087012
76	0x3e6848e9	0.22684063
77	0xbec7d4df	-0.39029595
78	0xbc61d198	-0.013782881
79	0xbd297e6a	-0.041380323
80	0xbea31df3	-0.31858787
81	0xbcbe6c10	-0.023244888
82	0x3c9fa9de	0.019490179
83	0x3ea5b669	0.3236573
84	0xbeed4c5f	-0.4634733
85	0x3e9c1486	0.30484408
86	0x3d8dafcf	0.069182985
87	0xbd4b5a26	-0.04964652
88	0xbc5bc5a1	-0.013413818
89	0xbd6bfa3c	-0.05761169
90	0xbd74699d	-0.059671033
91	0x3f00651f	0.501543
92	0xbe904c4d	-0.28183213
93	0xbd1abffc	-0.037780747
94	0x3caab5c0	0.020838618
95	0xbc5ae61c	-0.013360526
96	0xbd1cd8ba	-0.038292624
97	0xbd469eef	-0.048491415
98	0xbd062474	-0.03274961
99	0x3ed2d01e	0.41174406
100	0xbca0a6a6	-0.019610714
101	0xbd970b65	-0.0737522
102	0xbcafd38e	-0.021463182
103	0xbcf82cc7	-0.030294789
104	0xbc69f8a8	-0.014280476
105	0xbd6fea88	-0.058573276
106	0x3edb35fd	0.42814627
107	0xbd63aa8c	-0.055582568
108	0xbbe23d10	-0.006904252
109	0xbdef917d	-0.116976716
110	0x3daf4405	0.085578956
111	0xbd2c163e	-0.0420134
112	0x3e9d5a9e	0.30733198
113	0xbe0ff27a	-0.14057341
114	0x3e40b7ae	0.18820068
115	0xbca80b56	-0.020513218
116	0xbd0cfa4e	-0.034418397
117	0xbd7f3e29	-0.06231514
118	0xbdd16321	-0.102239855
119	0xbc207d84	-0.00979555
120	0xbd92e987	-0.07173448
121	0xbd8fe686	-0.07026391
122	0xbcb861fa	-0.022507656
123	0xbeeb4743	-0.45952806
124	0xbd49f17c	-0.049302563
125	0xbc9616d8	-0.01832144
126	0x3bef9993	0.0073120086
127	0xbe896a1e	-0.26838773
128	0x3e87abaf	0.26498172
129	0xbc740930	-0.014894769
130	0xbdb54d25	-0.08852605
131	0xbdc32635	-0.09528772
132	0xbe2ad9bd	-0.16684623
133	0x3edbcb46	0.42928523
134	0xbe56fb59	-0.20994319
135	0xbe3fd6e5	-0.1873432
136	0xbc6956bc	-0.0142418705
137	0xbcc1880e	-0.023624446
138	0xbca08436	-0.019594293
139	0xbe10c124	-0.14136177
140	0x3c8989c8	0.016789332
141	0xbcdd596a	-0.027020175
142	0xbd6ed4d9	-0.058308456
143	0xbd599ea6	-0.053129815
144	0x3ebf2d71	0.37339357
145	0xbd6fd8c5	-0.058556337
146	0xbc77b4c2	-0.01511878
147	0xbd37b777	-0.0448527
148	0xbd06fffa	-0.032958962
149	0x3eaf2d34	0.34214175

fc2.weight f4 [60, 150]
0	0xbda38903	-0.07985117
1	0x3ce5fa10	0.02807334
2	0x3cc37da0	0.023863614
3	0x3c5a45f1	0.013322339
4	0xbc2667e6	-0.010156607
5	0xbce170b8	-0.027519569
6	0xbc8a32fc	-0.016870014
7	0x3d5dfc14	0.05419548
8	0xbd2b2417	-0.041782465
9	0x3cea5678	0.028605685
10	0xbd4779e5	-0.048700232
11	0xbdea568f	-0.11442291
12	0xbdd859cd	-0.10564003
13	0xbb032390	-0.002001021
14	0xbc0c7d68	-0.008574821
15	0xbdb6db27	-0.08928519
16	0xbd88fbc8	-0.066886485
17	0xbd76bd23	-0.06023897
18	0xbbc86723	-0.0061158105
19	0x3ce78500	0.028261662
20	0x3d1b32c6	0.03789022
21	0xbd20c1a0	-0.039247155
22	0xbe03a803	-0.1285706
23	0xbd85c760	-0.065321684
24	0xbda488a9	-0.08033878
25	0xbdfbd9a7	-0.12297373
26	0xbcb65bc4	-0.022260554
27	0xbd2cac91	-0.04215676
28	0x3d45e6dc	0.048315868
29	0xbd2997fd	-0.041404713
30	0x3d44659c	0.047948465
31	0xbd96655f	-0.07343554
32	0xbdb0ea08	-0.08638388
33	0xbd3a573c	-0.04549335
34	0x3cf29bc0	0.029615283
35	0x3c7b61aa	0.015343109
36	0xbdf0622c	-0.11737475
37	0x3cd28444	0.025697835
38	0xbc917ebb	-0.017760625
39	0x3d902272	0.0703782
40	0xbc97ee78	-0.018546328
41	0x3c7c616b	0.015404086
42	0x3ab0bb80	0.0013483614
43	0xbd1b8b85	-0.037974853
44	0x3d3d87f8	0.046272248
45	0xbd256e04	-0.040388122
46	0xbd93b7f6	-0.07212822
47	0xbd80b5b0	-0.06284654
48	0xbe0e32bc	-0.13886541
49	0xbdaad7f6	-0.083419725
50	0x39fe5a46	0.00048513914
51	0xbb770e4e	-0.0037697735
52	0x3d898672	0.067150965
53	0xbda3ec86	-0.08004098
54	0xbce35ce9	-0.027754264
55	0xbd432ac9	-0.047648225
56	0xbd910cfe	-0.07082556
57	0x3d316058	0.04330477
58	0xbd534d6c	-0.051587507
59	0xbd683a43	-0.056696188
60	0x3bdcfb50	0.006743826
61	0xbe0dbecc	-0.13842314
62	0xbd39b90f	-0.0453425
63	0xbda873a1	-0.082251795
64	0xbd58fb2a	-0.052973904
65	0xbdf999a5	-0.121875085
66	0xbd85f599	-0.06540985
67	0x3d5167e8	0.051124483
68	0xbd0980db	-0.03357015
69	0x3c1d54b8	0.009602718
70	0x3c41fe0c	0.011840355
71	0x3d85c60e	0.065319166
72	0xbc97894c	-0.018498085
73	0x3d17d07c	0.03706406
74	0x3cee9b2c	0.029126726
75	0xbce071ba	-0.027397979
76	0x3da256ba	0.07926698
77	0xbd36dc08	-0.044643432
78	0xbd81a194	-0.06329647
79	0xbd95de21	-0.07317758
80	0xbda57848	-0.080795825
81	0x3d013fc8	0.031554967
82	0xbe0f6202	-0.14002231
83	0xbe0a63bc	-0.13514608
84	0xbdc29d0d	-0.09502611
85	0xbd341cc1	-0.043972734
86	0xbe0be9f3	-0.13663463
87	0x3cb6767c	0.022273295
88	0xbd8054d5	-0.062661804
89	0xbd9843ea	-0.074348286
90	0xbb4b0a60	-0.0030981526
91	0xbdc6e6cd	-0.097119905
92	0x3c287db4	0.010283876
93	0xbd0ff56f	-0.035146173
94	0x3aac3b39	0.0013140208
95	0x3d588f7c	0.052871212
96	0xbce38c28	-0.027776793
97	0xbbd6f2a0	-0.006559685
98	0x3d84385c	0.06456062
99	0xbcc7f151	-0.02440706
100	0x3d7a550c	0.061116263
101	0x3b9204e4	0.0044561494
102	0xbd4ab598	-0.049489588
103	0xbd91b97a	-0.07115455
104	0xbd865f29	-0.06561119
105	0xbcd48e4a	-0.025946755
106	0xbd715294	-0.058916643
107	0x3c0496d0	0.008092597
108	0x3c29c198	0.010361098
109	0xbc9bf37d	-0.019037003
110	0xbdc1b7de	-0.09458898
111	0xbbb7b740	-0.005606562
112	0xbe0499a8	-0.1294924
113	0xbcce727f	-0.02520108
114	0xbdf2db0e	-0.118581876
115	0xbd697427	-0.056995537
116	0x3d9566f4	0.072950274
117	0xbd25d0cb	-0.040482324
118	0xbcf5fb23	-0.030026978
119	0xbce2ee68	-0.027701572
120	0xbcd1e185	-0.025620231
121	0xbde453e8	-0.11148816
122	0xbc2470a8	-0.010036625
123	0xbda35724	-0.07975605
124	0x3d8b32bc	0.06796786
125	0xbd6ee516	-0.058323942
126	0xbd1dee83	-0.03855754
127	0xbe072607	-0.131981
128	0xbdeba1a8	-0.11505443
129	0xbd9d4f60	-0.07681155
130	0xbcdc384a	-0.02688231
131	0xbdc05f63	-0.093931936
132	0xbb9b7b41	-0.0047449176
133	0xbc8c0845	-0.017093787
134	0xbbfdab63	-0.007741378
135	0xbdda7cff	-0.10668372
136	0x3c71c1a8	0.014755644
137	0xbda20cd3	-0.07912602
138	0xbcdfde98	-0.02732782
139	0xbd21e5b6	-0.03952571
140	0xbd74a679	-0.059729073
141	0xbb4d1240	-0.0031291395
142	0x3d8b4a96	0.068013355
143	0x3b84e850	0.004056014
144	0xbdacfed6	-0.084470436
145	0x3cd039a8	0.025418118
146	0x3c1dd76f	0.009633883
147	0xbbba6820	-0.005688682
148	0xbb26ca80	-0.002545029
149	0x3bde9138	0.006792214
150	0xbd8e3be5	-0.06945018
151	0x3d95353c	0.07285544
152	0x3da5edba	0.08101983
153	0x3cc396dd	0.023875648
154	0x3bae2713	0.0053147166
155	0x3cf1c0e8	0.02951093
156	0x3d94fbac	0.07274565
157	0xbc11d4d0	-0.008900836
158	0xbde26a0d	-0.11055384
159	0x3d920eae	0.07131706
160	0xbdf4e523	-0.11957767
161	0xbdb250ee	-0.08706842
162	0xbd9637bd	-0.0733485
163	0xbd9f8b16	-0.077902004
164	0xbda2d6b3	-0.07951107
165	0xbd9b9261	-0.07596279
166	0x3c334508	0.010941751
167	0x3c12f780	0.008970141
168	0xbd1f6e79	-0.038923714
169	0xbce05324	-0.027383395
170	0x3b4d0140	0.0031281263
171	0xbd413bde	-0.047176234
172	0xbd61a720	-0.055091023
173	0xbd9625dd	-0.073314406
174	0x3d5cbce4	0.053891078
175	0xbe032d9f	-0.12810372
176	0x3d75cea8	0.060011536
177	0x3c9269b0	0.017872661
178	0xbd008aac	-0.031382248
179	0xbc631955	-0.01386102
180	0x3d576c70	0.05259365
181	0xbd33d792	-0.043906756
182	0xbda31b07	-0.079641394
183	0x3d87ce58	0.06631154
184	0x3c1798a8	0.009252705
185	0xbd8b4b12	-0.06801428
186	0xbdc07787	-0.09397798
187	0x3ca35a18	0.019940421
188	0xbd702375	-0.058627564
189	0xbd9d377a	-0.07676597
190	0xbbec0afd	-0.0072034583
191	0xbc928b9f	-0.017888842
192	0xbd3fccec	-0.046826288
193	0x3d4acf40	0.049514055
194	0xbd14e9ad	-0.036355663
195	0xbd6a2562	-0.057164557
196	0x3d44fb3c	0.04809116
197	0x3d2bade4	0.041913882
198	0xbccfa54e	-0.025347378
199	0x3c7d73c3	0.015469494
200	0xbd7b65ea	-0.06137649
201	0xbc96b514	-0.018396892
202	0x3d6643c0	0.056216955
203	0xbd49af5b	-0.049239498
204	0x3d9a22c8	0.07526165
205	0xbda3eac3	-0.080037616
206	0xbcfceca5	-0.03087456
207	0xbd42a1e4	-0.047517672
208	0x3d292a02	0.041299827
209	0x3c3dcfa0	0.011585146
210	0x3cafa6f4	0.021441914
211	0xbdb733a0	-0.089453936
212	0xbd71d9e6	-0.059045695
213	0xbd8915ca	-0.06693609
214	0x3d151b42	0.03640295
215	0x3c4a1fd0	0.012336686
216	0x3ce7b1a4	0.028282948
217	0x3d2817aa	0.041038193
218	0xbdb9e4fb	-0.09076878
219	0x3d819528	0.063272774
220	0xbbe858c9	-0.007090662
221	0xbcb3351c	-0.02187591
222	0xbe0316a7	-0.1280161
223	0x3d93db2c	0.07219538
224	0xbd6bf192	-0.057603426
225	0xbd9a2312	-0.075262204
226	0x3b724b20	0.0036971048
227	0x3c24a2ea	0.010048607
228	0xbd0fd109	-0.03511146
229	0x3d4ac63c	0.049505457
230	0xbdf1f8bb	-0.1181502
231	0x3d403760	0.04692781
232	0x3cc687af	0.02423462
233	0xbce4a70e	-0.02791169
234	0xbb34fbf9	-0.0027616008
235	0x3cbb0312	0.022828612
236	0xbd6a0f16	-0.057143293
237	0xbd2c5b65	-0.042079348
238	0x3bfc4d20	0.0076996237
239	0xbcb90fca	-0.022590537
240	0xbda29643	-0.079388164
241	0xbd29d750	-0.041465104
242	0x3c8aeb64	0.016957946
243	0x3c88cedc	0.0167002
244	0x3ce66f34	0.028129198
245	0xbc1e5930	-0.009664819
246	0xbd1e719a	-0.038682558
247	0xbd6a57fa	-0.057212807
248	0xbd3c0758	-0.04590544
249	0x3c7dd38f	0.015492334
250	0x3d4295b8	0.047506064
251	0xbd5fadda	-0.054609157
252	0x3d589f50	0.052886307
253	0xbd8e5412	-0.06949629
254	0xbd8cddbc	-0.0687823
255	0xbdcdf806	-0.10057072

fc2.bias f4 [60]
0	0xbdf8e9a8	-0.121539414
1	0xbd95c947	-0.07313781
2	0xbac7004c	-0.0015182584
3	0xbe9a8c2f	-0.30185077
4	0xbd3eff2f	-0.04663008
5	0xbd911680	-0.0708437
6	0xbe63da48	-0.22251236
7	0xbd7ae6d5	-0.061255295
8	0xbdad07f7	-0.08448785
9	0xbeeec39c	-0.46633613
10	0x3f2b1e1a	0.66842806
11	0xbe3ba64f	-0.1832516
12	0xbc96fe6e	-0.018431868
13	0xbf356b27	-0.70866627
14	0xbb456167	-0.003011787
15	0xbe47a431	-0.19496228
16	0xbe6d02b7	-0.23145567
17	0xbd979e82	-0.0740328
18	0x3b560286	0.0032655313
19	0xbdea20cc	-0.11432037
20	0xbe00ff14	-0.12597305
21	0xbd6de20f	-0.058076914
22	0xbdd40abe	-0.103536114
23	0x3f1ec586	0.62020147
24	0xbeb033eb	-0.3441461
25	0xbde76f60	-0.1130054
26	0xbf27ba78	-0.65518904
27	0xbe2f223a	-0.171029
28	0x3f919977	1.1374959
29	0x3f47d883	0.78064746
30	0x3eca89a0	0.39558125
31	0xbefa82b2	-0.48927838
32	0xbc4cb2e4	-0.012493823
33	0xbe807675	-0.25090376
34	0xbf072669	-0.52792984
35	0xbd5d45a5	-0.054021496
36	0xbdae8452	-0.08521332
37	0xbd740162	-0.05957163
38	0xbe1e954e	-0.15486643
39	0x3ee7cb1c	0.45272148
40	0xbe8deff3	-0.2772213
41	0xbd778384	-0.060428157
42	0xbdf57305	-0.11984829
43	0xbe8fa236	-0.28053445
44	0xbdd45398	-0.10367507
45	0x3f527b73	0.8221962
46	0xbec729ea	-0.38899165
47	0xbeb2a655	-0.34892526
48	0x3f79b6f6	0.975448
49	0xbe1b6265	-0.15174253
50	0x3cde78c2	0.027157191
51	0xbd7bbc80	-0.061459064
52	0xbcda9a89	-0.026685016
53	0xbe8216e8	-0.254081
54	0xbe190e04	-0.14946753
55	0xbe527dca	-0.20555797
56	0x3f170517	0.5899214
57	0xbdf6cc55	-0.12050692
58	0xbda4b08a	-0.08041485
59	0x3edd2b2a	0.43196994

out.weight f4 [9, 60]
0	0xbe2f50f6	-0.17120728
1	0xbd4bd321	-0.049761895
2	0xbd2b77b0	-0.04186219
3	0xbe702605	-0.23452003
4	0x3dcc0226	0.09961347
5	0x3c301580	0.0107473135
6	0xbeec6eb1	-0.461782
7	0x3f2c7d81	0.67379004
8	0x3e2f5070	0.17120528
9	0x3ea6eb6a	0.32601482
10	0x3f072c99	0.52802426
11	0x3d87dd58	0.06634015
12	0xbb105ca7	-0.0022027881
13	0x3f8d593d	1.1042858
14	0xbd8dc979	-0.069231935
15	0xbdb12926	-0.086504266
16	0x3e00911b	0.12555353
17	0xbdc669d9	-0.096881576
18	0x3d89e05f	0.067322485
19	0x3fdd7f85	1.7304541
20	0x3d3b4988	0.04572442
21	0x3e0271ec	0.1273877
22	0x3dc6fdad	0.097163536
23	0xbf3b34a2	-0.73127186
24	0xbe99598d	-0.29951134
25	0x3d2acd75	0.041699845
26	0xc0156db8	-2.3348217
27	0x3d4e21c8	0.050325185
28	0xc042985c	-3.0405493
29	0x3ef99958	0.48749804
30	0xbf2171fb	-0.63064545
31	0x3dc9d6ca	0.09855421
32	0xbd259dd5	-0.040433723
33	0x3f2e31c8	0.6804471
34	0xc03b4536	-2.9260993
35	0xbbeda5bf	-0.0072524245
36	0xbddd5018	-0.10806292
37	0xbe099ce1	-0.13438751
38	0xbcc967a7	-0.024585558
39	0x3f078e9d	0.52951986
40	0x3f110753	0.566518
41	0xc02eb953	-2.7300613
42	0xbdf4ae57	-0.11947315
43	0x3e8274ce	0.2547974
44	0xbf8d8206	-1.1055305
45	0x3ceeb0bf	0.029137013
46	0x397a8400	0.00023891032
47	0xbf8e7170	-1.1128368
48	0xbfd677d3	-1.6755317
49	0x3c819072	0.015815947
50	0x3f1f099d	0.62124044
51	0xbbdba030	-0.0067024454
52	0x3e1dbea4	0.15404755
53	0x3e1cd88a	0.15316978
54	0x3cf0ffd9	0.029418873
55	0xbdf1df89	-0.11810214
56	0x3e97891b	0.2959679
57	0xbbdb05ef	-0.006684057
58	0xbe1c1841	-0.15243627
59	0xbe2e2d07	-0.17009364
60	0xbcc095c3	-0.023508912
61	0xbc79a5d5	-0.015237291
62	0xbd734dfc	-0.059400544
63	0x3e8d65fc	0.2761687
64	0xbd4e4caa	-0.05036608
65	0x3d6d8080	0.057983875
66	0xbfed38c7	-1.8532952
67	0xbfa7a6dd	-1.3097798
68	0xbdd44b9c	-0.10365984
69	0x3dfc5733	0.123213194
70	0x3f078d13	0.5294964
71	0xbd85bf25	-0.065305986
72	0xbe17145e	-0.14753863
73	0x3f11545c	0.5676935
74	0x3c898acc	0.016789816
75	0xbe950a5e	-0.29109472
76	0x3e2d70a6	0.16937503
77	0xbd80a1ab	-0.06280836
78	0x3ca248e8	0.019810155
79	0x3f115a00	0.56777954
80	0xbd58877d	-0.052863587
81	0xbdd1f4d7	-0.102517776
82	0x3ddbdddc	0.10735676
83	0x3bdb8585	0.0066992664
84	0xbfab9c8e	-1.3407152
85	0xbe3cd9b7	-0.18442427
86	0x4004847f	2.070587
87	0x3da79242	0.08182193
88	0x3ec27888	0.37982583
89	0xbf72e072	-0.94873726
90	0x3f38359a	0.7195679
91	0x3eeff4c4	0.4686643
92	0xbbbb1add	-0.0057099895
93	0xc035ed4e	-2.842609
94	0x3e814ee5	0.25255504
95	0x3cbc3471	0.022974225
96	0xbba4269d	-0.005009486
97	0x3cd1405d	0.025543386
98	0x3de6d114	0.11270347
99	0xbf85f0d4	-1.046412
100	0x3ebcc061	0.36865523
101	0x3efa5600	0.48893738
102	0x3d8d6921	0.069048174
103	0xbf9476bc	-1.1598735
104	0x3ea5fa30	0.3241744
105	0xc00dd195	-2.2159169
106	0xbe3c40f6	-0.18384156
107	0x3f9e9e72	1.2392104
108	0x3e5eeb64	0.21769482
109	0x3e00af1b	0.12566797
110	0x3f5c02a9	0.8594156
111	0xbc5d1d43	-0.013495746
112	0xbb8377d8	-0.004012089
113	0xbe75c8d7	-0.24002396
114	0x3e9be030	0.3044448
115	0xbde7e6b8	-0.11323303
116	0xc058bc2f	-3.3864858
117	0xbe2e2d20	-0.17009401
118	0xbcd4c8f6	-0.025974732
119	0x3f3d58a3	0.73963374
120	0x3cf8763e	0.03032982
121	0xbd946af6	-0.07246964
122	0xbde684fd	-0.11255834
123	0xbea82435	-0.32840124
124	0x3de04542	0.1095071
125	0xbd8a7547	-0.0676065
126	0x3f403c2e	0.75091827
127	0x3ef7b0ba	0.4837702
128	0xbe1d551a	-0.15364495
129	0x3de3e6ac	0.111279815
130	0x3e6a50bf	0.22882365
131	0xbd7f32ce	-0.06230431
132	0x3dfcafba	0.12338205
133	0xbeb5faaa	-0.35542804
134	0x3ddb9025	0.10720853
135	0xbe1f28cd	-0.15542908
136	0x3e019569	0.12654652
137	0xbbc4a9d8	-0.0060016923
138	0x3ddb68a0	0.10713315
139	0xc07dbf77	-3.964811
140	0xbda72c74	-0.08162776
141	0x3c0215ff	0.007939815
142	0xbdf8b9a9	-0.12144787
143	0xbfa54f3a	-1.2914803
144	0x3f4e9c90	0.80707645
145	0xbdd180bf	-0.102296345
146	0x401e006e	2.4687762
147	0xbde392d4	-0.111119896
148	0xbea03fe1	-0.31298736
149	0x3f318ef2	0.6935874
150	0x3fb6ec0e	1.4290788
151	0x3e920136	0.2851655
152	0xbdd72580	-0.105051994
153	0x3ed5be95	0.41746965
154	0x3daac75c	0.08338806
155	0xbe206ac0	-0.15665722
156	0xbc83f354	-0.016107239
157	0x3d063fc9	0.032775674
158	0xba316508	-0.0006767069
159	0x3f0719cc	0.5277374
160	0x3efbbfc0	0.4916973
161	0xbf5c700b	-0.86108464
162	0xbc985e9d	-0.018599803
163	0x3f9b8e5c	1.215282
164	0xc0607e90	-3.5077248
165	0xbe8dc1c7	-0.27686903
166	0x3dfb72ae	0.12277733
167	0xc0bd1c9f	-5.909744
168	0xbfcdebf5	-1.6087633
169	0x3e39767b	0.18111603
170	0xc0a0beeb	-5.0233054
171	0x3d7d0c1e	0.061779134
172	0xbde0ec0b	-0.109825216
173	0xbe82c93e	-0.2554416
174	0x3e8f225d	0.27955905
175	0x3df54e8c	0.11977872
176	0x3f29ca94	0.66324735
177	0xbdbebc03	-0.09313204
178	0xbd98a2c1	-0.07452918
179	0xc0b6c44d	-5.7114625
180	0xbb049f4b	-0.0020236548
181	0xbc831b18	-0.01600413
182	0xbb9db829	-0.0048132134
183	0x3eca47fa	0.3950804
184	0xbdc0cacb	-0.0941368
185	0xbdb205a3	-0.08692481
186	0x3e4f1acf	0.2022507
187	0xbe43c768	-0.19119036
188	0x3da47166	0.080294415
189	0xbed8e1b3	-0.42359695
190	0xbd9263f6	-0.07147972
191	0x3c970523	0.018435067
192	0xbb2e5cc7	-0.0026605593
193	0xc012c878	-2.2934856
194	0x3b8c42ec	0.0042804386
195	0x3f4c7c35	0.79877025
196	0xbdb7eba8	-0.08980495
197	0xbcf96580	-0.030443907
198	0x3b420204	0.0029603252
199	0xbfe30909	-1.7737132
200	0xbd9fa820	-0.07795739
201	0x3d72f919	0.05931959
202	0xbcc145ee	-0.023592915
203	0xbf0ea78e	-0.5572442
204	0xbfd99910	-1.6999836
205	0xbe03ab63	-0.12858348
206	0xc001d7af	-2.0287893
207	0x3db9c787	0.0907126
208	0x3f8f52d8	1.1197157
209	0x3f2cdef9	0.6752773
210	0xbef56f22	-0.4793635
211	0xbf0276e8	-0.50962687
212	0x3bb63189	0.0055601043
213	0xbed85c04	-0.42257702
214	0x3e94a960	0.29035473
215	0xbcef88f9	-0.029240118
216	0xbdfb02dc	-0.12256405
217	0xbd8596ce	-0.06522904
218	0x3cb2e3d9	0.021837162
219	0x3ee26331	0.44216302
220	0xbda49c8a	-0.0803767
221	0xbf139794	-0.57653165
222	0x3b6b9880	0.0035949051
223	0xc07a44a4	-3.9104395
224	0xc0197d0e	-2.3982577
225	0x3f8b6832	1.0891173
226	0xbbb331d0	-0.0054685846
227	0xc0919c46	-4.5503263
228	0x3fa28c39	1.2699043
229	0xbd26f889	-0.040764365
230	0x3f53c9ed	0.8272999
231	0xbdd97ca2	-0.10619475
232	0xbdb06fa1	-0.086150415
233	0x3e225c12	0.15855435
234	0xc0267293	-2.600743
235	0xbd789602	-0.060689934
236	0x3f0601d1	0.5234652
237	0x3d28e32a	0.041232266
238	0xbe184284	-0.14869124
239	0xbfbc59d7	-1.4714917
240	0xbe191d4d	-0.14952584
241	0xbdecb280	-0.11557484
242	0xbdbd837e	-0.09253596
243	0x3ea4ff4b	0.32226023
244	0xbd65614e	-0.056001
245	0xbe3da481	-0.18519785
246	0xc039cfab	-2.9033
247	0xc0b3dcb1	-5.62069
248	0xbd5a6af3	-0.05332465
249	0xbeb5ab55	-0.35482278
250	0x3eeb8a91	0.46004155
251	0x3d3df2a7	0.04637399
252	0xbd84def6	-0.06487839
253	0xc02d8b1d	-2.7116158
254	0x3ca25ae1	0.019818725
255	0xbda4327f	-0.08017444

out.bias f4 [9]
0	0xbeac2d17	-0.3362815
1	0xbef50c99	-0.47861174
2	0xbd985892	-0.074387684
3	0x3f6e2efe	0.93040454
4	0x3fb69388	1.4263773
5	0xbee4368a	-0.4457286
6	0xbf78cde1	-0.97189146
7	0x3edf8e49	0.43663242
8	0xbe45ce1c	-0.19316906
