Machine_Learning/Final/MLPW9.pt (torch, 220951 bytes, 6 tensors)

fc1.weight f4 [150, 300]
00000000: d2ab 313d ea9b d7bc 8098 22bc 3823 073d
00000010: 780d 37bd 881a 163c f411 8c3c 5fa5 61bd
00000020: a861 253c 082d a5bc 0422 543d d09f 253b
00000030: 22db 323d c436 d53c 7c83 b63c 1a3e 60bd
00000040: a64b 4c3d b04e 41bd c8e8 cd3c bcd8 d63c
00000050: 0073 c5b9 d6ba 4b3d cc55 7abc ba94 0bbd
00000060: 1cbe 9b3c 74aa 52bc 7248 47bd 6211 28bd
00000070: 9def 16bd 782c 883c ad59 25bd 60b5 d73c
00000080: 24e7 363d aee5 bfbc 74bf 053d 807e 9e3a
00000090: 40bd 163d 108c eebb d1ac 13bd 0acf 323d
000000a0: d26b 11bd 10b3 5b3c fac4 063d 9a2d 2bbd
000000b0: 4df9 56bd d425 043d a7b5 69bd a981 30bd
000000c0: 9c02 cd3c 2490 9ebc fceb 263d 8463 4cbc
000000d0: 1841 183c fda3 02bd e80c 3b3c 906b 5abd
000000e0: b2d6 33bd faae 35bd 90ad de3b ec0e 28bc
000000f0: 1262 6b3d 0098 0d3b 70d9 4b3d 118d 0cbd
00000100: 00a7 6a3c 045e 22bc be47 563d 64d1 9d3c
00000110: a021 883b 742e 17bd 91c7 48bd a6d9 96bc
00000120: a8b5 f33c b9c2 ffbc 0aa9 c6bc d0f1 4ebd
00000130: 100f 5f3d 96b1 553d b90d 08bd 00cd f33a
00000140: f0b1 52bb 10b7 273c 5fae 19bd 5e89 13bd
00000150: a4f0 0abc e2cf 35bd 70b1 d23b edcc f1bc
00000160: 00ed 3abd 30b4 3abb ac22 c6bc 4c78 c33c
00000170: 6648 403d feac 0bbd 80ca 93bc 0c09 27bc
00000180: 5d76 66bd 7460 65bd a89e bc3c d09a 75bb
00000190: eec7 f1bc 7cfa 613d 14ac 6bbd bcfe 503d
000001a0: eec6 61bd 6c3e 0bbd 1072 013d d06d 6fbc
000001b0: 7801 8ebc e564 21bd ec7a 903c a8a4 3e3d
000001c0: 5c22 9a3c d280 673d 5ccc 3bbd 8fc1 42bd
000001d0: 58c2 0dbd d8dd bfbb b04e 253c 2020 9a3a
000001e0: d047 e13b e8e9 18bd 8463 75bc 90ef 9a3b
000001f0: 34c4 863c 7a2b 1fbd 2ece 203d 8802 92bb
00000200: d4fe af3c 22ac 553d 80d3 f93c 2c97 ba3c
00000210: fa18 b1bc 08af 26bd 202b a63c b6dc 403d
00000220: 1064 ff3c 9892 9a3b c8ca 433d e86d a6bc
00000230: 0447 bdbc 6ae4 cdbc 463b fcbc 509d 18bb
00000240: f662 64bd ba96 273d d24d 6cbd 55ae e0bc
00000250: d0aa bd3c 7088 52bb 18b7 c2bc e703 54bd
00000260: 7a58 0c3d b473 5e3d 7892 8f3b c425 babc
00000270: 7c5e 5cbc b37d 30bd 283f 873c 782b c53c
00000280: 4016 41bc bc7e e8bc 40b8 f63c 4865 eebb
00000290: e464 ae3c 8837 3c3c 4e0e 213d d23a dfbc
000002a0: f662 53bd c0b2 893b faa0 46bd 172d 5cbd
000002b0: 9a98 2e3d 7801 99bb 4e42 203d a486 d43c
000002c0: 2a87 473d 6883 313c 4437 573d 525f c3bc
000002d0: 86d6 13bd 5071 40bb 845a 56bc b083 0a3d
000002e0: f02f ffbb f090 da3b cc40 e4bc 8445 37bd
000002f0: ac87 ac3c 4ccc eabc 8a11 5b3d da11 583d
00000300: 1207 50bd 7a21 c5bc b680 12bd ee37 6c3d
00000310: 517e f2bc e659 5f3d 18bb 3b3d b86f 02bc
00000320: 7a4d 8cbc d6a3 2d3d e48f 13bc 1cbf 08bc
00000330: 88a7 2a3c 4e78 5cbd f043 19bb b84f f63c
00000340: be1a c3bc 10cc b9bb 1e32 12bd 946b 07bc
00000350: 5875 eb3c 3016 49bb b22b 2cbd f007 503c
00000360: 0689 2fbd 7010 503d 305f bb3c c0c3 a33b
00000370: d2f5 38bd 3665 653d aed5 64bd c0c6 1dbb
00000380: 7bc6 42bd d097 43bd 7891 723c 9ac9 1f3d
00000390: 9c7c a93c a82e 5f3d d074 98bb 39ad 2bbd
000003a0: 4088 593c 188d a4bb 102a ff3b 101c b0bb
000003b0: 4ec9 55bd 5ab4 a8bc 665e 5f3d 5ec1 093d
000003c0: c2cc 443d 00c4 7f3c f263 493d a811 2c3c
000003d0: e0b2 c03b 103a f8bb eaa9 c2bc bef7 073d
000003e0: 861c 22bd 1a03 83bc 58e6 e63c 78b8 a0bb
000003f0: 0c2e 11bd 84b7 27bc d81a c13c a6de a1bc
0.04337675 -0.026319463 -0.009924054 0.03299257 -0.04469058 0.009161599 0.017098404 -0.05508935
0.010094084 -0.020163074 0.051790252 0.0025272258 0.043666013 0.02602709 0.022279494 -0.054746725
0.04987683 -0.047194183 0.025135413 0.026226394 -0.0003766045 0.049738728 -0.015279245 -0.034077384
0.01901155 -0.012858022 -0.048653074 -0.041032203 -0.036849607 0.016622767 -0.040368725 0.026331604
0.044654027 -0.02342495 0.032653287 0.0012092143 0.036801577 -0.0072798803 -0.036053482 0.04365448
-0.035503216 0.013409391 0.032902695 -0.041791536 -0.052483846 0.03226264 -0.057058003 -0.043092404
0.025025658 -0.019355841 0.040752396 -0.012474898 0.009292863 -0.031894673 0.011416651 -0.053325236
-0.04390592 -0.044356324 0.0067955926 -0.010257464 0.057466574 0.0021605492 0.04976791 -0.03431422
0.014322042 -0.00991011 0.052314512 0.019264884 0.004154399 -0.036909536 -0.049018446 -0.01841433
0.029749706 -0.03122078 -0.024250526 -0.05052358 0.054457724 0.052171312 -0.033216212 0.0018600523
-0.0032149516 0.010236517 -0.03751981 -0.036019675 -0.008480225 -0.044387706 0.0064298436 -0.029516662
-0.045636177 -0.0028488748 -0.024186455 0.023861073 0.046944045 -0.034100525 -0.018040895 -0.010195028
-0.056265224 -0.056000188 0.023024872 -0.0037476309 -0.02951428 0.05517052 -0.057537153 0.051024184
-0.055121355 -0.033995077 0.03160292 -0.014613584 -0.017334685 -0.03940286 0.017636739 0.046543747
0.018815212 0.056519337 -0.04584919 -0.047547873 -0.03460917 -0.0058553033 0.010089561 0.0011758842
0.006875016 -0.037332445 -0.01497734 0.004728265 0.016450979 -0.03885982 0.03925913 -0.004455868
0.021483816 0.05216611 0.030496359 0.022777162 -0.021618355 -0.040694267 0.020284235 0.047085486
0.031175643 0.0047171824 0.04780081 -0.02031608 -0.023105152 -0.02513333 -0.030789983 -0.0023287125
-0.05575844 0.04091523 -0.057691403 -0.027426878 0.023152739 -0.003212478 -0.023768947 -0.051761534
0.034264065 0.05430956 0.004381474 -0.022723086 -0.013450261 -0.043088626 0.016509607 0.02406858
-0.01178509 -0.028380744 0.030117154 -0.0072752573 0.021288343 0.011487849 0.039320283 -0.027249727
-0.05160805 0.004202217 -0.048493363 -0.05375394 0.042626 -0.0046693645 0.039125733 0.025943108
0.048712887 0.010834552 0.05254294 -0.023849163 -0.036093257 -0.0029364415 -0.013083104 0.033816993
-0.007787697 0.00667011 -0.027862929 -0.04474403 0.021060787 -0.02866187 0.053483523 0.0527514
-0.050787993 -0.024063814 -0.03576728 0.057670526 -0.029601248 0.054529093 0.045832723 -0.007961206
-0.017126787 0.042392574 -0.009006474 -0.008346345 0.010415919 -0.05382567 -0.0023386441 0.03006731
-0.023816463 -0.005670078 -0.035692327 -0.008265395 0.028742477 -0.003068339 -0.04203386 0.012697205
-0.042855285 0.050796926 0.022872537 0.0049977005 -0.045156308 0.056004725 -0.055867843 -0.0024074763
-0.047552567 -0.0477522 0.01480519 0.03901062 0.020689301 0.054487854 -0.004652597 -0.041913245
0.013277113 -0.0050217025 0.0077869967 -0.005374439 -0.052193932 -0.02059381 0.054533385 0.033631675
0.048046835 0.015610695 0.04916758 0.010502256 0.0058806986 -0.007575281 -0.023762662 0.03319525
-0.039577983 -0.01599269 0.028186008 -0.004904803 -0.035444304 -0.010236625 0.02357237 -0.019759487

fc1.bias f4 [150]
00000000: 55ae 4ebd d4c9 41bc 0487 e0bc ead9 05be
00000010: 558e f93d bfc9 20bd e28f 0bbd dfed 53bd
00000020: e277 383e bc5f 873e f658 07bd 0f96 59bd
00000030: 8bf6 e1bd 6889 093e fb03 62be ec5e cebd
00000040: fc1c 15bc a624 67bd c89d 29be f219 943e
00000050: ae92 b3bc 047b 78bc 2dde cf3d c872 e9bc
00000060: 6b80 38bd aa54 09bd e0e6 7ebc f151 36bd
00000070: 540a 47bc 2d50 5cbd 741d 0bbd 28ab f4bb
00000080: 9652 62bd 5cba 1ebd 41a2 4bbd 8624 5dbe
00000090: c8c5 ecbd d922 05bd 7a45 d53c 3d96 32bd
000000a0: 6d4c 593d 4b77 843e d480 9ebc e032 ffbc
000000b0: e446 a7bc f641 c7bc 3152 823e 4de0 79bd
000000c0: 1e3f d93d 65fa d73d 14ce a63e 2f14 033e
000000d0: 07bd e9bc 0473 853e 1a45 6bbd 9923 3a3b
000000e0: bb9f 573e 5845 f3bc aefe afbc 1548 b3bd
000000f0: f782 22bd 2dfd 18be 2699 07bd 23fe 133e
00000100: 0cb7 03bc 3718 443e 763b a93e ec5e 25bd
00000110: c20c c2bd 8139 17bc 5d39 81bd 0cae d6bc
00000120: c841 87be 140f 39bc 8031 48bd b419 20bd
00000130: 2757 d33d 250e 35be 98d1 61bc 6a7e 29bd
00000140: 6c3c ac3e 106c bebc 46c9 d23d 679c 853e
00000150: 222b 7fbd 5406 4ebe 3532 92bc c02a 68be
00000160: 5852 223e 3cfa 6bbd e193 923b f71e 013e
00000170: b450 7f3e fcbf 1abd e9ce 5bbe 1ce6 5abc
00000180: bad8 1cbd ef9e 46bd 7424 06bd 1e97 173d
00000190: a6a6 a0bc 22e9 2c3e 8ed3 afbc c72c f8bc
000001a0: a8f8 69bc aa72 193c eebf d93e 8caa 63bd
000001b0: 103d e2bb 840a 25be 70cd 02be 3e16 2cbd
000001c0: b944 9e3e 2d66 393d 1e0f 6bbd 560b a8bc
000001d0: 4efa 0cbd 4ab7 7fbd d633 80be 847d 20bc
000001e0: 59b1 623e 82bc 793e fa61 b8bc 8634 9d3d
000001f0: 7cf1 49bd d816 96bc fcf3 b4be cf1a 9abe
00000200: c784 853e 3009 74bc a8d9 1b3e 76ab ac3d
00000210: 8963 be3e 5bf0 713e dc1c 9fbe 9ac9 edbb
00000220: bc56 69bc 0e88 c1bc 3684 a0bc fe11 533e
00000230: 96b4 aa3d 6a59 ddbc 50be 763e a69e 59bd
00000240: 4510 5b3e 40ae 74bd 3172 cb3c 77b7 37bd
00000250: faff 06bd 9255 03be
-0.050459225 -0.011827905 -0.02740813 -0.13071409 0.12185351 -0.0392549 -0.034072764 -0.051740523
0.18014482 0.26440227 -0.033043824 -0.053121623 -0.110333525 0.13431323 -0.22071831 -0.10076699
-0.009101149 -0.056431435 -0.16564095 0.28926045 -0.021920528 -0.015166048 0.101497985 -0.028497115
-0.045044344 -0.033528008 -0.015557975 -0.04451174 -0.0121484585 -0.0537874 -0.033963636 -0.0074666925
-0.05525454 -0.038751945 -0.049715284 -0.21595964 -0.11561161 -0.032503936 0.026034106 -0.04360031
0.0530514 0.25872263 -0.01934854 -0.031152189 -0.020419545 -0.024323445 0.25453332 -0.061004926
0.10607742 0.10545806 0.325791 0.12800668 -0.028532518 0.26064312 -0.057438947 0.0028402566
0.21057026 -0.029696152 -0.021483745 -0.08753983 -0.03967568 -0.14940329 -0.033105038 0.14452414
-0.008039247 0.19149862 0.33053178 -0.040373728 -0.094750896 -0.009230019 -0.06309769 -0.026206039
-0.26417375 -0.011295099 -0.048875332 -0.039087012 0.10319357 -0.17681177 -0.013782881 -0.041380323
0.33639848 -0.023244888 0.10292296 0.26095888 -0.062296994 -0.20119601 -0.017846206 -0.22672558
0.15851724 -0.05761169 0.004473195 0.12609468 0.2493313 -0.037780747 -0.21465649 -0.013360526
-0.038292624 -0.048491415 -0.03274961 0.03700935 -0.019610714 0.16885808 -0.021463182 -0.030294789
-0.014280476 0.009365717 0.42529243 -0.055582568 -0.006904252 -0.16117293 -0.1277368 -0.0420134
0.30911806 0.045263458 -0.057387464 -0.020513218 -0.034418397 -0.062430657 -0.25039548 -0.00979555
0.22137965 0.24388316 -0.022507656 0.07676034 -0.049302563 -0.01832144 -0.35342395 -0.30098578
0.26077864 -0.014894769 0.15219748 0.08431141 0.37185314 0.23626845 -0.31076705 -0.007256699
-0.0142418705 -0.023624446 -0.019594293 0.20612332 0.08335225 -0.027020175 0.24096036 -0.053129815
0.21392925 -0.05973649 0.024834724 -0.0448527 -0.032958962 -0.12825611

fc2.weight f4 [60, 150]
00000000: 0389 a3bd 10fa e53c a07d c33c 4c03 b53c
00000010: 2fdc b0ba b870 e1bc fc32 8abc 14fc 5d3d
00000020: d655 07bd 7856 ea3c 006e 23bd 9183 d8bd
00000030: 7b60 c6bd e878 dd3b a03a 76bd 7907 a5bd
00000040: c8fb 88bd 23bd 76bd 2703 2d3b 0085 e73c
00000050: c632 1b3d a0c1 20bd 2aeb f5bd 60c7 85bd
00000060: a988 a4bd f765 eabd c45b b6bc 91ac 2cbd
00000070: dce6 453d 1c3b 9a3c 9c65 443d 5f65 96bd
00000080: 902b 9fbd 3c57 3abd c09b f23c 504d c53c
00000090: e06e debd 4484 d23c 6a6e 11bc 7222 903d
000000a0: c2c4 1fbc c749 c53c 80bb b03a 858b 1bbd
000000b0: f887 3d3d 046e 25bd a88c 83bd 7035 a5bb
000000c0: ec35 05be a1d0 94bd 80de 123c 6eb9 993b
000000d0: 7286 893d 73ab 93bd a693 033d 7ff7 1fbd
000000e0: fe0c 91bd 5860 313d 6c4d 53bd 63da 46bd
000000f0: 50fb dc3b 44b3 04be 0fb9 39bd d668 96bd
00000100: 2afb 58bd fe8f e8bd a7ab 69bd e867 513d
00000110: 2b5a cbbc b854 1d3c c2df a73c 0ec6 853d
00000120: 6542 20bc 7cd0 173d 2c9b ee3c ba71 e0bc
00000130: 0d37 e33c aa20 13bd 94a1 81bd 21de 95bd
00000140: a238 94bd c83f 013d 2272 a3bd 83b8 01be
00000150: 6e29 0ebd a33f 10bd cbfe 02be 7507 efbc
00000160: 9ae0 e9bd ea43 98bd b9c4 5ebd 907f 18bd
00000170: 9b8f 993c 6ff5 0fbd b05b 253c 7c8f 583d
00000180: 288c e3bc a0f2 d6bb 5c38 843d a47a 7dbc
00000190: 0c55 7a3d 2840 583c 98b5 4abd 7ab9 91bd
000001a0: 295f 86bd 6ea2 8dbc cced 47bd d096 043c
000001b0: 98c1 293c f3f3 28bc bcbd afbd 40b7 b7bb
000001c0: e86f f8bd 3224 86bc c4ee e0bd 2774 69bd
000001d0: f466 953d cbd0 25bd a949 b2bc 68ee e2bc
000001e0: d8ce 8abc e0bf 53bd a870 24bc b187 91bd
000001f0: bc32 8b3d 16e5 6ebd 59d3 f3bc b768 fcbd
00000200: 8217 d7bd 604f 9dbd 9295 97bc 5834 aebd
00000210: 2950 813b 4f64 05bc b3e3 483a a79a c8bd
00000220: a8c1 713c d30c a2bd 98de dfbc 14b6 fcbc
00000230: 15fe 50bd 4012 4dbb e35b 893c 50e8 843b
00000240: d1df 9abd a839 d03c 1e07 973c 2068 babb
00000250: 80ca 26bb 990f 7f3c e53b 8ebd 3c35 953d
00000260: baed a53d 9f42 c03c 9e25 a43b e8c0 f13c
00000270: acfb 943d d0d4 11bc 300a e3bd ca04 a23c
00000280: 8e7e f5bd 1796 b3bd afc4 96bd 3802 dcbc
00000290: 3b2a 06be 58f4 9bbd 0845 333c 80f7 123c
000002a0: 42f6 1ebd 45c6 ecbc 4001 4d3b de3b 41bd
000002b0: e018 d8bd dd25 96bd e4bc 5c3d 816f 03be
000002c0: a8ce 753d b069 923c ac8a 00bd c09e 173d
000002d0: 706c 573d 92d7 33bd e9f3 a3bd 58ce 873d
000002e0: a898 173c 124b 8bbd c8e3 30bd 185a a33c
000002f0: 0040 71bd 7a37 9dbd 8607 f6bb c86e 95bc
00000300: eccc 3fbd 40cf 4a3d ade9 14bd 6225 6abd
00000310: 3cfb 443d e4ad 2b3d db0c d3bc 9080 783c
00000320: 61b6 7dbd 14b5 96bc c043 663d e178 cebd
00000330: c822 9a3d 4eae 06be 9709 00bd e4a1 42bd
00000340: 022a 293d a639 23bd f4a6 af3c 17b9 b7bd
00000350: e6d9 71bd 0a48 89bd 421b 153d 07bb 12bd
00000360: b527 91bc aa17 283d 6e42 bbbd adc5 403c
00000370: 943d 343d 1c35 b3bc 9a6d 03be 2cdb 933d
00000380: 92f1 6bbd 1223 9abd 8f0f 44bd 0200 1e3c
00000390: 09d1 0fbd 3cc6 4a3d 42d3 f7bd 6037 403d
000003a0: 2f62 c43c 072e e5bc 7819 463d 467e af3c
000003b0: e83f 6bbd 655b 2cbd 9db7 33bd ca0f b9bc
000003c0: 260c 06be 5552 2bbd 0381 d8bc dcce 883c
000003d0: 6810 a23d 3059 1ebc 9a71 1ebd fa57 6abd
000003e0: 5807 3cbd 0fb7 783c b895 423d 40cc 5ebb
000003f0: 509f 583d 1254 8ebd bcdd 8cbd 8f4b cfbd
-0.07985117 0.02807334 0.023863614 0.022096299 -0.0013493354 -0.027519569 -0.016870014 0.05419548
-0.033040844 0.028605685 -0.039899826 -0.10571969 -0.09686371 0.006758798 -0.060114503 -0.08058066
-0.066886485 -0.06023897 0.0026399584 0.028261662 0.03789022 -0.039247155 -0.120077446 -0.065321684
-0.08033878 -0.114452295 -0.022260554 -0.04215676 0.048315868 0.018827014 0.047948465 -0.07343554
-0.07771981 -0.04549335 0.029615283 0.024084717 -0.108609915 0.025697835 -0.008876422 0.0703782
-0.009751501 0.024083031 0.0013483614 -0.037974853 0.046272248 -0.040388122 -0.064233124 -0.0050417706
-0.13008851 -0.07266355 0.008964181 0.0046912944 0.067150965 -0.07210436 0.03212323 -0.03905439
-0.07082556 0.04330477 -0.051587507 -0.048548114 0.006743826 -0.1295901 -0.0453425 -0.073442146
-0.052973904 -0.11355589 -0.057048466 0.051124483 -0.024823269 0.009602718 0.020492438 0.065319166
-0.009781455 0.03706406 0.029126726 -0.027397979 0.027736211 -0.035919823 -0.06329647 -0.07317758
-0.07237364 0.031554967 -0.079807535 -0.12668042 -0.03470748 -0.03521694 -0.12792508 -0.02917836
-0.114197925 -0.074348286 -0.054386828 -0.037231028 0.018745234 -0.035146173 0.010092661 0.052871212
-0.027776793 -0.006559685 0.06456062 -0.015471134 0.061116263 0.01319889 -0.049489588 -0.07115455
-0.06561119 -0.017289367 -0.048810765 0.008092597 0.010361098 -0.010312068 -0.08581111 -0.005606562
-0.121307194 -0.016374681 -0.10983041 -0.056995537 0.072950274 -0.040482324 -0.02176364 -0.027701572
-0.016944334 -0.051696658 -0.010036625 -0.07105959 0.06796786 -0.058323942 -0.029763864 -0.1232466
-0.10502531 -0.07681155 -0.018503938 -0.085060775 0.0039463234 -0.008141591 0.00076633244 -0.097951226
0.014755644 -0.07912602 -0.02732782 -0.03084854 -0.05102356 -0.0031291395 0.016767448 0.004056014
-0.07562221 0.025418118 0.01843601 -0.005688682 -0.002545029 0.015567684 -0.06945018 0.07285544
0.08101983 0.023469267 0.005009367 0.02951093 0.07274565 -0.008900836 -0.110859275 0.019777674
-0.11987029 -0.08768862 -0.07361733 -0.026856527 -0.13102047 -0.07614964 0.010941751 0.008970141
-0.03880907 -0.028903136 0.0031281263 -0.047176234 -0.105516195 -0.073314406 0.053891078 -0.12835504
0.060011536 0.017872661 -0.031382248 0.03701663 0.05259365 -0.043906756 -0.080055065 0.06631154
0.009252705 -0.06801428 -0.04318598 0.019940421 -0.058898926 -0.07676597 -0.007508221 -0.018241301
-0.046826288 0.049514055 -0.036355663 -0.057164557 0.04809116 0.041913882 -0.025762966 0.01516737
-0.06194151 -0.018396892 0.056216955 -0.100816496 0.07526165 -0.1315243 -0.031259146 -0.047517672
0.041299827 -0.0398499 0.021441914 -0.0897085 -0.059045695 -0.067031935 0.03640295 -0.035822894
-0.01771913 0.041038193 -0.0914353 0.01176588 0.044004038 -0.02187591 -0.12834778 0.07219538
-0.057603426 -0.075262204 -0.0478664 0.009643557 -0.03511146 0.049505457 -0.12100841 0.04692781
0.023972599 -0.02797605 0.048364133 0.021422517 -0.057433993 -0.042079348 -0.04387628 -0.022590537
-0.13090572 -0.041826565 -0.026428705 0.0167002 0.079132855 -0.009664819 -0.038682558 -0.057212807
-0.04590544 0.015180363 0.047506064 -0.0033996254 0.052886307 -0.06949629 -0.0687823 -0.101218335

fc2.bias f4 [60]
00000000: 87c8 e6bd 5768 96bd 46e7 86bc 2213 f7bd
00000010: 7d17 793e e39c 43be bf4a 0dbd 4a90 27be
00000020: dc08 adbd 6d26 f03e 68d2 363d e3c1 babd
00000030: 97eb 5c3e 28a6 87be 36cc c3be 3131 59be
00000040: f4f1 333d ce2b 823e 7465 213b d443 dbbe
00000050: 732b 8fbe 8ae1 6dbd 16dc 14be 5516 c4be
00000060: 7048 0a3d d426 a7bc e361 09be c20d 74bd
00000070: 1afe 113f e873 8a3e 494d 9c3d c627 81bd
00000080: 67ce 50bb 9f2e 2cbd 9739 6ebe 3c46 5dbd
00000090: 5c22 08be 4986 56bd e232 a9bd 7d4b 3abe
000000a0: 4979 5a3e 9486 f8bd 6ab7 45be 6077 0fbf
000000b0: f8b5 debb a3d0 fdbc df0a aebd 7ba3 6dbd
000000c0: b241 973c 11c7 11bf 9ea4 453f 7009 b7be
000000d0: 559c cb3c 2461 eabd 94a1 09bd e610 e3bd
000000e0: 3e85 2d3f ba47 ecbd 2de8 b83e c2e5 673e
-0.11268716 -0.0734412 -0.016467702 -0.12064196 0.24325366 -0.19102816 -0.03449511 -0.16363636
-0.084489554 0.46904317 0.044634253 -0.09119012 0.21574245 -0.26493955 -0.38241738 -0.21210171
0.043931916 0.25424045 0.0024627121 -0.42825186 -0.27962837 -0.05807642 -0.14537081 -0.38298288
0.033760488 -0.020404257 -0.13416247 -0.059583433 0.57028353 0.27041554 0.076319285 -0.06306414
-0.0031861307 -0.04203665 -0.23264156 -0.05402206 -0.13294357 -0.052374158 -0.08261658 -0.18192859
0.21335329 -0.12135044 -0.19308248 -0.56041527 -0.0067965947 -0.030983275 -0.08498167 -0.058017235
0.018463943 -0.56944376 0.7720431 -0.35749388 0.024854818 -0.11444309 -0.03360136 -0.110872075
0.67781436 -0.11537118 0.36114636 0.2264624

out.weight f4 [9, 60]
00000000: f4c2 9ebd afa1 5ebd da9d 04bd 4e39 6a3c
00000010: 7900 8f3e 8838 863d 4d73 df3c 6616 ea3e
00000020: 841c 5a3d 7dd5 0a3e dff9 e43e 38f7 56bc
00000030: 6733 423e 4bbb 963e 29ef 53c0 b9e4 17bc
00000040: a1b6 b03f e9ef a5be 0fc7 59c0 0b75 8d3d
00000050: c834 c1bd 3971 023e 58fd c63d d423 39c0
00000060: 595c 293e 5c0c 2d3d 3954 1cbc c821 4e3d
00000070: 4b88 0cc0 20d3 4b3e f193 87be 00cf e13a
00000080: 6fa0 cbbc 40ff f33d 422f 32bd 4061 39bc
00000090: 1c4e 083f a43f 33be 6eb0 1cbe d079 2ec0
000000a0: dba9 df3e 1325 1e3f a035 4dc0 7f7c 473f
000000b0: d68f 723c 0e08 053d 90fa 0dbb fc53 08be
000000c0: 872d 0cbd a4f9 473f a93c afbe f54a 0f3f
000000d0: 48b2 2b3f 8fa0 b9bc 431f b63e 6a7c 1bbd
000000e0: 875b 453e 1b63 49bc 6aca 1abf 9e53 473f
000000f0: 9ad3 05be 124c 9fbc 0e7f 80bd a718 63bd
00000100: 16f7 1bc0 7e42 cd3d 7584 103c 9d74 bc3f
00000110: e986 d4bd ec8d cb3f 8781 0f3e 6e21 babd
00000120: b18a 08c0 3cc7 9a3e 2123 033f 0938 bcbd
00000130: cf2a a43e 01a9 bc3f 9a7b 5b3f 8774 d3be
00000140: c93d 173e 60f8 d1bd 95f1 d0ba c6ee 9abe
00000150: 266a 253e ede3 e7bd cc55 663d 4cfc d83d
00000160: 93ce c53e dfd4 31c0 0134 883e fb91 a0bd
00000170: 1bc4 c3bc 5822 a8bd 522d 2e3d a986 bb3c
00000180: b6e8 f63e ba6f 663d c113 553d 6f76 09bf
00000190: bbd8 17bf 3e87 0f3e 75f8 103f eb41 553f
000001a0: a0ae 6c3d e56e 2bbe 1410 ea3d a5dd 30bd
000001b0: eccd 353e aad2 3840 1e72 c6bf 0082 983e
000001c0: 109b af3f d5b3 c0bd 808a d63e ec39 2bbe
000001d0: cefd 0cc0 d404 29be e6a5 37be e9bc c33e
000001e0: 258b 903c ebc8 9ebd 2335 acbc 908e 6c3c
000001f0: 3776 e13e 1095 cabb fb44 b33d 10b0 063f
00000200: ef93 1dbe 3c7f 133f 0ba0 26bd df42 c53d
00000210: 6529 fe3e 560f d8bd d967 213d 58c5 6b3e
00000220: 80fc 31c0 2427 043f aeda 08bf b472 41be
00000230: 5738 253e d139 023c b3b9 f8bd 86f8 373f
00000240: 3214 0a3e 7942 d0bd 3db0 94bd d492 e3bd
00000250: 6147 353e 2345 0a3f 4b72 d73e 4023 2fbb
00000260: 4440 b2bc d1bc 393d a8c0 f7bc a23f 2ebd
00000270: cbb9 a4bf 9ff0 a2bd dc6f 5e3c be49 26c0
00000280: 3ebf 613e bf12 57bf dc1e a6be 5f51 6bbe
00000290: 0c91 8bbc 82bb b1bc ae72 fb3d 8acd a8bd
000002a0: b9e1 e3bf 2c28 dbbe daf4 9bbd bdc4 4fbf
000002b0: d9d1 183e 93c8 88bd 9b35 ddbe c9f7 953d
000002c0: c9f2 c33e 387f 8a3c f35d 54bf cb39 99c0
000002d0: ada7 e7bc e9bd adbc c8f1 0cbd ab26 5a3d
000002e0: dbb9 863e 5a8c b2bc f91c 2ebd 226a bbbf
000002f0: 654b a03d dd77 4e3f 35a9 9ebf 5142 a9bd
00000300: 5728 553e 9216 1fc0 2120 b1bf 2a76 823d
00000310: 83bf 34c0 3c4a ac3c 83a8 8c3f ca9e a7bd
00000320: f1b1 493e 29f9 723d bf54 c0bc e9e9 c63e
00000330: 2e46 2bbf e86c c1bd 6762 87bd b4e7 b93d
00000340: 0477 dfbf 3359 fd3d a277 1cc0 90cc 0e3d
00000350: cb3b 5ebc b02c e7bd 400f 723b 383f f0bc
00000360: b9d9 11c0 76f1 07bd 127e 32bb 32c3 12c0
00000370: 8b17 28bf 8122 6abf 8cff f43d f526 95bf
00000380: c0c5 33bd 4faf 8dbd b8b4 48bb edbb a8bd
00000390: 5b35 ad3e 8ff6 0ec0 7fc1 5e3f 2525 c3bf
000003a0: f320 b6bf 9ec3 06be de05 dabf dd1b 12be
000003b0: 8cf7 1b3f 5e9e 443d 3ae5 413f 84ee 99be
000003c0: 3f95 22be 0340 f7bd c09f 98bd fe24 203d
000003d0: cac0 85bf 1a21 893d f9bc 12be 4cbe 0ebf
000003e0: 42de 873d 37b1 25c0 ba81 7abe 0d59 fd3c
000003f0: 0096 aabf 914a 75bf a0e3 193e 80a2 ff3b
-0.07752028 -0.054353412 -0.0323771 0.014295889 0.27930048 0.06553751 0.02727666 0.45720214
0.05324985 0.13558002 0.44721887 -0.013120465 0.18964921 0.29439768 -3.3114722 -0.00927084
1.3805734 -0.324096 -3.4027746 0.0690709 -0.09433895 0.12738504 0.0971629 -2.8928118
0.16539134 0.042248115 -0.009541565 0.050325185 -2.1958187 0.19904757 -0.26480058 0.0017227829
-0.024856774 0.119139194 -0.0435021 -0.01131469 0.53244185 -0.17504746 -0.15301678 -2.7261848
0.43684277 0.6177532 -3.206398 0.7792434 0.014804801 0.032478385 -0.002166424 -0.13313287
-0.034223106 0.78115296 -0.34225968 0.5597375 0.6706891 -0.022659568 0.35570726 -0.037960447
0.19273196 -0.012291695 -0.6046511 0.77861965 -0.13069001 -0.019445453 -0.06274234 -0.055443432
-2.436956 0.10022448 0.008820643 1.4723088 -0.103772946 1.5902686 0.14014255 -0.090884075
-2.133465 0.3023013 0.5122548 -0.09190375 0.3206391 1.4739076 0.85735476 -0.4129984
0.14769663 -0.10252452 -0.0015941138 -0.30260295 0.16153774 -0.1132277 0.056234166 0.10594997
0.38634166 -2.7786176 0.26602176 -0.078403436 -0.023897221 -0.082096756 0.04252369 0.02289136
0.4822442 0.056258895 0.052020792 -0.5369634 -0.5931508 0.14016435 0.56629115 0.8330371
0.057783723 -0.16741522 0.11428848 -0.043180127 0.17754334 2.887858 -1.5503576 0.29786682
1.3719196 -0.094093 0.41902542 -0.16721314 -2.202991 -0.16505748 -0.17934379 0.38230065
0.017644474 -0.07753166 -0.021021431 0.014438286 0.44035503 -0.0061823204 0.08753391 0.526124
-0.15388463 0.5761602 -0.040679973 0.09631895 0.49640957 -0.105498 0.039405677 0.230245
-2.7810364 0.51622224 -0.5345868 -0.18891412 0.16134773 0.007948355 -0.12144794 0.7186359
0.13484266 -0.10168929 -0.07260177 -0.111119896 0.1770301 0.54011744 0.42079386 -0.0026723891
-0.02175916 0.045346085 -0.030243233 -0.042541154 -1.28692 -0.07956051 0.013576474 -2.5982509
0.2204561 -0.8401298 -0.3244542 -0.2298026 -0.017036937 -0.021695856 0.12277733 -0.082423285
-1.780326 -0.42804086 -0.07615061 -0.81159574 0.149238 -0.066788815 -0.4320496 0.07322652
0.38271168 0.016906366 -0.82955855 -4.788305 -0.028278196 -0.02120872 -0.034410268 0.053259533
0.2631367 -0.02179544 -0.0425081 -1.4641764 0.0782688 0.80651647 -1.2395388 -0.08264602
0.2081617 -2.4857526 -1.383793 0.06370194 -2.824189 0.021031491 1.0988926 -0.081845835
0.19696786 0.05931965 -0.02347791 0.38850334 -0.6690396 -0.094446 -0.06610566 0.09077397
-1.7458196 0.12370529 -2.4448018 0.034863055 -0.01356406 -0.1128782 0.003693536 -0.02932702
-2.2789137 -0.03318926 -0.0027235788 -2.2931638 -0.65660924 -0.914589 0.11962804 -1.1652514
-0.04388976 -0.06918203 -0.0030625295 -0.08238969 0.3382977 -2.2337987 0.87014 -1.5245711
-1.4228805 -0.1316056 -1.703304 -0.14268441 0.609246 0.048002593 0.75740397 -0.30064785
-0.15877245 -0.12072756 -0.07452345 0.03909778 -1.044946 0.06695767 -0.143299 -0.5575912
0.06634189 -2.5889413 -0.2446355 0.030926252 -1.3327026 -0.95816904 0.15028238 0.007801354

out.bias f4 [9]
00000000: 36bb 9cbe 2e89 0abf 1f04 02bd fc30 c13e
00000010: f614 9d3f c573 30bf 9581 dbbe 1eee 433e
00000020: ebe9 9e3e
-0.3061158 -0.5411557 -0.03174221 0.37732685 1.2272022 -0.6892665 -0.428723 0.19133803
0.3103784
