Machine_Learning/Final/MLPW9.pt (torch, 220951 bytes, 6 tensors)

fc1.weight f4 [150, 300]
00000000: d2ab 313d ea9b d7bc 8098 22bc 3823 073d
00000010: 780d 37bd 881a 163c f411 8c3c 5fa5 61bd
00000020: a861 253c 082d a5bc 0422 543d d09f 253b
00000030: 22db 323d c436 d53c 7c83 b63c 1a3e 60bd
00000040: a64b 4c3d b04e 41bd c8e8 cd3c bcd8 d63c
00000050: 0073 c5b9 d6ba 4b3d cc55 7abc ba94 0bbd
00000060: 1cbe 9b3c 74aa 52bc 7248 47bd 6211 28bd
00000070: 9def 16bd 782c 883c ad59 25bd 60b5 d73c
00000080: 24e7 363d aee5 bfbc 74bf 053d 807e 9e3a
00000090: 40bd 163d 108c eebb d1ac 13bd 0acf 323d
000000a0: d26b 11bd 10b3 5b3c fac4 063d 9a2d 2bbd
000000b0: 4df9 56bd d425 043d a7b5 69bd a981 30bd
000000c0: 9c02 cd3c 2490 9ebc fceb 263d 8463 4cbc
000000d0: 1841 183c fda3 02bd e80c 3b3c 906b 5abd
000000e0: b2d6 33bd faae 35bd 90ad de3b ec0e 28bc
000000f0: 1262 6b3d 0098 0d3b 70d9 4b3d 118d 0cbd
00000100: 00a7 6a3c 045e 22bc be47 563d 64d1 9d3c
00000110: a021 883b 742e 17bd 91c7 48bd a6d9 96bc
00000120: a8b5 f33c b9c2 ffbc 0aa9 c6bc d0f1 4ebd
00000130: 100f 5f3d 96b1 553d b90d 08bd 00cd f33a
00000140: f0b1 52bb 10b7 273c 5fae 19bd 5e89 13bd
00000150: a4f0 0abc e2cf 35bd 70b1 d23b edcc f1bc
00000160: 00ed 3abd 30b4 3abb ac22 c6bc 4c78 c33c
00000170: 6648 403d feac 0bbd 80ca 93bc 0c09 27bc
00000180: 5d76 66bd 7460 65bd a89e bc3c d09a 75bb
00000190: eec7 f1bc 7cfa 613d 14ac 6bbd bcfe 503d
000001a0: eec6 61bd 6c3e 0bbd 1072 013d d06d 6fbc
000001b0: 7801 8ebc e564 21bd ec7a 903c a8a4 3e3d
000001c0: 5c22 9a3c d280 673d 5ccc 3bbd 8fc1 42bd
000001d0: 58c2 0dbd d8dd bfbb b04e 253c 2020 9a3a
000001e0: d047 e13b e8e9 18bd 8463 75bc 90ef 9a3b
000001f0: 34c4 863c 7a2b 1fbd 2ece 203d 8802 92bb
00000200: d4fe af3c 22ac 553d 80d3 f93c 2c97 ba3c
00000210: fa18 b1bc 08af 26bd 202b a63c b6dc 403d
00000220: 1064 ff3c 9892 9a3b c8ca 433d e86d a6bc
00000230: 0447 bdbc 6ae4 cdbc 463b fcbc 509d 18bb
00000240: f662 64bd ba96 273d d24d 6cbd 55ae e0bc
00000250: d0aa bd3c 7088 52bb 18b7 c2bc e703 54bd
00000260: 7a58 0c3d b473 5e3d 7892 8f3b c425 babc
00000270: 7c5e 5cbc b37d 30bd 283f 873c 782b c53c
00000280: 4016 41bc bc7e e8bc 40b8 f63c 4865 eebb
00000290: e464 ae3c 8837 3c3c 4e0e 213d d23a dfbc
000002a0: f662 53bd c0b2 893b faa0 46bd 172d 5cbd
000002b0: 9a98 2e3d 7801 99bb 4e42 203d a486 d43c
000002c0: 2a87 473d 6883 313c 4437 573d 525f c3bc
000002d0: 86d6 13bd 5071 40bb 845a 56bc b083 0a3d
000002e0: f02f ffbb f090 da3b cc40 e4bc 8445 37bd
000002f0: ac87 ac3c 4ccc eabc 8a11 5b3d da11 583d
00000300: 1207 50bd 7a21 c5bc b680 12bd ee37 6c3d
00000310: 517e f2bc e659 5f3d 18bb 3b3d b86f 02bc
00000320: 7a4d 8cbc d6a3 2d3d e48f 13bc 1cbf 08bc
00000330: 88a7 2a3c 4e78 5cbd f043 19bb b84f f63c
00000340: be1a c3bc 10cc b9bb 1e32 12bd 946b 07bc
00000350: 5875 eb3c 3016 49bb b22b 2cbd f007 503c
00000360: 0689 2fbd 7010 503d 305f bb3c c0c3 a33b
00000370: d2f5 38bd 3665 653d aed5 64bd c0c6 1dbb
00000380: 7bc6 42bd d097 43bd 7891 723c 9ac9 1f3d
00000390: 9c7c a93c a82e 5f3d d074 98bb 39ad 2bbd
000003a0: 4088 593c 188d a4bb 102a ff3b 101c b0bb
000003b0: 4ec9 55bd 5ab4 a8bc 665e 5f3d 5ec1 093d
000003c0: c2cc 443d 00c4 7f3c f263 493d a811 2c3c
000003d0: e0b2 c03b 103a f8bb eaa9 c2bc bef7 073d
000003e0: 861c 22bd 1a03 83bc 58e6 e63c 78b8 a0bb
000003f0: 0c2e 11bd 84b7 27bc d81a c13c a6de a1bc
0.04337675 -0.026319463 -0.009924054 0.03299257 -0.04469058 0.009161599 0.017098404 -0.05508935
0.010094084 -0.020163074 0.051790252 0.0025272258 0.043666013 0.02602709 0.022279494 -0.054746725
0.04987683 -0.047194183 0.025135413 0.026226394 -0.0003766045 0.049738728 -0.015279245 -0.034077384
0.01901155 -0.012858022 -0.048653074 -0.041032203 -0.036849607 0.016622767 -0.040368725 0.026331604
0.044654027 -0.02342495 0.032653287 0.0012092143 0.036801577 -0.0072798803 -0.036053482 0.04365448
-0.035503216 0.013409391 0.032902695 -0.041791536 -0.052483846 0.03226264 -0.057058003 -0.043092404
0.025025658 -0.019355841 0.040752396 -0.012474898 0.009292863 -0.031894673 0.011416651 -0.053325236
-0.04390592 -0.044356324 0.0067955926 -0.010257464 0.057466574 0.0021605492 0.04976791 -0.03431422
0.014322042 -0.00991011 0.052314512 0.019264884 0.004154399 -0.036909536 -0.049018446 -0.01841433
0.029749706 -0.03122078 -0.024250526 -0.05052358 0.054457724 0.052171312 -0.033216212 0.0018600523
-0.0032149516 0.010236517 -0.03751981 -0.036019675 -0.008480225 -0.044387706 0.0064298436 -0.029516662
-0.045636177 -0.0028488748 -0.024186455 0.023861073 0.046944045 -0.034100525 -0.018040895 -0.010195028
-0.056265224 -0.056000188 0.023024872 -0.0037476309 -0.02951428 0.05517052 -0.057537153 0.051024184
-0.055121355 -0.033995077 0.03160292 -0.014613584 -0.017334685 -0.03940286 0.017636739 0.046543747
0.018815212 0.056519337 -0.04584919 -0.047547873 -0.03460917 -0.0058553033 0.010089561 0.0011758842
0.006875016 -0.037332445 -0.01497734 0.004728265 0.016450979 -0.03885982 0.03925913 -0.004455868
0.021483816 0.05216611 0.030496359 0.022777162 -0.021618355 -0.040694267 0.020284235 0.047085486
0.031175643 0.0047171824 0.04780081 -0.02031608 -0.023105152 -0.02513333 -0.030789983 -0.0023287125
-0.05575844 0.04091523 -0.057691403 -0.027426878 0.023152739 -0.003212478 -0.023768947 -0.051761534
0.034264065 0.05430956 0.004381474 -0.022723086 -0.013450261 -0.043088626 0.016509607 0.02406858
-0.01178509 -0.028380744 0.030117154 -0.0072752573 0.021288343 0.011487849 0.039320283 -0.027249727
-0.05160805 0.004202217 -0.048493363 -0.05375394 0.042626 -0.0046693645 0.039125733 0.025943108
0.048712887 0.010834552 0.05254294 -0.023849163 -0.036093257 -0.0029364415 -0.013083104 0.033816993
-0.007787697 0.00667011 -0.027862929 -0.04474403 0.021060787 -0.02866187 0.053483523 0.0527514
-0.050787993 -0.024063814 -0.03576728 0.057670526 -0.029601248 0.054529093 0.045832723 -0.007961206
-0.017126787 0.042392574 -0.009006474 -0.008346345 0.010415919 -0.05382567 -0.0023386441 0.03006731
-0.023816463 -0.005670078 -0.035692327 -0.008265395 0.028742477 -0.003068339 -0.04203386 0.012697205
-0.042855285 0.050796926 0.022872537 0.0049977005 -0.045156308 0.056004725 -0.055867843 -0.0024074763
-0.047552567 -0.0477522 0.01480519 0.03901062 0.020689301 0.054487854 -0.004652597 -0.041913245
0.013277113 -0.0050217025 0.0077869967 -0.005374439 -0.052193932 -0.02059381 0.054533385 0.033631675
0.048046835 0.015610695 0.04916758 0.010502256 0.0058806986 -0.007575281 -0.023762662 0.03319525
-0.039577983 -0.01599269 0.028186008 -0.004904803 -0.035444304 -0.010236625 0.02357237 -0.019759487

fc1.bias f4 [150]
00000000: 55ae 4ebd d4c9 41bc 0487 e0bc d778 57be
00000010: 3792 3f3d bfc9 20bd e28f 0bbd dfed 53bd
00000020: 48cd 8a3e 37bd 93bd b5ad a03d 005a 803e
00000030: 3391 64bc 13d5 7cbd 5719 81bd fbaa 5e3d
00000040: fc1c 15bc cc2b 7cbd 0af6 97bd 5aee 8b3e
00000050: ae92 b3bc 047b 78bc 07c1 70bd c872 e9bc
00000060: 6b80 38bd ac28 b43e e0e6 7ebc f151 36bd
00000070: 540a 47bc e130 213c 741d 0bbd 28ab f4bb
00000080: 134b d7bd 5cba 1ebd 41a2 4bbd 4828 d8bd
00000090: 8c1a f23d d922 05bd 2506 423e 3d96 32bd
000000a0: 4e68 37be 3d77 1cbe d480 9ebc e032 ffbc
000000b0: e446 a7bc f641 c7bc b457 353e 27cb 4fbd
000000c0: 3a3f 9ebe 8877 633e 1fda 913e 3316 433d
000000d0: 07bd e9bc 6a7e 8c3e 25e9 9bbd 13b4 8cbd
000000e0: b5b1 993e 5845 f3bc aefe afbc d423 57bd
000000f0: f782 22bd a917 9b3d 2699 07bd eb0d 50be
00000100: 0cb7 03bc 6e4b 3f3e 0969 f93d ec5e 25bd
00000110: 06c3 4cbe 790f a93e 1ec3 8dbe 0cae d6bc
00000120: 174d 03be 140f 39bc 8031 48bd b419 20bd
00000130: 814d 39bd a6c5 54be 98d1 61bc 6a7e 29bd
00000140: af22 9e3d 106c bebc fb4f 3c3e 5a3c 383e
00000150: 0f41 80bd 31e2 893d f70e 5c3e ec73 6cbd
00000160: 0baf edbc 3cfa 6bbd 4970 403e 0549 a63e
00000170: 8522 b23e fcbf 1abd 0c96 09be 1ce6 5abc
00000180: bad8 1cbd ef9e 46bd 7424 06bd 558f 953e
00000190: a6a6 a0bc 549c 1bbe 8ed3 afbc c72c f8bc
000001a0: a8f8 69bc 8fc4 fd3c e3b2 d23e 8caa 63bd
000001b0: 103d e2bb 17c0 b2be eb60 8b3e 3e16 2cbd
000001c0: b80a de3d 907c 703d 83b2 923e 560b a8bc
000001d0: 4efa 0cbd 2db7 7fbd 525f 89bd 847d 20bc
000001e0: 01ca e3bb cada 88bd fa61 b8bc b66d 00bd
000001f0: 7cf1 49bd d816 96bc 16a8 63be 004b efbd
00000200: 1c40 843e 3009 74bc ffdb 0e3e 3483 033e
00000210: 3096 ae3d de89 bd3e 368c 4c3d f235 bcbd
00000220: bc56 69bc 0e88 c1bc 3684 a0bc e6d0 313e
00000230: 0623 803e 6a59 ddbc 0cad 8d3e a69e 59bd
00000240: 7abc c43e a8d7 87bd bcbf 103e 77b7 37bd
00000250: faff 06bd 9e39 6ebc
-0.050459225 -0.011827905 -0.02740813 -0.2104219 0.0467703 -0.0392549 -0.034072764 -0.051740523
0.27109742 -0.07213824 0.07845632 0.25068665 -0.013950634 -0.06172664 -0.06303661 0.05436228
-0.009101149 -0.061565205 -0.07419975 0.27330285 -0.021920528 -0.015166048 -0.058777835 -0.028497115
-0.045044344 0.3518728 -0.015557975 -0.04451174 -0.0121484585 0.009838314 -0.033963636 -0.0074666925
-0.10512366 -0.038751945 -0.049715284 -0.10554558 0.1182147 -0.032503936 0.18947656 -0.04360031
-0.17910883 -0.15279861 -0.01934854 -0.031152189 -0.020419545 -0.024323445 0.17709237 -0.05073085
-0.30907613 0.22213566 0.28486726 0.047628593 -0.028532518 0.27440196 -0.07612828 -0.06870284
0.30018392 -0.029696152 -0.021483745 -0.052524403 -0.03967568 0.07572872 -0.033105038 -0.2031781
-0.008039247 0.18681118 0.12178237 -0.040373728 -0.1999627 0.33019617 -0.27687925 -0.026206039
-0.12822376 -0.011295099 -0.048875332 -0.039087012 -0.04523993 -0.20778522 -0.013782881 -0.041380323
0.07721459 -0.023244888 0.18389885 0.17991772 -0.06262409 0.06732596 0.21490084 -0.05772774
-0.029014131 -0.05761169 0.18792833 0.32477584 0.3479196 -0.037780747 -0.13436145 -0.013360526
-0.038292624 -0.048491415 -0.03274961 0.29210916 -0.019610714 -0.15196353 -0.021463182 -0.030294789
-0.014280476 0.030977516 0.41152105 -0.055582568 -0.006904252 -0.34912178 0.2722238 -0.0420134
0.10841888 0.058712542 0.2865182 -0.020513218 -0.034418397 -0.06243055 -0.06707634 -0.00979555
-0.006951571 -0.06682356 -0.022507656 -0.03135463 -0.049302563 -0.01832144 -0.22232088 -0.11684227
0.25830162 -0.014894769 0.1395111 0.12843019 0.0852474 0.37019247 0.049938403 -0.09189977
-0.0142418705 -0.023624446 -0.019594293 0.17364845 0.2502672 -0.027020175 0.27671087 -0.053129815
0.38425046 -0.0663293 0.14135641 -0.0448527 -0.032958962 -0.014540104

fc2.weight f4 [60, 150]
00000000: 0389 a3bd 10fa e53c a07d c33c 1eec b43c
00000010: 9e96 b2ba b870 e1bc fc32 8abc 14fc 5d3d
00000020: 0366 07bd 7856 ea3c 8b7d 23bd 7f8e d8bd
00000030: fe64 c6bd 54b5 6e3d 687d 0cbc ea0b a5bd
00000040: c8fb 88bd 23bd 76bd e072 2c3b c50c bcbc
00000050: c632 1b3d a0c1 20bd 445e 8cbd 60c7 85bd
00000060: a988 a4bd a26f eabd c45b b6bc 91ac 2cbd
00000070: dce6 453d ea05 06bd 9c65 443d 5f65 96bd
00000080: 932f 9fbd 3c57 3abd c09b f23c 9533 c53c
00000090: 6977 debd 4484 d23c 3b83 13bc 7222 903d
000000a0: a2e8 1fbc 1331 c53c 80bb b03a 858b 1bbd
000000b0: f887 3d3d 046e 25bd 6694 83bd 7035 a5bb
000000c0: bd3f 05be e027 99bd 00ad 123c fd36 993b
000000d0: 7286 893d 7db1 93bd a693 033d f3ff 1fbd
000000e0: c401 fabd 5860 313d 6c4d 53bd c5e4 46bd
000000f0: 50fb dc3b cec0 04be 0fb9 39bd ce77 96bd
00000100: 2afb 58bd 999a e8bd d01d b5bb e867 513d
00000110: 586a cbbc 1e4b 2bbd 27c9 a73c 0ec6 853d
00000120: 6361 20bc 7cd0 173d 2c9b ee3c ba71 e0bc
00000130: 570f e33c 3d28 13bd 94a1 81bd 21de 95bd
00000140: 9d40 94bd c83f 013d 8c81 06be 41be 01be
00000150: 6e29 0ebd 3548 10bd 4f01 03be 7c76 b63c
00000160: 47e8 e9bd ea43 98bd 4299 5fbd 907f 18bd
00000170: 9d62 993c 6ff5 0fbd d423 253c 7c8f 583d
00000180: 288c e3bc a0f2 d6bb 5c38 843d 5329 81bc
00000190: 0c55 7a3d fd96 573c 98b5 4abd 7ab9 91bd
000001a0: 295f 86bd 05b5 8dbc dd48 4dbd d096 043c
000001b0: 98c1 293c 4910 29bc 50c2 afbd 40b7 b7bb
000001c0: fe7c f8bd e97b 86bc 59fa e0bd 2774 69bd
000001d0: f466 953d cbd0 25bd a03c f33c 68ee e2bc
000001e0: 8330 8bbc e0bf 53bd a870 24bc cf95 91bd
000001f0: bc32 8b3d 16e5 6ebd c4e3 f3bc 0a79 fcbd
00000200: 91db dabd 604f 9dbd 37ac 97bc 4e54 aebd
00000210: f7f1 803b 8b7e 08bc 35e8 463a 90a0 c8bd
00000220: a8c1 713c d30c a2bd 98de dfbc 3d22 fdbc
00000230: 3826 51bd 4012 4dbb 5be7 863c 50e8 843b
00000240: f02f 9abd a839 d03c 82e0 963c 2068 babb
00000250: 80ca 26bb 2fcb 7e3c e53b 8ebd 3c35 953d
00000260: baed a53d 63bf c33c f2c1 b23b e8c0 f13c
00000270: acfb 943d d0d4 11bc b21f e2bd 0de2 a53c
00000280: 6897 f4bd c1ef b2bd bf1e 96bd 3802 dcbc
00000290: b3d6 a2bd 6e61 9bbd 0845 333c 80f7 123c
000002a0: 66f8 1ebd 36ae e8bc 4001 4d3b de3b 41bd
000002b0: 20a7 61bd dd25 96bd e4bc 5c3d 850f 03be
000002c0: a8ce 753d b069 923c ac8a 00bd c09e 173d
000002d0: 706c 573d 92d7 33bd 8a08 a3bd 58ce 873d
000002e0: a898 173c 33f0 f3bd c075 c0bd 185a a33c
000002f0: 3387 6fbd 7a37 9dbd 61e2 e6bb e5cb 91bc
00000300: eccc 3fbd 40cf 4a3d ade9 14bd 6225 6abd
00000310: 3cfb 443d e4ad 2b3d 776d cfbc c168 7f3c
00000320: eae7 7bbd 14b5 96bc c043 663d 0381 cdbd
00000330: c822 9a3d cf46 06be 50ab fcbc e4a1 42bd
00000340: 022a 293d edcd 21bd f4a6 af3c 01e3 b6bd
00000350: e6d9 71bd 71ce 88bd 421b 153d d01f 4a3c
00000360: a4b1 e73c aa17 283d 9155 babd b059 473c
00000370: 3d81 e7bb 1c35 b3bc 2dfb 02be 2cdb 933d
00000380: 92f1 6bbd 1223 9abd 8135 42bd 287b 253c
00000390: 09d1 0fbd 3cc6 4a3d 49da 8ebd 6037 403d
000003a0: 6aec c73c b40b b43c 7819 463d d42d b23c
000003b0: 407d 69bd 655b 2cbd 59d3 31bd ca0f b9bc
000003c0: e39e 05be 4355 29bd 64eb 8a3c dcce 883c
000003d0: 7a8a e63c 3059 1ebc 9a71 1ebd fa57 6abd
000003e0: 5807 3cbd e5c6 7f3c b895 423d b758 5ebd
000003f0: 509f 583d 1254 8ebd bcdd 8cbd 665f cebd
-0.07985117 0.02807334 0.023863614 0.022085246 -0.001362521 -0.027519569 -0.016870014 0.05419548
-0.03305627 0.028605685 -0.03991465 -0.10574054 -0.096872315 0.058278397 -0.008574821 -0.08058913
-0.066886485 -0.06023897 0.0026313588 -0.022955308 0.03789022 -0.039247155 -0.06853917 -0.065321684
-0.08033878 -0.114470735 -0.022260554 -0.04215676 0.048315868 -0.032720484 0.047948465 -0.07343554
-0.07772746 -0.04549335 0.029615283 0.024072448 -0.108626194 0.025697835 -0.009003456 0.0703782
-0.009760054 0.024071252 0.0013483614 -0.037974853 0.046272248 -0.040388122 -0.06424789 -0.0050417706
-0.13012595 -0.07478309 0.008952379 0.0046757446 0.067150965 -0.072115876 0.03212323 -0.03906245
-0.12207368 0.04330477 -0.051587507 -0.048558015 0.006743826 -0.12964174 -0.0453425 -0.0734707
-0.052973904 -0.11357612 -0.0055272356 0.051124483 -0.024830982 -0.041819684 0.02048166 0.065319166
-0.009788844 0.03706406 0.029126726 -0.027397979 0.027717276 -0.035927046 -0.06329647 -0.07317758
-0.072388865 0.031554967 -0.13135356 -0.12670232 -0.03470748 -0.035225112 -0.12793468 0.022273295
-0.114212565 -0.074348286 -0.054589517 -0.037231028 0.01872378 -0.035146173 0.010079343 0.052871212
-0.027776793 -0.006559685 0.06456062 -0.015766775 0.061116263 0.013158557 -0.049489588 -0.07115455
-0.06561119 -0.01729823 -0.050118316 0.008092597 0.010361098 -0.010318824 -0.08581984 -0.005606562
-0.12133215 -0.016416507 -0.1098525 -0.056995537 0.072950274 -0.040482324 0.029691994 -0.027701572
-0.016990906 -0.051696658 -0.010036625 -0.07108652 0.06796786 -0.058323942 -0.029771693 -0.12327774
-0.1068641 -0.07681155 -0.018514736 -0.085121736 0.0039350945 -0.008330951 0.0007587702 -0.0979625
0.014755644 -0.07912602 -0.02732782 -0.030900115 -0.05106184 -0.0031291395 0.01646774 0.004056014
-0.075286746 0.025418118 0.0184176 -0.005688682 -0.002545029 0.015551372 -0.06945018 0.07285544
0.08101983 0.023894971 0.005455249 0.02951093 0.07274565 -0.008900836 -0.11041202 0.020249391
-0.11942941 -0.08737136 -0.07330083 -0.026856527 -0.07951107 -0.075869426 0.010941751 0.008970141
-0.03881111 -0.028403383 0.0031281263 -0.047176234 -0.055091023 -0.073314406 0.053891078 -0.12798889
0.060011536 0.017872661 -0.031382248 0.03701663 0.05259365 -0.043906756 -0.07960613 0.06631154
0.009252705 -0.11911049 -0.09397459 0.019940421 -0.058478545 -0.07676597 -0.0070460294 -0.01779742
-0.046826288 0.049514055 -0.036355663 -0.057164557 0.04809116 0.041913882 -0.025320752 0.01558894
-0.061500467 -0.018396892 0.056216955 -0.10034373 0.07526165 -0.13112949 -0.030843407 -0.047517672
0.041299827 -0.039503027 0.021441914 -0.08930016 -0.059045695 -0.066800006 0.03640295 0.012336686
0.028282948 0.041038193 -0.09098352 0.012167379 -0.007064967 -0.02187591 -0.12791128 0.07219538
-0.057603426 -0.075262204 -0.047414307 0.0101001635 -0.03511146 0.049505457 -0.06975228 0.04692781
0.024404723 0.021978237 0.048364133 0.021750368 -0.057004213 -0.042079348 -0.043414447 -0.022590537
-0.13048892 -0.041341078 0.016957946 0.0167002 0.028142203 -0.009664819 -0.038682558 -0.057212807
-0.04590544 0.015611385 0.047506064 -0.054283824 0.052886307 -0.06949629 -0.0687823 -0.100767896

fc2.bias f4 [60]
00000000: 31c9 e6bd 9f6c 95bd 4055 40bb b954 f4bd
00000010: e3ff 3ebd 002c 3839 b30d c1bc 0186 813e
00000020: 7c6b 183f e0e6 b73e 57d6 54be c19d b2bd
00000030: 4f5b 183d 7375 033e ed70 20bd a2c9 87bd
00000040: 13e9 91be 1a3d 9abd 3009 873e 175f 9dbd
00000050: 4602 31be a329 253e bb6a 83bd 6fc1 143e
00000060: acce 9abc d426 a7bc c376 08be 8af2 85be
00000070: 17cf 913e 7829 61bd 3dfa 0b3e c627 81bd
00000080: 6dfd 6cbc c254 30be 9dc7 8a3e d042 5dbd
00000090: 8877 9dbe fa82 e63e 5a7c cbbd 8785 37be
000000a0: 1b2c e03d edca 50be 4196 20be 87bb 28bf
000000b0: 7a22 eabc 7a28 033f 2080 90be d6da da3e
000000c0: d0d0 dd3c 3d1d c3be 1fb1 11be e4b4 cc3d
000000d0: 4424 a4be d1ad c3be 6517 23be 3f56 5dbe
000000e0: 494a 94bd d862 efbd 3d2e 3c3f 1567 e13a
-0.11268843 -0.072961085 -0.0029347688 -0.11930222 -0.04663075 0.00017563999 -0.023566103 0.2529755
0.5953901 0.3591833 -0.20784889 -0.087214954 0.037196454 0.12837772 -0.039170194 -0.06630255
-0.28498134 -0.075311854 0.26374197 -0.076841526 -0.17286023 0.16129164 -0.064168416 0.14526914
-0.018897377 -0.020404257 -0.13326554 -0.26161605 0.2847831 -0.05497119 0.13669677 -0.06306414
-0.014464718 -0.17219833 0.27105418 -0.054018795 -0.30755258 0.45021802 -0.099358276 -0.1792203
0.109459125 -0.2038991 -0.15682317 -0.65911144 -0.028580893 0.5123364 -0.28222752 0.42745084
0.027077109 -0.38108245 -0.14227723 0.0999544 -0.32058918 -0.3821855 -0.15926893 -0.21614932
-0.07240731 -0.11688775 0.73508054 0.0017196859

out.weight f4 [9, 60]
00000000: 037b 37be c1e1 5dbd 3d2e f8bc 7419 883c
00000010: 1305 cc3d 8838 863d a071 833c b64e 393e
00000020: 1723 a13e 0d2c ac3e 9be4 20bc 8f9c 213c
00000030: de50 29bc 81a7 37bc 443b 7dbd 5647 de3d
00000040: 89f3 5d3f f35b c7bd 32f9 1fc0 2684 623d
00000050: 557d 8b3d 043e de3e 3114 5b3d 8a19 b53e
00000060: d53a 843f 5c0c 2d3d 97dd 2040 c821 4e3d
00000070: 9c96 8d3e 49e1 d33d 8f76 2f3f 00cf e13a
00000080: 2f87 fabc ff54 f53e 2a11 b9bf ebde 29bc
00000090: 7f27 06be 52f1 11c0 930e ddbc ca18 a9be
000000a0: b0e6 5a3e 5d7f 5fbe 0136 95bd 43bc 303f
000000b0: d4ca 203d 3d20 82c0 c7c1 083d 4be4 65c0
000000c0: abbf 813e 2a2f 093f 202a 37be 2bdb d4bd
000000d0: a978 c63e 5ff7 6dbe 53de c63e 4795 bebd
000000e0: 6134 9b3d 51e1 2ebc be02 17c0 6bd2 273f
000000f0: 0537 ecbc 218a 9dbc 271e a4bb 69b6 35bd
00000100: eaf1 4dbd 0ce2 dd3d 906d 6f3d 3157 a03f
00000110: 0d89 eebf 0040 8bbe fd9c 18be c174 8d3c
00000120: e6bf e6bc 9ba8 a23e 5bb6 103e 0938 bcbd
00000130: 2748 f4bf 1a1d 81bd c275 a23f 8176 e13d
00000140: 0504 e9bd 7cd8 1cc0 5d0c 9d3d 132e f9bf
00000150: 54f5 c1bd ede3 e7bd c294 173f 79b1 d83d
00000160: d600 083f 6771 30bd 1ad0 47bf fb91 a0bd
00000170: abf9 383d e6c2 91bf 1591 02bf 7d80 1d3d
00000180: 6aeb f33e a9c6 db3e d787 e63d 3a99 aabf
00000190: 5b74 6dbf 6879 203f 6ca9 40bd bc75 88be
000001a0: 5697 3d3e ca2b 28be c42d a63d 1553 3bbf
000001b0: e475 863e 293a 8b3e 418b 063e 9e2f 9f3e
000001c0: 63c8 35be d122 303e 1254 e23e b8e6 e7bd
000001d0: 8e06 2dbd 458d 29be cef3 f7bc 584d 313f
000001e0: dbbd 8e3c 984c 9ebd 1d5f 78bd de3e 473c
000001f0: 5a11 2dbc 1095 cabb c5a0 573d 5492 523f
00000200: 685e ac3e 0dc0 063f bddb 963e 7518 f3bd
00000210: bd8e b43d 3a86 e03e 19d7 393d a2ad dc3d
00000220: 9f60 f7be ff37 d1bb 7017 75be 615f 96bd
00000230: c70d 6d3c 1bbc 883e 22d7 29be 8a87 27ba
00000240: 4869 6dbf 7942 d0bd 829c 63c0 d492 e3bd
00000250: 82eb 93c0 4a5c 8c3d 403a bcbe 4023 2fbb
00000260: 2706 83bd 5c35 063e 7446 1b3e 87d2 11be
00000270: f68f 73be 8407 ae3e 8d00 7abc 6532 94be
00000280: ab0c dd3e 1411 283f 51f7 f2bd 2f1f 843e
00000290: 5e34 aebd 5ea9 e93e ae72 fb3d e0c3 40be
000002a0: 5501 06c0 87be be3e f7bc 0abd 88a4 033f
000002b0: 4377 ea3e 1add 123e 5338 08bf d931 033e
000002c0: 1367 df3c 4ecc b5bd 7f83 0d3f 5ecb a1c0
000002d0: 8a55 f1bc a78b abbc 4895 25bd 876f b73d
000002e0: a0ca c0bd a88a b2bc 94f6 43bd 1fe3 433e
000002f0: 1d52 1b3f 3590 ed3e 6e56 24bf 7bbb 14bd
00000300: 86a8 e8bc 2382 1ac0 a88a d4bb d33a 023e
00000310: 1c40 06bf 0bec f7bc 1a91 1dbe f6f6 a0bd
00000320: 79ea bcbc 08c5 023f 41ab 87bd c349 bf3e
00000330: b721 b8be e86c c1bd e5cc c93f b4e7 b93d
00000340: 586a e9be 18b8 64bd 0093 3dbf 90cc 0e3d
00000350: 62b5 b9bc 5d9a eebd ac1a c53f 9464 58bc
00000360: 79ad 12c0 d388 c7bf 200e e1bc 5bf3 80bf
00000370: caa6 b93d 0fdb b1bf c518 863d 6255 93bf
00000380: dd38 79bd e535 803e d031 b3bb 6d53 4a3f
00000390: d724 0d3e 3d5e ecbf dfe4 8dbd d7de bebf
000003a0: 2682 29bf 879f d13e 7be6 1dc0 9371 c1bd
000003b0: a8b7 d1bd 5585 553d 0d03 2bbf 6404 e8be
000003c0: 4639 23be 228c f6bd ee10 c7bd eb33 233d
000003d0: 0364 65bd 38fc f4bd b35d 1ebe 2086 49bf
000003e0: 21c6 993f f939 89c0 64b5 aebe 5f29 98bb
000003f0: 5f1f 28bd 65cb 4bbf f5a9 42ba 80a2 ff3b
-0.17918019 -0.054170374 -0.030295486 0.0166137 0.09961905 0.06553751 0.016045392 0.18096432
0.31472084 0.33627358 -0.009820129 0.009863987 -0.010334222 -0.01120937 -0.0618241 0.1085345
0.8669973 -0.09734335 -2.4995847 0.055301808 0.068110146 0.4340669 0.053486053 0.35371047
1.0330454 0.042248115 2.5135248 0.050325185 0.27653968 0.10345704 0.6854028 0.0017227829
-0.030582039 0.4791641 -1.4458363 -0.010368089 -0.13101004 -2.280354 -0.026984489 -0.33026725
0.21377063 -0.21825929 -0.07285691 0.69037265 0.039255932 -4.0664353 0.033387925 -3.592059
0.25341544 0.5358759 -0.17887163 -0.103933655 0.3876393 -0.23238896 0.38841495 -0.09305816
0.0757835 -0.010673837 -2.3595424 0.6555545 -0.02883483 -0.019230904 -0.0050084773 -0.044363413
-0.050279535 0.10834131 0.058454096 1.2526609 -1.8635575 -0.27197266 -0.14903636 0.017267587
-0.028167676 0.3176926 0.14132063 -0.09190375 -1.9084519 -0.06304379 1.2692187 0.11008931
-0.1137772 -2.4507132 0.07668374 -1.9467186 -0.09470621 -0.1132277 0.5921136 0.10580725
0.53126276 -0.0430769 -0.7805191 -0.078403436 0.045159977 -1.1387603 -0.5100263 0.038452614
0.47640544 0.42925003 0.11256378 -1.3328011 -0.9275567 0.6268525 -0.047036573 -0.26652324
0.18514761 -0.16422954 0.08114198 -0.7317365 0.26261818 0.2719281 0.13139059 0.31091017
-0.17752223 0.17200781 0.44204766 -0.11323303 -0.04224258 -0.16557796 -0.030267622 0.6925864
0.017424515 -0.07729453 -0.060637582 0.012160985 -0.010563219 -0.0061823204 0.052643556 0.8225453
0.33665776 0.52636796 0.29464522 -0.11869899 0.08816288 0.43852407 0.04537115 0.10775305
-0.48315904 -0.006384849 -0.23934722 -0.07342411 0.014468617 0.26706013 -0.16585973 -0.00063907413
-0.9273877 -0.10168929 -3.5564275 -0.111119896 -4.6224985 0.0685354 -0.3676319 -0.0026723891
-0.06397658 0.13106292 0.15163594 -0.14240466 -0.23785385 0.3399011 -0.01525892 -0.28944698
0.43173727 0.6565106 -0.11863578 0.2580504 -0.08506082 0.4563703 0.12277733 -0.1882472
-2.0938313 0.37254736 -0.033871617 0.5142293 0.45794114 0.14342156 -0.53210944 0.12811984
0.02727083 -0.08876859 0.5527877 -5.056075 -0.029459734 -0.020940615 -0.04042557 0.08956819
-0.09413648 -0.021794632 -0.047842577 0.19129609 0.6067217 0.46399084 -0.6419438 -0.036311608
-0.02840067 -2.414193 -0.0064862557 0.12717752 -0.52441573 -0.030263921 -0.15387383 -0.07859604
-0.023061024 0.51081896 -0.06624461 0.37360963 -0.35963222 -0.094446 1.5765654 0.09077397
-0.45588946 -0.055839628 -0.7405243 0.034863055 -0.022669498 -0.11650536 1.5398765 -0.013207573
-2.291838 -1.558863 -0.027472556 -1.0074266 0.090650156 -1.3894976 0.06547693 -1.1510432
-0.060845245 0.25041118 -0.0054685846 0.7903355 0.13783585 -1.8466259 -0.06928419 -1.4911755
-0.66214216 0.40942022 -2.4671924 -0.09445491 -0.10240108 0.05212911 -0.6680153 -0.4531585
-0.15939817 -0.12038447 -0.09720026 0.039844435 -0.05600358 -0.119621694 -0.15465431 -0.78720284
1.2013589 -4.2883267 -0.34122765 -0.0046436037 -0.041045543 -0.7960723 -0.0007425838 0.007801354

out.bias f4 [9]
00000000: 9457 dbbe 3121 aebe b775 783e 18fc d23e
00000010: 1a9c 443f 33be 29be c492 1ebf 1b40 ff3e
00000020: bba2 0f3c
-0.42840254 -0.34009698 0.24263655 0.41207957 0.7680069 -0.16576461 -0.61942697 0.49853596
0.008766825
