Machine_Learning/Final/MLPW9.pt (torch, 166935 bytes, 6 tensors)

fc1.weight f4 [150, 210]
000000 27 29 ca bf 0b 80 9e bd 1e 72 55 bf 99 70 bc bf
       -1.5793809 -0.07739266 -0.83377254 -1.4721862
000010 0f b5 cf bf 36 98 7c bf 90 39 18 c0 89 06 60 c0
       -1.622713 -0.98669755 -2.3785133 -3.5003989
000020 fb f5 5f c0 fd 6c 78 c0 d9 11 82 c0 af 14 3d c0
       -3.4993885 -3.881652 -4.0646787 -2.9543874
000030 63 d5 15 c0 27 32 6c c0 ce bb 58 c0 9d 09 8b c0
       -2.341149 -3.690561 -3.3864627 -4.3449235
000040 5b 07 aa c0 ea 15 c3 c0 bc 1a af c0 45 12 a7 c0
       -5.313398 -6.096425 -5.4720135 -5.22098
000050 54 87 ae c0 a2 bf aa c0 32 1c 79 c0 51 92 16 c0
       -5.4540195 -5.3358927 -3.892346 -2.3526804
000060 e0 2b 24 c0 48 c0 26 c0 95 54 02 c0 cb ac b5 bf
       -2.565178 -2.605486 -2.0364125 -1.4193357
000070 a0 21 cc bf 22 81 0d c0 bc 86 d2 3f 86 97 16 3f
       -1.5947762 -2.2110066 1.6447368 0.58824956
000080 74 b9 db 3f 33 90 18 40 14 2f 19 40 d3 d8 34 40
       1.7165971 2.3838012 2.3934984 2.825734
000090 41 34 78 3f df a7 3b bf 68 7e 46 3f 69 3e 4b 3f
       0.96954733 -0.73303026 0.7753663 0.79392105
0000a0 d7 8c 96 3d 38 dc 8c bf 56 5d e4 c0 4b ad 01 c1
       0.07351082 -1.1004705 -7.1363935 -8.104808
0000b0 2e 89 03 c1 ca a5 fb c0 19 e2 18 c1 7e b8 09 c1
       -8.220991 -7.863988 -9.5552 -8.607542
0000c0 ea 5a ef c0 6c b2 bc c0 57 4d aa c0 0a 4d d6 c0
       -7.479848 -5.89678 -5.321941 -6.696904
0000d0 20 57 fb c0 f2 8c 02 c1 19 87 04 c1 af f7 ed c0
       -7.8543854 -8.15941 -8.282983 -7.436485
0000e0 80 e8 a5 c0 ec 8d a9 c0 1d 55 b7 c0 6d 34 c7 c0
       -5.1846313 -5.2985744 -5.72914 -6.2251496
0000f0 e9 83 00 c1 8a 8f ff c0 c5 11 0f c1 32 4e 0a c1
       -8.032205 -7.986272 -8.941838 -8.644091
000100 7c 05 10 c1 f3 eb fc c0 67 18 ae c0 f8 11 88 c0
       -9.001339 -7.9038024 -5.440479 -4.2521935
000110 3a b3 9d c0 b9 e0 aa c0 50 06 e3 c0 95 22 06 c1
       -4.9281282 -5.339932 -7.0945206 -8.383443
000120 e3 c3 37 40 cc ca a5 3f 8a a0 67 be e0 d8 3a bf
       2.871331 1.2952514 -0.22619835 -0.72987175
000130 bf 26 82 be b0 4d 8f be ba ad 69 3f d4 7a eb 3f
       -0.25420186 -0.27988958 0.9128071 1.8396859
000140 6d a5 46 40 31 4f 37 40 be 18 2e 40 0b 89 2c 40
       3.1038468 2.8642085 2.7202601 2.6958644
000150 ce 15 98 40 02 bd 57 40 74 1a 46 40 54 7f 6e 40
       4.7526617 3.3709111 3.0953646 3.7265215
000160 c7 5d ad 40 39 0b 86 40 61 ac 85 40 9b 61 7e 40
       5.4176974 4.18887 4.1772923 3.9747074
000170 69 09 82 40 9b c5 1c 40 fc 14 08 3f 91 82 e8 3e
       4.0636487 2.4495609 0.5315702 0.45412114
000180 8d e6 74 bd 8c 9e 00 c0 a6 af b9 be df a7 1f bf
       -0.059790183 -2.009677 -0.36266822 -0.62365526
000190 db fe df bf 7d 76 a7 bf f1 f4 d2 bf 0b fd 12 3f
       -1.7499651 -1.3083035 -1.6481 0.5741736
0001a0 f9 ca 74 3f 06 31 f1 3f 04 2b 9b 3f 26 fe c8 3f
       0.9562221 1.8843086 1.2122502 1.570256
0001b0 80 80 89 3f e5 8b 60 3f 81 6a 80 3f 2c 96 bf 3f
       1.074234 0.8771346 1.0032502 1.4967704
0001c0 84 cd 10 bc ab c6 b1 bf c7 01 cc 3f 6c 39 fe 3f
       -0.008838061 -1.3888754 1.5938042 1.9861274
0001d0 86 bc 5d 40 13 6a 67 40 47 34 6f 40 1f 77 53 40
       3.4646316 3.6158493 3.7375658 3.3041456
0001e0 c2 63 d8 3f 69 ed 71 be 81 5f b0 bf 9e 8b d8 bf
       1.6905444 -0.23625721 -1.3779145 -1.6917608
0001f0 88 68 50 c0 a0 07 a0 c0 3e 26 15 40 f7 77 b2 be
       -3.25638 -5.000931 2.330459 -0.3485715
000200 5e 22 c9 3d 87 45 21 3f a6 74 b7 3f 08 c6 0f 3f
       0.09821008 0.62996715 1.4332473 0.56161547
000210 48 bd b5 3f 6c a1 b0 3f a0 c2 45 3f 5f f5 97 be
       1.4198389 1.3799262 0.772501 -0.2967939
000220 0b 53 71 3f 55 e4 64 3f 42 0e 32 bf 75 00 82 3e
       0.9426734 0.8941091 -0.69553006 0.25390974
000230 08 97 4d 3f 87 42 6c 40 08 49 6f 40 80 30 72 40
       0.8030858 3.6915605 3.7388325 3.7842102
000240 21 d5 4c 40 67 c4 34 40 01 db 16 40 9b 9e 37 40
       3.2005084 2.8244874 2.357117 2.8690555
000250 ac 6d 0e 40 fd 5f da 3e 65 6f c8 3e 69 90 cc 3e
       2.2254438 0.42651358 0.39147487 0.39953926
000260 a4 73 bf bd 48 dc 40 bf 77 39 ea be dc 5b 90 3f
       -0.093482286 -0.7533612 -0.45746967 1.1278033
000270 f8 b2 4f c0 a7 38 bb bf 14 26 28 c0 3b fe fa bf
       -3.2452984 -1.4626664 -2.627324 -1.9608835
000280 a0 ab 64 bf 65 75 c2 bf b8 49 d2 be a7 20 82 bf
       -0.8932438 -1.5192076 -0.41071868 -1.0166215
000290 be 6b bd bf 53 3f b3 bf ed 33 32 bf 67 77 a7 3f
       -1.4798505 -1.40037 -0.6961048 1.3083314
0002a0 33 af 47 c0 6d e6 32 c0 c7 54 20 c0 2c 77 36 c0
       -3.1200683 -2.795314 -2.5051744 -2.8510237
0002b0 dc c1 3c c0 4c 6b 08 c0 cc fc e4 bf a9 f5 57 bf
       -2.9493322 -2.131549 -1.7889647 -0.8435922
0002c0 c5 84 df be 11 de 0b bf e4 97 62 bf 29 97 80 bf
       -0.43655983 -0.5463572 -0.88513017 -1.004613
0002d0 8e b8 92 bf 49 e0 bb bd 84 9b 2a 3f bf 73 8d 3e
       -1.1462572 -0.091736384 0.6664355 0.2762737
0002e0 f7 1a b7 bd 50 6f 86 bd f8 55 85 be df 0e 12 3e
       -0.0894069 -0.065642 -0.2604215 0.14263485
0002f0 c9 da d5 bd cb bf 77 bf 6d b4 1b bf 79 9e 2a bf
       -0.104421206 -0.9677703 -0.6082218 -0.6664806
000300 60 2c 51 3e fc ed 85 3e 8d 2d c5 3e 84 08 0d 3f
       0.20427084 0.2615813 0.38511315 0.5509112
000310 e4 a3 25 bd 5b 73 87 bf 81 c2 3f 40 49 12 11 40
       -0.0404395 -1.0582079 2.9962466 2.266741
000320 17 aa 15 40 18 68 ba 3f 34 b4 a0 3f f5 85 99 3f
       2.3385065 1.4563017 1.2554994 1.1994005
000330 d1 50 b1 3f ee a1 5a 3f a2 2e 26 3f 69 e3 79 3f
       1.3852788 0.85403335 0.64914906 0.97612625
000340 c3 7c 6b 3f 9c b0 82 3f c4 bc 2e bd ac db 21 bc
       0.91987246 1.0210147 -0.04266049 -0.009879034
000350 9a b6 0c 3d 20 58 70 bb 89 c8 4d bd 08 a5 78 3c
       0.03435383 -0.003667362 -0.050240073 0.015176065
000360 04 ce 51 bd 2e af 78 3d c0 f3 df 3c 80 bc c3 3b
       -0.051221862 0.06071394 0.027337909 0.0059733987
000370 dd 11 5d bd 07 17 89 3d 40 c1 88 bd 20 94 3c bb
       -0.053972114 0.06693845 -0.066774845 -0.0028774813
000380 10 cd 68 bd 43 c7 69 bd 54 f6 90 3c 8a fb 3e 3d
       -0.056836188 -0.057074796 0.017695583 0.046626605
000390 50 93 ca 3c 7d 60 85 3d 60 38 b6 bb 5e 31 4d bd
       0.024728447 0.06512544 -0.0055609196 -0.05009591
0003a0 1c 00 82 3c 20 ad c4 bb 60 7d 18 3c c0 7d d2 bb
       0.015869193 -0.0060020834 0.0093072355 -0.006423682
0003b0 08 86 7f bd f4 a3 c9 bc 05 7d 85 3d 2e a6 24 3d
       -0.06238368 -0.024614312 0.06517986 0.040197544
0003c0 86 38 6b 3d 64 d9 98 3c 22 b5 70 3d 68 a9 4d 3c
       0.05742695 0.018658347 0.05876649 0.012552597
0003d0 b0 51 e6 3b 08 58 14 bc ec aa e8 bc 34 83 22 3d
       0.007028781 -0.009054191 -0.028401814 0.039675906
0003e0 9c c2 41 bd e4 96 9c bc 30 fd 09 3d 10 19 c0 bb
       -0.047304735 -0.019114919 0.033688724 -0.0058623627
0003f0 ed 85 2d bd c4 75 48 bc f0 cd e6 3c aa 78 c1 bc
       -0.04236405 -0.012235109 0.02817437 -0.023617107

fc1.bias f4 [150]
000000 39 26 7b be de cd 8a bd 62 b7 f5 bd 9c 1e 22 be
       -0.245263 -0.06777547 -0.11997868 -0.15831989
000010 ec ca 04 3e c7 70 8a bd ed ff 4d be 9f 2b 25 be
       0.12968034 -0.06759792 -0.20117159 -0.16129921
000020 1d f4 82 bd b7 0c 62 bd 37 85 f6 be ba 13 33 be
       -0.06394217 -0.055187907 -0.4814851 -0.17487994
000030 83 6f 0e bd 33 bb b2 3e 1a ac eb bc 4a d7 6a bf
       -0.034774315 0.34908447 -0.028768588 -0.91734755
000040 c0 64 42 3d 94 aa ac bc e0 96 68 be 49 ea 3e be
       0.047459364 -0.021077432 -0.22713804 -0.1864406
000050 94 62 e4 bc d2 0d 39 bf c4 94 80 bd b4 6f 98 be
       -0.027879037 -0.72286713 -0.06278375 -0.29772723
000060 75 2c b7 be a5 33 2c 3f 5b d8 dd bc 79 09 ea be
       -0.35776106 0.67266303 -0.027080705 -0.45710352
000070 b2 85 73 bd 9c 21 94 bc 40 b2 0c bd 28 6d 1a bd
       -0.059453674 -0.018082432 -0.03434968 -0.037701756
000080 40 a7 22 bc 58 45 80 bd 31 5b 52 bd 1e e4 24 bf
       -0.009927571 -0.06263226 -0.0513565 -0.6441058
000090 20 94 77 bd 48 3b 58 bd 16 a0 56 be e7 82 0a bf
       -0.060443997 -0.05279091 -0.20959505 -0.5410599
0000a0 da 5d 83 bd d6 28 6c be dd 1a ab be e4 a5 92 be
       -0.06414385 -0.23062453 -0.33418933 -0.2864219
0000b0 62 17 2c bd 09 dd 4a bd 28 1e 57 3e 3a fb c0 bc
       -0.042014487 -0.0495272 0.21007597 -0.023557294
0000c0 14 0a 24 bd 11 e2 65 bd 4a 2c 61 bd fc e0 1c bc
       -0.040048674 -0.056123797 -0.054973878 -0.009575125
0000d0 9a dd a2 be df 26 ea be b6 90 38 bf 27 d3 03 be
       -0.31809694 -0.4573278 -0.7209581 -0.12873517
0000e0 f3 5b 9f be 1d d6 76 be a3 f6 fb bc f0 16 67 bd
       -0.3112484 -0.24105115 -0.030757254 -0.05641836
0000f0 18 a2 2e bd 60 fb b6 bc 0a 1b 58 be 82 1c 6e bd
       -0.042635053 -0.022336662 -0.21104065 -0.058132656
000100 d6 17 bf bc 3e 57 34 bd ba ca 74 bd 27 94 15 bf
       -0.023326796 -0.044028513 -0.059763648 -0.5842919
000110 99 b3 ea 3d fb ed 6e 3e 17 43 8a be 6c 58 bf bc
       0.11460037 0.2333297 -0.2700431 -0.023357593
000120 45 87 10 bd b6 81 46 bd 15 35 17 bd 80 4e 86 bc
       -0.035285253 -0.048463546 -0.036915857 -0.016394854
000130 81 2b 7e bd f3 52 53 bd fc 63 fd 3d 24 f1 61 bd
       -0.062053207 -0.05159278 0.12372586 -0.05516161
000140 15 2e dd be a8 44 b0 be 76 c1 56 bd 43 98 51 bd
       -0.4319922 -0.3442738 -0.052430592 -0.0511706
000150 00 84 75 bc 8a 36 6a bd 04 05 89 bd b4 20 8e bc
       -0.0149850845 -0.05718092 -0.0669041 -0.017349578
000160 9c ff 7f bd e3 fb a7 be 22 05 ba bc 79 e6 22 be
       -0.062499627 -0.32809362 -0.022707526 -0.15908231
000170 3d 7c a9 3a 58 a3 2a bf 28 8d c7 bc ae a3 68 3e
       0.0012930703 -0.6665549 -0.0243593 0.22718689
000180 5b d9 66 bd 21 41 7b bd ff 5e 28 3b 69 1b 74 bd
       -0.05635963 -0.06134141 0.0025691388 -0.059596453
000190 b1 5a 89 bd 85 c0 b1 bd 6c 83 f1 be b7 3e 5c bd
       -0.06706751 -0.08679298 -0.4717058 -0.053770747
0001a0 b9 f7 4b be 3e 9d 08 3d 64 c5 89 bc 50 b8 8c bd
       -0.19918717 0.033353083 -0.016817756 -0.06871092
0001b0 ee 5f 1c bd e0 d4 42 bc 9d 13 82 bd 1b 2f 10 bf
       -0.038177423 -0.011891574 -0.06351397 -0.5632188
0001c0 f1 b6 a5 be e2 04 9a bc ef 56 e7 bd e0 34 05 bd
       -0.32366136 -0.018801156 -0.11295878 -0.03252113
0001d0 01 b3 18 bd 09 54 c2 bc 63 51 18 bd ce c1 df bc
       -0.037280086 -0.023721712 -0.03718699 -0.027314093
0001e0 97 a6 e3 be 19 45 3d be c8 c4 48 be bc a3 a0 bd
       -0.44463035 -0.1848339 -0.19606316 -0.0784373
0001f0 79 03 65 bd 0c cd 52 be e1 32 70 bd 9c e1 2e be
       -0.055911515 -0.20586032 -0.058642272 -0.1707825
000200 51 0b 89 bd 43 5d 50 be ac 9a 5e bd 5a a6 66 be
       -0.066916116 -0.20348077 -0.054346725 -0.22524396
000210 dc ac 78 bc 0a f9 b8 bc 71 57 6c bd d0 08 d0 bc
       -0.015177932 -0.022579689 -0.057700578 -0.025394827
000220 c4 a6 ed be c7 d9 b3 be 60 1d bd be 63 ba 3c bd
       -0.46416295 -0.35127088 -0.36936474 -0.04607619
000230 24 ab 56 bd fe 0b d3 bc 36 3e 88 bd c9 63 32 bf
       -0.052409306 -0.025762554 -0.06652491 -0.6968351
000240 43 1e 66 bd c9 99 8c be 82 28 87 bd 12 27 e7 bc
       -0.056181204 -0.2746108 -0.06599523 -0.028216872
000250 ca 12 0d bd dc 5c 33 bc
       -0.034441747 -0.010947432

fc2.weight f4 [60, 150]
000000 1d c6 6b 3f c0 c3 1c 3d ec ae 59 3f bd 73 52 c0
       0.9209917 0.03827262 0.85032535 -3.288314
000010 4d 15 70 bf e0 07 7b 3d 6e 6e 1c 40 52 99 ef be
       -0.937825 0.061286807 2.44424 -0.46796662
000020 3d 8e e7 3c 08 a6 ef 3c f9 ff 33 bd 03 08 46 3e
       0.028266067 0.029253975 -0.043945286 0.19338994
000030 ae fb 93 3d 91 dd a5 3f 18 1a 72 bd 2e c5 76 3f
       0.072257385 1.2958242 -0.059106916 0.9639462
000040 d4 b0 1a 3f ec 60 9b 3c 87 4f 49 40 5e f0 b4 bf
       0.6042607 0.018967114 3.145479 -1.4135854
000050 e2 02 9a 3d 57 74 57 bf ce 0c d3 bc 4c ca ba 3f
       0.07520081 -0.84161896 -0.025762942 1.4592986
000060 4b bf 4c 3e 2f 52 3c 3f 0e ae 8a be 19 aa 31 be
       0.19994847 0.735629 -0.27085918 -0.17350043
000070 da 7d b3 3d 0d 8d 3b 40 7e 18 1f 3d f2 af 9b 3d
       0.08764239 2.930484 0.038841717 0.07601918
000080 06 50 9d 3d 64 11 34 3d f3 59 55 40 74 db 8e 3e
       0.07681279 0.043961897 3.333615 0.27901804
000090 f4 08 c5 3c d3 25 29 bd 7e 8d a9 3f 69 4b 60 bf
       0.02405212 -0.041295838 1.3246305 -0.87615067
0000a0 88 58 ea 3c 6a d0 67 3f ca 08 48 bf e5 8d 3d 40
       0.028606668 0.9055239 -0.7813841 2.9617856
0000b0 48 8a 17 bc f0 d7 23 3d a1 e6 22 40 15 03 20 bd
       -0.009249277 0.040000856 2.5453265 -0.03906544
0000c0 8f 23 62 bd 29 6b 9a 3d 72 c5 4d bb 4a f0 88 bd
       -0.055209693 0.075399704 -0.0031398204 -0.066864565
0000d0 68 bb 52 40 90 94 58 3f 42 44 1c bd 4e a9 7a be
       3.2926884 0.8460169 -0.038151033 -0.24478647
0000e0 6b dc 6a 3e 7e 0a a9 40 b1 e2 b1 be e2 2c 8a bd
       0.22935645 5.282531 -0.34743264 -0.06746842
0000f0 fb a4 84 bd ac d9 9b bc 9e 36 33 be 71 21 cc 3d
       -0.0647678 -0.019024692 -0.17501304 0.09967316
000100 52 2e a0 3d 20 96 a3 bd c1 09 45 bc 13 53 4b bf
       0.07821335 -0.079876184 -0.012026251 -0.79423636
000110 07 9f 13 c0 99 35 07 3f 19 09 0f 40 28 47 03 bc
       -2.3065813 0.5281616 2.2349303 -0.00801257
000120 60 11 0f 3b a4 88 dc bc 06 a9 1e 3d 20 9a 25 bb
       0.0021830425 -0.026920624 0.038735412 -0.0025268868
000130 34 e1 f6 bc b7 58 25 3d 2b 25 a6 bf dc 99 90 3c
       -0.030136682 0.04036781 -1.2980093 0.01765149
000140 a8 6e 97 3f 26 8e 0c c0 9c a4 31 3d 61 8a 20 bd
       1.1830645 -2.196176 0.043369874 -0.03919447
000150 9a e9 8c bd da 03 ac 3d 11 26 90 bc 60 58 f7 bc
       -0.068804935 0.08399172 -0.017596276 -0.030193508
000160 e4 b7 4c 3d 88 3e 51 3f e3 81 91 bd bc 10 96 3c
       0.04998006 0.8173604 -0.07104852 0.018318526
000170 4f 14 88 40 fc 9b 45 bf d5 c3 a2 bd 8b 64 d2 be
       4.252479 -0.7719114 -0.07947508 -0.41092333
000180 3d 0e f3 bd 36 a0 71 3c 96 31 9e be e0 0d 2a 3d
       -0.1186795 0.01474767 -0.30897206 0.04151714
000190 7c 8f 2e 3d 76 bb ab 40 89 6a e7 bf 89 de 36 3f
       0.042617306 5.3666334 -1.8079387 0.7143331
0001a0 65 07 9f bf f1 ad c1 bf 2a 2d 73 bd 16 cb 0a 3d
       -1.2424132 -1.5131208 -0.059369244 0.033885084
0001b0 d6 ec b3 bc d0 08 44 3d 24 4f 83 3c 82 f6 7d bf
       -0.021963518 0.047859967 0.016028948 -0.99204266
0001c0 21 ac 94 be 98 15 77 bc 5f 90 74 40 72 12 9a bd
       -0.29037574 -0.015080832 3.8213117 -0.075230494
0001d0 a2 7e 26 bd 77 91 90 bd 40 0b 74 3b 54 ff 23 bd
       -0.04064811 -0.07058995 0.003723815 -0.04003842
0001e0 7d d0 8b be 67 80 61 c0 1a 3e f1 3e 85 f4 18 be
       -0.273075 -3.523462 0.47117692 -0.14937027
0001f0 77 72 d6 3f 2c 22 43 40 8d d4 4a b9 54 ff a4 3f
       1.6753682 3.0489607 -0.00019343403 1.289042
000200 20 ba 83 3c 6c 1d 31 40 86 a2 de 3d c2 14 ff 3f
       0.016079962 2.7674208 0.10870843 1.992821
000210 b4 dc 8b bc 96 7a 8a 3d 7f ca c3 3d 2a 0d 0d bd
       -0.017073013 0.06761663 0.095601074 -0.034436382
000220 51 65 47 3f 18 b7 72 3f a8 f0 da be b8 6d 08 3e
       0.7788897 0.9481063 -0.4276173 0.13323104
000230 00 6a f2 b9 ec 2e 2e bd 7c 4a 35 3d 8d 1e d8 3e
       -0.00046236813 -0.042525217 0.044260487 0.42210808
000240 c5 22 27 3d 5c 28 d9 be 30 98 97 bb 14 d3 14 bd
       0.040804643 -0.42413604 -0.0046262965 -0.036334112
000250 63 f6 1b bd f4 98 95 bc 7b 3c 4d 3c ae f4 53 bd
       -0.03807677 -0.01826141 0.012526627 -0.051747017
000260 c2 da c7 bd 0f d8 6d bd 4e c8 b5 bd 9f 5b 98 bd
       -0.097585216 -0.058067378 -0.08876096 -0.0743935
000270 b8 9a 03 bd d3 f6 cb bd 1c 0a f0 3c c0 27 58 bd
       -0.032129973 -0.09959187 0.029301696 -0.052772284
000280 14 a2 1a 3d d9 a0 63 bd d3 ec 0d bd 63 5d 95 bd
       0.037752226 -0.05557332 -0.03464968 -0.07293203
000290 ae 06 85 3d 77 75 56 3c 6c 58 67 bd 38 90 79 3c
       0.06495415 0.013089529 -0.05648081 0.015232138
0002a0 06 fb 97 3c a3 ee bd 3c 10 0f 8e 3d 8f d0 e1 bc
       0.018552314 0.02318508 0.06936467 -0.027565269
0002b0 68 13 69 bd 40 86 fd bd a2 54 bb bd 9d 11 c6 bc
       -0.056903273 -0.12379122 -0.09147002 -0.02417832
0002c0 3a c3 ae bc ef 5e 03 be b8 c7 5c 3c e4 a5 74 3d
       -0.021333326 -0.12829183 0.013475351 0.059728518
0002d0 14 e6 d5 3c e0 4e 29 3b 14 67 8a bd 50 a6 77 bc
       0.026110686 0.0025834367 -0.06757942 -0.015115336
0002e0 e5 a1 40 bc e8 3b a8 bd c8 df c4 bc 96 42 01 bd
       -0.011757349 -0.08214551 -0.024032488 -0.031557642
0002f0 4c a0 f1 3c a2 dc d5 3c d4 a7 56 3d 1f 36 93 bb
       0.02949538 0.026106182 0.052406147 -0.0044925357
000300 7a 3d a0 bd c1 4c c4 bc 18 7a 3a 3d e4 94 8b 3c
       -0.07824226 -0.02396238 0.045526594 0.01703877
000310 15 00 f9 bd 20 60 81 3c b4 95 8e 3c ec 04 48 3d
       -0.12158219 0.015792906 0.017405368 0.04883282
000320 66 6a a9 bc 00 97 06 3b bc f5 48 bd c3 13 c8 bc
       -0.020680618 0.002053678 -0.049062476 -0.024423486
000330 80 dc ad 3d 6b 57 28 3d cc 1f ae 3c de 2b 5f bc
       0.08489323 0.041098993 0.021255396 -0.013621299
000340 2e 5e ca 3c 06 bc f5 bc 7c 6a 3e 3d 50 b6 ad 3b
       0.024703111 -0.029996883 0.04648827 0.0053012744
000350 55 cf bf 3a c2 c1 13 bd 4f f5 91 bd 5a b0 86 bd
       0.0014633933 -0.036073454 -0.07126867 -0.06576605
000360 80 61 bb 3c 95 37 da bd 6a 13 19 3d 7a cb eb bc
       0.02287364 -0.10655133 0.03737203 -0.028783549
000370 2b fd 30 bd 66 31 96 3d e0 39 9f bd d0 0a 92 3d
       -0.04321019 0.07333641 -0.07774711 0.071309686
000380 10 cd 0f 3d 2c fe 5e 3d 58 18 da 3c 9a 64 b4 bc
       0.035107672 0.054441616 0.026622936 -0.022020627
000390 e7 02 54 bd 90 4b df bb 5e b1 c7 3c 36 28 a3 bd
       -0.05176058 -0.0068144277 0.024376567 -0.07966654
0003a0 d8 0b 94 bd d4 eb a0 3d 5c 79 1b 3d 8c 9e bd 3c
       -0.072288215 0.07857481 0.037957534 0.02314689
0003b0 be c0 83 bd 27 88 8f bd 7c f9 90 3d 36 f9 eb bd
       -0.06433247 -0.07008391 0.07078835 -0.115221426
0003c0 29 7d 91 bd d0 09 e3 3b f7 ed b1 bd 1b 84 c5 bd
       -0.071039505 0.00692866 -0.08687966 -0.09644338
0003d0 08 ac a9 3c ef fc da 3c 02 12 37 bd 30 74 95 3b
       0.020711914 0.026731936 -0.044694908 0.00456097
0003e0 1b 3b 26 3c 40 fb d2 bc 24 43 ba 3c 7c 74 ed bd
       0.010145928 -0.025754571 0.022737093 -0.11594483
0003f0 cf 9b 83 bd e4 66 ee bd 29 19 10 3d e0 86 c2 bc
       -0.064262025 -0.116407186 0.035180245 -0.023745954

fc2.bias f4 [60]
000000 58 f4 1c c0 a3 69 97 bd f4 32 a4 be 6c 7b cc bc
       -2.4524136 -0.073931955 -0.32070124 -0.024961196
000010 15 12 14 be f0 96 32 bd 80 b4 80 bd cc 7d 0f bf
       -0.14460023 -0.043600976 -0.06284428 -0.56051326
000020 fd f3 bd 3f 85 ba 93 bf b4 b3 0e bc 6a 46 7a bc
       1.4840084 -1.1541296 -0.008709837 -0.015275577
000030 51 a1 33 3e 9c 80 43 bf 64 2f 85 bc d6 29 3c be
       0.17542006 -0.7636812 -0.01625795 -0.18375334
000040 6a 8f 7a be f5 84 a8 bc 72 28 0a bd 96 fc 1a bf
       -0.2446877 -0.020571211 -0.033729978 -0.60541666
000050 b0 07 18 bf ea 1b 8d 3e 1b 5f e9 be 47 fa d4 bd
       -0.5938673 0.2756036 -0.45580372 -0.10399299
000060 16 57 09 bd 06 e3 e1 bd d8 f2 c5 bf 6a af 32 bd
       -0.033530317 -0.110296294 -1.5464735 -0.04362432
000070 e9 91 ed bf b8 76 33 be f0 bf 14 be 03 34 ff bf
       -1.8560153 -0.17525756 -0.14526343 -1.9937748
000080 fe 22 d2 be 72 9b c8 bd b7 3b 20 bf d5 98 45 40
       -0.41042322 -0.09795274 -0.6259112 3.0874531
000090 8a a3 df 3e 7b c0 c0 be a8 87 32 3f d9 6d ac be
       0.43679458 -0.3764685 0.69738245 -0.33677557
0000a0 71 1c b2 3f 71 50 0d c0 41 5a 8c bd 29 00 79 bf
       1.391493 -2.2080348 -0.06853152 -0.9726587
0000b0 72 3e 9d 3f b8 12 13 bf 80 fb 14 bf 60 55 06 40
       1.2284682 -0.5745044 -0.5819626 2.0989609
0000c0 dd 9c 6e be 0f 64 9b be 78 ac a9 bd f9 b6 17 be
       -0.23302026 -0.30349776 -0.08284849 -0.14815892
0000d0 de c5 a3 bd 7f 07 6b be 3e 8d 38 c0 52 bc 2e be
       -0.079967245 -0.22952078 -2.8836207 -0.17064026
0000e0 a9 34 cc be 91 3b bb be 48 3f f7 3f f0 61 83 be
       -0.39883927 -0.36568883 1.9316187 -0.25660658

out.weight f4 [9, 60]
000000 53 07 fd 3f ee 65 a5 bd c0 de e4 3d 35 25 83 bd
       1.976786 -0.08076082 0.11175299 -0.06403581
000010 98 3b a8 3f d3 77 0c 3d 3d 6e 4f 3d 3a fa 04 3e
       1.3143187 0.03429396 0.05064224 0.12986079
000020 c4 33 71 c0 34 a9 80 3f bf 82 90 bd f7 d6 e4 3d
       -3.7687845 1.0051637 -0.07056188 0.11173814
000030 f7 b4 1e be 5f 8b 16 3e 3c f9 19 3e 0c b6 49 bc
       -0.1549872 0.14701603 0.15036482 -0.01231147
000040 f9 6a bd 3d 40 e8 2e bd 69 d5 11 3e 87 c9 02 3f
       0.09248919 -0.04270196 0.14241566 0.51088756
000050 e0 96 41 3e b7 b8 33 3f 25 be 90 bd 3a 0c ae bd
       0.1890521 0.7020373 -0.07067517 -0.08498426
000060 d7 43 d0 3d 81 a1 08 3f 79 25 2f c0 23 fa 59 bc
       0.101691894 0.53371435 -2.7366621 -0.013304266
000070 45 fb 17 3f 85 e1 cd b7 fa bd 4d 3e 37 e5 d8 c0
       0.5936778 -2.454292e-05 0.20092002 -6.7779803
000080 9e bc 89 be 74 5c a0 bd 25 94 8c bf 01 a9 99 3d
       -0.26901716 -0.07830134 -1.098271 0.07502938
000090 11 a3 ec 3e 67 c1 d5 3c 02 da 94 3f a5 a6 0b c0
       0.4621816 0.026093198 1.1629031 -2.1820462
0000a0 1b 74 90 be 0d 5d 09 c0 8e 50 49 bd 16 60 65 3f
       -0.2821358 -2.1463044 -0.04914909 0.8959974
0000b0 d6 14 f5 3e e7 e1 45 3f 0a a8 10 c0 ef f6 d6 be
       0.4786746 0.77297825 -2.2602563 -0.4198527
0000c0 ae 31 c4 3d 1c 0f 99 bc 68 d7 06 bd 43 52 4e 3d
       0.09579788 -0.018683963 -0.03292027 0.05037142
0000d0 34 71 93 bd 08 ce a8 3d 24 f0 b6 bf 6b 88 13 be
       -0.07199326 0.08242422 -1.4292035 -0.14407508
0000e0 cc f0 03 3e f0 19 fe 3d df 32 4a 3f 57 e1 86 be
       0.12884825 0.12407291 0.78983873 -0.26343796
0000f0 14 3b b6 bf 33 62 77 3d 85 d9 b8 bc e0 0c 25 be
       -1.4236779 0.060396384 -0.022564659 -0.16118193
000100 92 c7 63 3f a4 dd b9 bd 00 a8 04 3d 5a bd f0 bc
       0.88976395 -0.09075478 0.03238678 -0.029387165
000110 9c 8f 7f 3f a8 52 db 3f 41 ef f0 bd f2 3b f2 bc
       0.99828506 1.71346 -0.11764384 -0.0295696
000120 e0 8a a6 3f 0b 47 97 3f b3 bd f3 3c dd 1f 5a 3c
       1.3011131 1.1818556 0.029753542 0.013313261
000130 6c 98 4b bd ff 51 b2 bd ed 4a 6a bc 9a 46 a8 bd
       -0.049705908 -0.08707046 -0.01430009 -0.08216591
000140 d3 b1 e3 bc 06 f7 49 c0 bd 98 0d bf 98 36 52 bd
       -0.027794754 -3.155702 -0.55311185 -0.051321596
000150 82 bb 70 bd 6e e3 8a be fb 20 4a bf 60 5f c6 bd
       -0.05877257 -0.2712664 -0.78956574 -0.0968616
000160 18 78 b8 3b 1b 63 23 3d 6d f9 e8 ba e4 f4 6f 3f
       0.0056295507 0.039889436 -0.001777453 0.9373305
000170 3f 92 ed bd e7 7d d1 3c 16 3f 25 3e 83 9c c9 be
       -0.1160016 0.02557273 0.16137347 -0.3937722
000180 28 f0 7b c0 71 96 1a be 70 cb 89 c0 cd c5 8d bf
       -3.936533 -0.15096451 -4.3060837 -1.1075989
000190 c8 fb 00 c0 ea 8d 9a 3f 73 f9 80 bd 66 f0 4b 3e
       -2.0153675 1.2074559 -0.06297579 0.19915923
0001a0 b8 5c 09 c0 e4 3b ba bf 77 3b 29 bf 3e fa 70 bf
       -2.146284 -1.4549527 -0.6610636 -0.9413184
0001b0 7e 88 0e 3d ca 48 98 bd 1f 9b e0 bd 19 bc 6a bd
       0.034798138 -0.074357584 -0.10967087 -0.05730829
0001c0 2b fc 0b ba 24 24 46 3d bf f3 a3 3f 67 fc 36 40
       -0.0005340005 0.04837431 1.280876 2.8591554
0001d0 b2 4e 2b 3e 14 0e 94 bd c5 8c 2e c0 2e 5e 9d bd
       0.16729239 -0.07229248 -2.727342 -0.07683979
0001e0 da d6 c9 be c6 aa 77 bd 70 91 4c 3c f5 4f 4e bd
       -0.3942173 -0.060465597 0.012485847 -0.05036922
0001f0 60 5a 9a 3f 4f a3 9a bc 82 a5 ff 3c 42 81 cd 3c
       1.205883 -0.0188767 0.03120685 0.025086049
000200 ea 5e b7 c0 d5 83 ac c0 2a 93 60 bd 1a cf 7b 3d
       -5.730336 -5.391093 -0.054827847 0.061476804
000210 77 32 c8 c0 85 90 4f c0 83 fe 8d bc 1f af 73 bd
       -6.2561603 -3.2431958 -0.017333275 -0.05949318
000220 fe f9 bf 3d 33 4d 22 3b a8 af ea bd 75 94 c8 3e
       0.09373854 0.0024765253 -0.11459285 0.39175764
000230 27 e9 e3 be 35 f8 29 3f ef e8 66 3e da 43 2b be
       -0.4451382 0.6639436 0.22549795 -0.16725102
000240 3c 93 7d bd 56 e5 01 be 65 d8 20 bf cb e8 19 be
       -0.06190799 -0.12685141 -0.6283019 -0.1503021
000250 55 2c a7 3f 1a 2d 37 3d 53 a7 d4 bc d7 d5 a0 bf
       1.3060404 0.044720747 -0.025958693 -1.2565259
000260 c8 fa c9 3d c6 01 03 be 4e a8 69 be de 87 92 3f
       0.09862286 -0.12793645 -0.2281811 1.1447713
000270 b2 7c 67 3f 78 49 58 3a 99 28 89 3f f2 da 54 be
       0.90424645 0.0008250694 1.0715514 -0.20786646
000280 45 01 14 c0 ca 39 e5 3f a8 7d 4d 3d d3 4a c2 c0
       -2.3125775 1.7908261 0.050168663 -6.071634
000290 14 3b ba 3f 83 6a b7 be aa d8 f2 be 22 d0 d1 3f
       1.4549279 -0.3582345 -0.47430927 1.6391642
0002a0 60 ba 8a bd 90 ca a3 bd 18 9b 45 bd 10 79 89 bd
       -0.067738295 -0.0799762 -0.048243612 -0.06712544
0002b0 3b 90 d7 3c ee 9b 86 bf 08 1a 1b be 2f 8c e4 3e
       0.026313892 -1.0516336 -0.15146649 0.44638202
0002c0 d5 90 d5 3e 5b 34 f7 bd 6b ca 8c 3f 6c 5f ae 3e
       0.4171206 -0.12070533 1.0999273 0.34057176
0002d0 55 f2 33 c0 e4 b2 19 be c3 d2 3a be be ca 1a 3c
       -2.8116658 -0.15009648 -0.18244462 0.009447752
0002e0 7c 5c 57 c0 5e 27 7b bd 48 8d ab bc a4 ee 1a bf
       -3.3650198 -0.06131684 -0.020941392 -0.60520387
0002f0 db 2e ab be 25 06 10 c0 64 62 c6 3a 0c e1 1c be
       -0.33434185 -2.250375 0.0015135524 -0.15320224
000300 5c 35 4d be 37 1b 0b c0 d6 0a c3 bd 5f 20 4d bd
       -0.20039886 -2.173536 -0.09523551 -0.0500797
000310 14 f5 ac bc 92 22 83 3d 76 3f 0c be 48 aa b7 be
       -0.021112956 0.06403078 -0.13696083 -0.35872102
000320 26 72 00 be 69 25 0c 3f f3 82 06 bf 83 4d 78 3d
       -0.12543544 0.54744583 -0.5254356 0.060620796
000330 c7 74 1b 3d c0 d3 c9 3e 47 d5 b7 c0 16 89 23 3d
       0.037953164 0.39419365 -5.744785 0.039925657
000340 2d 44 86 c0 61 a0 20 3d f9 c6 dd bd 60 b0 10 c0
       -4.1958222 0.03921545 -0.10828967 -2.260765
000350 a4 7f 47 bf 5c 69 a9 3c f9 14 ab c0 2f b4 a6 3e
       -0.7792914 0.020680122 -5.34631 0.32559344
000360 f6 0c c2 3f 62 f3 16 3e 3b b7 a2 3f c3 4a e4 3f
       1.5160205 0.1474128 1.2712168 1.7835315
000370 8e 6b bc 3f a7 4d bf bf 98 b6 16 3b 52 86 84 3f
       1.4720323 -1.4945573 0.0022997018 1.0353491
000380 9a 97 b0 3f fd ac 7e 3f d8 89 df 3f 4f 06 b4 be
       1.3796265 0.9948271 1.7463942 -0.35161063
000390 24 a3 8e bd 30 23 c6 bd e3 cd 2c be 19 c8 05 bc
       -0.0696471 -0.0967468 -0.16875415 -0.008165383
0003a0 fa 3b dc bb e1 08 a7 3d 92 66 90 c0 98 3a a1 bf
       -0.006721017 0.081559904 -4.512521 -1.2596006
0003b0 d4 b6 ef be a2 20 a0 3d be 2f 0e 3d f6 a6 d3 3b
       -0.46819174 0.07818724 0.0347135 0.0064591123
0003c0 c0 c7 21 c0 cd 09 ad bd 38 46 45 3c 63 66 34 bd
       -2.5278168 -0.08449135 0.012040667 -0.044042956
0003d0 1c 67 b3 c0 85 48 41 be 25 03 82 bd f8 bb 00 bc
       -5.6063366 -0.1887532 -0.06348256 -0.007857315
0003e0 2a 4e 06 bf 00 41 14 3f 7e e2 09 be 02 5c 81 bc
       -0.5246302 0.5791168 -0.13465306 -0.015790943
0003f0 68 e6 8a 3f 7c 3c 42 3f 42 d0 1f be f8 25 19 3c
       1.0851564 0.7587354 -0.15606788 0.009347431

out.bias f4 [9]
000000 94 2e 43 bf e2 ef a7 3c d2 c6 92 3f 8c dd 41 3e
       -0.7624295 0.020500127 1.1466925 0.1893217
000010 f2 e0 e8 3f f1 65 6a bf 5f 05 20 c0 bc bb ae 3f
       1.8193648 -0.915618 -2.5003278 1.3651042
000020 44 c9 e9 be
       -0.45661366
