Machine_Learning/Exploratory Weeks/Week7/MLPW7.pt (torch, 60567 bytes, 6 tensors)

fc1.weight f4 [80, 136]
-0.092343554 -0.120213635 -0.12162013 0.23411034 -0.16343112 -0.05397455 0.59297085 -0.21960768
-0.5988301 -0.04202508 0.27495196 0.2037912 -0.11167203 -0.73682326 -0.41534352 -0.19134296
-0.37606215 0.20694663 1.5376929 -0.0034611863 0.33133793 0.21138583 0.027852334 0.121410884
0.82497764 -0.70645213 0.52703804 -0.58851 0.8202805 -0.85340303 0.6929883 -0.5962589
0.82291764 -0.70542085 0.61964285 -0.4755799 0.189296 0.032812282 -0.19177574 0.20367028
-0.45825616 0.00286098 0.47516364 -0.46658683 -0.098101296 -0.59603417 0.3989535 0.61824125
0.25066376 0.5251741 0.13163471 1.0300901 -0.03456276 0.24165632 1.603112 1.1421163
0.75794774 1.1119368 0.7811448 0.7217667 1.1040833 0.38795155 0.7531931 -0.5755643
-0.038425397 0.28091118 0.30406994 0.14091852 -0.2805162 1.2183273 0.22282727 0.19902153
0.15649068 -0.10606675 -0.3227044 1.1981071 0.0654571 0.06206134 0.32051176 0.072719485
0.5642135 0.58419156 -0.5866225 -0.38156155 -0.06080125 0.38943616 -0.5113212 0.15234734
0.96536016 0.08783071 0.15158714 0.200381 0.26411793 -0.14499475 0.24361067 0.45246896
0.06292619 0.2585992 0.19606972 -0.10719841 0.38289493 0.16106895 -0.32216537 -0.25062373
-0.06853658 0.20533067 0.7405035 0.52710575 0.48939025 -0.04788374 0.058098547 0.48374283
0.7155045 0.50660497 -0.035852786 0.15498479 0.3638776 0.25814444 0.13543135 0.56827116
0.5685245 1.4472945 0.24081498 0.40648085 0.42494524 0.26493165 0.0058399625 0.22159381
-0.10532036 0.02500955 0.30205965 0.058112174 -0.19159439 0.17991523 0.41391587 -0.028238723
0.009745462 -0.43752575 0.5775083 0.24192214 -3.6225843 0.31679308 -0.66865915 -0.33860582
0.39300418 -0.62005013 0.15152965 0.21368794 -0.25210333 0.70622617 -0.4385291 -0.34780362
-0.25600782 -1.0382044 -0.43801743 -0.5635531 0.07905444 0.441708 1.1934415 -0.1160549
-0.5485838 0.37567943 -0.30546588 0.30319256 -1.4680612 0.7268119 -0.1115018 -0.15896505
-0.8202826 0.37277517 -0.17857389 -0.14425729 0.8604143 1.2351516 1.8335836 2.0209277
2.07604 2.1743562 0.9061594 2.1395957 2.0413039 -0.15964738 -1.2207323 -1.6182941
1.193443 -0.6748414 -0.3206443 -2.2878907 1.7343942 3.038556 -3.6803448 -3.6531777
-0.55349797 -3.5924199 -0.13473494 -0.43938947 -2.9241345 1.0126611 0.47928244 0.32067204
1.3651531 1.375592 1.5851033 -0.7526793 1.2883574 -2.880916 1.3091557 1.6431408
-0.7756575 1.3821692 1.2198802 -2.8132558 2.077908 2.030661 1.1843488 1.646396
-0.39270374 -0.25361404 0.23481517 2.1395667 -0.9791796 -2.7592497 3.3953369 0.5018193
-0.2888051 0.17046648 0.45732462 1.5398197 0.52861494 1.4700515 1.0447696 0.9168736
0.69334584 1.0818721 1.9679381 2.3510177 0.75243366 1.9053205 1.4423257 0.5094108
1.831391 0.46878552 0.25851357 0.33281922 0.70551395 0.86048317 2.160912 1.0706517
-3.1458755 -0.8029341 0.45840496 -0.06928019 -0.16672093 -0.34724045 0.8387986 -0.049187347
00000000: 9e1e bdbd 9132 f6bd fa13 f9bd 9fba 6f3e
00000010: 7d5a 27be 6b14 5dbd f0cc 173f d6e0 60be
00000020: ee4c 19bf 7e22 2cbd 81c6 8c3e a4ae 503e
00000030: 4eb4 e4bd 73a0 3cbf e8a7 d4be 69ef 43be
00000040: 388b c0be d1e9 533e 1fd3 c43f 12d5 62bb
00000050: 20a5 a93e 8775 583e 942a e43c 45a6 f83d
00000060: bc31 533f 0cda 34bf f7eb 063f 97a8 16bf
00000070: e7fd 513f 9f78 5abf ae67 313f 6ca4 18bf
00000080: bbaa 523f 7696 34bf eaa0 1e3f 357f f3be
00000090: d0d6 413e 2c66 063d dc60 44be f18e 503e
000000a0: 8da0 eabe 487f 3b3b a648 f33e 78e4 eebe
000000b0: 55e9 c8bd b295 18bf a243 cc3e 0f45 1e3f
000000c0: 0057 803e cf71 063f 40cb 063e fed9 833f
000000d0: ae91 0dbd c174 773e c632 cd3f de30 923f
000000e0: dd08 423f f253 8e3f 1bf9 473f b4c5 383f
000000f0: 9a52 8d3f 96a1 c63e 43d1 403f 2f58 13bf
00000100: f363 1dbd 97d3 8f3e 0eaf 9b3e f24c 103e
00000110: d29f 8fbe 26f2 9b3f d52c 643e 4dcc 4b3e
00000120: 183f 203e 8639 d9bd 8339 a5be 935b 993f
00000130: 5f0e 863d 0834 7e3d 1e1a a43e f4ed 943d
00000140: 4c70 103f 948d 153f e42c 16bf 095c c3be
00000150: bb0a 79bd 2d64 c73e f2e5 02bf f100 1c3e
00000160: d821 773f 96e0 b33d a939 1b3e ad30 4d3e
00000170: 773a 873e 8179 14be 1375 793e 03aa e73e
00000180: 72df 803d 1d67 843e 80c6 483e d78a dbbd
00000190: ce0a c43e 42ef 243e dcf2 a4be c151 80be
000001a0: e85c 8cbd 3442 523e a391 3d3f 67f0 063f
000001b0: 5c91 fa3e be21 44bd bef8 6d3d 24ad f73e
000001c0: 4e2b 373f ddb0 013f 5fda 12bd 55b4 1e3e
000001d0: 2a4e ba3e 822b 843e 84ae 0a3e 387a 113f
000001e0: d28a 113f f240 b93f 3498 763e 421e d03e
000001f0: 6c92 d93e 1fa5 873e 285d bf3b 7de9 623e
00000200: 33b2 d7bd d4e0 cc3c 90a7 9a3e 0807 6e3d
00000210: 5231 44be b33b 383e c8ec d33e e554 e7bc
00000220: 6eab 1f3c 6003 e0be 95d7 133f 70ba 773e
00000230: 6cd8 67c0 b432 a23e 3f2d 2bbf be5d adbe
00000240: d837 c93e 9bbb 1ebf 972a 1b3e 03d1 5a3e
00000250: b013 81be 3dcb 343f e386 e0be 5113 b2be
00000260: 7513 83be e2e3 84bf d243 e0be 0445 10bf
00000270: 4be7 a13d 8d27 e23e b1c2 983f 31ae edbd
00000280: fd6f 0cbf 0e59 c03e 0666 9cbe 0e3c 9b3e
00000290: 6ee9 bbbf 5810 3a3f 0e5b e4bd bcc7 22be
000002a0: 0afe 51bf 63dc be3e 13dc 36be 2fb8 13be
000002b0: 1d44 5c3f 7319 9e3f deb2 ea3f e156 0140
000002c0: d7dd 0440 a728 0b40 10fa 673f 23ef 0840
000002d0: b9a4 0240 9a7a 23be f540 9cbf 4324 cfbf
000002e0: bdc2 983f 68c2 2cbf 7d2b a4be cd6c 12c0
000002f0: a100 de3f b477 4240 c58a 6bc0 aacd 69c0
00000300: 0bb2 0dbf 35ea 65c0 f5f7 09be a8f7 e0be
00000310: 0525 3bc0 e19e 813f 8264 f53e 202f a43e
00000320: 56bd ae3f 6613 b03f aae4 ca3f 97af 40bf
00000330: e5e8 a43f ee60 38c0 6a92 a73f 7052 d23f
00000340: 7d91 46bf ecea b03f 0925 9c3f 620c 34c0
00000350: 72fc 0440 5af6 0140 be98 973f 1bbd d23f
00000360: 7710 c9be b3d9 81be 6373 703e a9ee 0840
00000370: 84ab 7abf 8c97 30c0 334d 5940 3b77 003f
00000380: 43de 93be c48e 2e3e 7426 ea3e d018 c53f
00000390: 4f53 073f a62a bc3f 03bb 853f 3ab8 6a3f
000003a0: 1d7f 313f c97a 8a3f 65e5 fb3f 1377 1640
000003b0: 7e9f 403f 8be1 f33f 219e b83f bf68 023f
000003c0: 056b ea3f a804 f03e e45b 843e 4867 aa3e
000003d0: 909c 343f a048 5c3f 624c 0a40 1d0b 893f
000003e0: 0656 49c0 178d 4dbf 0eb4 ea3e c6e2 8dbd
000003f0: e4b8 2abe 80c9 b1be 81bb 563f ac78 49bd

fc1.bias f4 [80]
-0.30506766 -0.17457792 -0.11230228 -0.30686894 -0.5149734 0.030772047 -0.15971081 -0.38213956
-0.11391504 -0.7640584 -0.4473092 0.34253907 -0.1464645 -0.533905 -0.1301161 -0.3161895
0.12961677 0.26239905 -0.06904345 -0.34959957 0.10362097 -0.52814215 -0.6014707 -0.111411214
-0.16951951 -0.13302869 -0.075865485 -0.14581783 -0.21266319 -0.23088421 0.3012638 -0.111259036
-0.10410247 -0.36742148 -0.38772488 -0.31688544 -0.23487112 -0.3626123 -0.47829148 -0.25266358
-0.17055565 -0.21154249 -0.36322004 -0.5454219 -0.3685647 -0.016801883 0.24635181 -0.12740546
-0.3877625 -0.22230588 -0.010738926 0.19492307 -0.16524634 -0.38334954 -0.47913334 0.2789766
-0.28791392 -0.11460384 0.42797506 -0.70581436 -0.22597393 -0.4223615 -0.2921351 -0.3876192
-0.492496 0.026928633 0.2659755 -0.24619414 -0.6633682 -0.9260025 -0.5011128 -0.07720861
0.06017915 -0.049495302 -0.745363 -0.44811225 -0.23770094 0.0064789667 -0.23769914 -0.34951895
00000000: d431 9cbe 8ec4 32be bdfe e5bd ed1d 9dbe
00000010: 4cd5 03bf a915 fc3c 3b8b 23be cca7 c3be
00000020: 4a4c e9bd 5599 43bf b605 e5be 4861 af3e
00000030: cafa 15be 00ae 08bf 283d 05be 97e3 a1be
00000040: 42ba 043e 2b59 863e a766 8dbd b7fe b2be
00000050: 3b37 d43d 5334 07bf fcf9 19bf 902b e4bd
00000060: 8696 2dbe ac38 08be 5d5f 9bbd 4551 15be
00000070: 61c4 59be e96c 6cbe 403f 9a3e c7db e3bd
00000080: ad33 d5bd ab1e bcbe e083 c6be cf3e a2be
00000090: 0e82 70be 52a8 b9be 9fe2 f4be 1f5d 81be
000000a0: 24a6 2ebe 989e 58be faf7 b9be c5a0 0bbf
000000b0: 83b4 bcbe 1aa4 89bc a643 7c3e 9476 02be
000000c0: ce88 c6be 27a4 63be 52f2 2fbc ea99 473e
000000d0: 5636 29be 6446 c4be f750 f5be 05d6 8e3e
000000e0: 7469 93be 6bb5 eabd 8c1f db3e 40b0 34bf
000000f0: b665 67be c43f d8be bb92 95be 0676 c6be
00000100: 7028 fcbe 7099 dc3c f12d 883e 511a 7cbe
00000110: 80d2 29bf 800e 6dbf ee48 00bf 8c1f 9ebd
00000120: 6a7e 763d 96bb 4abd 1cd0 3ebf f86e e5be
00000130: e067 73be 834d d43b 6767 73be 26f4 b2be

fc2.weight f4 [40, 80]
0.258666 1.556624 -0.82472765 -0.21496066 0.87145925 -2.2078297 -1.6060019 0.33852142
0.05344646 0.12790264 -0.5029044 2.9520183 0.77487844 0.0144382175 -0.112864256 0.07859963
1.0260035 0.03274352 -1.6637876 0.23242615 0.9728582 0.3210331 -1.2807397 0.04701698
0.5980072 0.04667447 0.510589 0.07786253 0.92043525 -2.1201785 -2.1539743 0.22932176
2.130275 0.2317338 0.25836533 0.75838155 0.620773 0.3734643 0.49022576 -0.05574167
1.4850987 0.12523156 0.4452505 0.23553258 -1.6227708 -0.009731639 -1.2607563 -5.2996836
-0.0041720225 0.06667772 -0.13035317 -1.2529683 0.56963617 0.1455487 0.37019223 0.9084781
1.2859049 -0.3087428 0.60428554 0.29424423 0.7810675 0.15720184 -1.1429985 0.2963559
0.19513723 -0.09710958 -0.74808973 -0.6623472 -0.15578055 -1.1555698 0.27327812 -0.04783454
1.1968787 0.054863334 0.4633077 0.06843647 0.78087205 0.08882756 -0.27098194 -0.7548681
-0.13684069 0.26943862 -1.289859 -1.6187612 -0.7784255 0.30965877 -0.05248201 -0.81295735
-0.12125264 0.32759196 0.113075756 0.07489423 0.45147747 0.04649482 -0.015014816 -0.033068307
1.4656907 -1.5762107 -0.29567924 -0.16037206 -0.07340692 -0.09311835 -1.667703 -0.029799277
-0.7735997 -0.07772863 -0.15267986 -0.19108479 0.7747885 -1.2349957 -1.764652 -1.2303272
-0.51400936 0.17579113 -0.039188363 -0.0589718 -0.039832525 0.007960305 -0.06631247 -0.08071259
-0.5949003 -0.014955696 -0.03403411 -0.0003957355 -0.66928816 0.015688844 -1.3659273 -0.82468486
-0.16127722 0.031223178 0.60342604 -0.69609165 0.26999587 -0.0016575814 -0.0029272814 0.025024978
-0.04513692 -0.54608494 -0.07660259 -0.31316605 0.24027412 -0.12882277 -0.52317524 -0.13793172
-0.041358396 -0.022263683 -0.090652876 -0.74643457 0.011833002 -0.27709064 0.0035966733 -0.08116284
-0.044459004 0.028493658 -0.042458635 0.041707344 -0.020169873 -0.15547225 -0.16071779 -0.5092473
-0.047454525 0.0045166416 -0.18037711 0.25908992 -0.20835802 -0.008841824 0.0115737915 0.29373014
0.006295151 -0.20636545 -0.15221295 0.20624909 -0.0056319223 -0.038101625 -0.058490656 -0.030684737
-0.77813524 -0.34581456 -0.14342771 0.010678511 -0.14703247 0.09777831 -0.7756641 -0.008697179
-0.44342887 -0.06786996 -0.49390915 0.07564551 -0.6707228 -0.88942593 -1.1199261 -0.60581326
-0.40793863 -0.13757429 0.0389152 -0.0042095697 -0.11571722 0.06954621 -0.03273345 -0.025524758
-0.81746274 -0.21142067 -0.02803147 0.041707117 -0.27701357 -0.13186736 -1.037826 -1.0390816
-0.4761509 0.031008868 -0.33835664 -0.22285572 -0.50568223 -0.09364831 0.042020075 0.05114851
-0.17731434 -0.2872076 -0.3833976 -0.40863073 -0.25561786 -0.016937105 0.030460577 -0.07545142
0.0592281 0.08816995 -0.5759927 -0.34036314 -0.047315255 -0.3681103 -0.036743976 0.050617628
0.16273609 0.07787706 -0.46909234 0.046647746 -0.0379429 0.029286535 0.08014934 -0.7199283
-0.06286051 0.06787625 -0.74932593 -0.22728485 0.18093382 0.02765609 -0.13716543 -0.20055681
-0.08304076 -0.055783294 -0.34633318 -0.47021747 -0.22122648 -0.10767514 0.050913442 -0.15552221
00000000: df6f 843e 753f c73f 5a21 53bf a61e 5cbe
00000010: f417 5f3f 154d 0dc0 7891 cdbf ae52 ad3e
00000020: adea 5a3d e9f8 023e 58be 00bf deed 3c40
00000030: 6f5e 463f 468e 6c3c 6025 e7bd d8f8 a03d
00000040: 1554 833f 121e 063d fef6 d4bf 1f01 6e3e
00000050: 3c0d 793f 735e a43e 47ef a3bf e094 403d
00000060: 0017 193f bb2d 3f3d f6b5 023f 6476 9f3d
00000070: a5a1 6b3f 01b1 07c0 b7da 09c0 53d3 6a3e
00000080: 6d56 0840 a04b 6d3e 7648 843e 4b25 423f
00000090: fbea 1e3f b636 bf3e dffe fa3e 6151 64bd
000000a0: b717 be3f b43c 003e e0f7 e33e 742f 713e
000000b0: f4b6 cfbf 7471 1fbc 7660 a1bf 0297 a9c0
000000c0: 76b5 88bb 548e 883d 4d7b 05be 4461 a0bf
000000d0: add3 113f b80a 153e d689 bd3e 0592 683f
000000e0: 8898 a43f 8913 9ebe 75b2 1a3f 2ea7 963e
000000f0: 0af4 473f 85f9 203e c64d 92bf f6bb 973e
00000100: 0ed2 473e 63e1 c6bd cf82 3fbf 968f 29bf
00000110: f084 1fbe b6e9 93bf 1ceb 8b3e 27ee 43bd
00000120: 5233 993f 60b8 603d ab36 ed3e 6c28 8c3d
00000130: 3be7 473f 39eb b53d 25be 8abe 093f 41bf
00000140: f71f 0cbe dcf3 893e 1a1a a5bf 9133 cfbf
00000150: e546 47bf 988b 9e3e 60f7 56bd f91d 50bf
00000160: 4e53 f8bd 22ba a73e 4394 e73d 2562 993d
00000170: 0e28 e73e 5a71 3e3d b400 76bc a272 07bd
00000180: c19b bb3f 46c1 c9bf 4563 97be 9338 24be
00000190: 5e56 96bd d5b4 bebd 4b77 d5bf 9d1d f4bc
000001a0: a10a 46bf 3030 9fbd 1c58 1cbe bbab 43be
000001b0: 8a58 463f 5714 9ebf 1ee0 e1bf 5d7b 9dbf
000001c0: 1e96 03bf 9702 343e fa83 20bd 6a8c 71bd
000001d0: 6e27 23bd f06b 023c d5ce 87bd a44c a5bd
000001e0: 634b 18bf bc08 75bc 5a67 0bbd b87a cfb9
000001f0: 7856 2bbf e485 803c b5d6 aebf 8c1e 53bf
00000200: db25 25be c0c7 ff3c 217a 1a3f 1033 32bf
00000210: e63c 8a3e 3443 d9ba a2d7 3fbb 2f01 cd3c
00000220: 7ee1 38bd 39cc 0bbf d2e1 9cbd 4d57 a0be
00000230: 6b0a 763e 1eea 03be d0ee 05bf f93d 0dbe
00000240: 6c67 29bd 5462 b6bc 37a8 b9bd 5616 3fbf
00000250: 35df 413c d3de 8dbe 2ab6 6b3b b438 a6bd
00000260: a51a 36bd 886b e93c 1be9 2dbd 52d5 2a3d
00000270: 4a3b a5bc 1e34 1fbe 3493 24be 085e 02bf
00000280: ad5f 42bd 5600 943b c7b4 38be 6fa7 843e
00000290: ce5b 55be 4cdd 10bc 00a0 3d3c cc63 963e
000002a0: 8e47 ce3b 7751 53be b6dd 1bbe f632 533e
000002b0: fd8b b8bb 7310 1cbd e693 6fbd 8f5e fbbc
000002c0: df33 47bf 9b0e b1be b7de 12be ecf4 2e3c
000002d0: ae8f 16be ff3f c83d ec91 46bf 9d7e 0ebc
000002e0: 1c09 e3be 68ff 8abd a9e1 fcbe 08ec 9a3d
000002f0: 7db4 2bbf 6bb1 63bf bd59 8fbf 9416 1bbf
00000300: 55dd d0be 46e0 0cbe 8b65 1f3d 6ef0 89bb
00000310: 26fd ecbd 3e6e 8e3d 8313 06bd 4c19 d1bc
00000320: 3d45 51bf a97e 58be 41a2 e5bc 15d5 2a3d
00000330: b9d4 8dbe 3d08 07be 7bd7 84bf a000 85bf
00000340: 0dca f3be 4f06 fe3c 153d adbe 4a34 64be
00000350: 6474 01bf afca bfbd 3e1d 2c3d 1a81 513d
00000360: e491 35be e00c 93be b14c c4be 0c38 d1be
00000370: 58e0 82be afbf 8abc 7688 f93c 4686 9abd
00000380: 2a99 723d 7292 b43d 4274 13bf 1444 aebe
00000390: a4cd 41bd f478 bcbe da80 16bd 6e54 4f3d
000003a0: 4aa4 263e 027e 9f3d df2c f0be b511 3f3d
000003b0: 046a 1bbd 51ea ef3c 5625 a43d 394d 38bf
000003c0: 03bd 80bd b402 8b3d d3d3 3fbf 5cbd 68be
000003d0: b746 393e 068f e23c 1875 0cbe c45e 4dbe
000003e0: 4611 aabd 067d 64bd 9552 b1be 58c0 f0be
000003f0: 3289 62be c984 dcbd 9d8a 503d 3741 1fbe

fc2.bias f4 [40]
-1.2391741 -0.27864194 -0.8558439 -0.83253527 -0.6140478 -2.0609796 -0.3755846 -0.035733204
-0.66447866 0.071067825 2.05353 -0.33186522 -1.1847112 -1.0342648 -0.26485312 -0.23895931
-0.45726147 -2.3886762 -2.2902355 -1.1019473 -0.16688952 -0.36158258 0.36327463 0.11420569
-0.1734351 -1.3713378 -1.0790999 -2.1320207 -1.2680748 -0.1937598 -0.004070946 0.00089792424
-0.83065826 -1.6686985 -1.4798696 0.2092387 -0.050179057 -0.37392214 -3.0486221 -1.8966172
00000000: 429d 9ebf 28aa 8ebe 9618 5bbf 0821 55bf
00000010: 3d32 1dbf 17e7 03c0 a04c c0be fb5c 12bd
00000020: 461b 2abf 028c 913d 096d 0340 3dea a9be
00000030: 9ea4 97bf ca62 84bf d49a 87be c0b1 74be
00000040: 2d1e eabe 12e0 18c0 3893 12c0 9c0c 8dbf
00000050: 16e5 2abe 5a21 b9be 22ff b93e ace4 e93d
00000060: f998 31be ff87 afbf f21f 8abf 0773 08c0
00000070: 4650 a2bf f868 46be 9265 85bb ad62 6b3a
00000080: 05a6 54bf ea97 d5bf 5e6c bdbf ab42 563e
00000090: 8e88 4dbd b972 bfbe a01c 43c0 5ac4 f2bf

out.weight f4 [12, 40]
0.019430464 -0.762589 -0.04289685 -0.19556113 -2.248684 -1.7362138 -0.9196661 -0.899152
-0.5618789 -0.15517509 -1.7364552 1.2422341 -0.3971003 -1.0330154 -0.12211585 -0.11908694
0.0047511533 -1.0421906 -0.4856528 -0.23788975 -0.10387921 -0.05767521 -0.3453163 -2.8286867
-0.0106887985 0.35017928 -0.96998394 0.1631622 -2.3364894 -0.14831276 -1.0000479 -0.07506696
-0.13480446 -0.56618387 0.1809661 -0.56509477 -0.19536987 0.5817024 -0.9887278 -1.8432119
-0.48697242 -0.5915064 -0.024238681 -0.21190974 0.35809508 -0.4431874 -2.1654222 -0.95154655
-0.5713537 -1.9073808 -1.5579574 0.2939668 -0.44788975 -0.24332196 0.22670963 -0.03198412
0.24073912 0.04286024 -1.5897806 0.17221695 -0.24729495 0.2202318 -1.117861 -3.1673834
-0.05737574 0.81710225 -2.9114978 0.87062335 0.24493392 -1.2696296 0.38696706 0.05661953
-0.59712094 -0.17666964 0.66464835 -1.2262145 -0.03688576 0.16532136 -1.212715 -3.8991747
1.0176241 -0.23871744 -0.3902187 0.016031234 -0.22613586 0.86684215 -1.1444541 -2.6701045
-0.44362125 -1.2365782 -3.7721515 -0.03562952 -1.7265811 -1.1988738 0.18411024 -0.30622882
-0.50009316 0.37699157 -0.09223298 -1.45607 0.15506156 -0.16506352 -0.7818212 -2.8721704
-0.10849712 0.104202546 -1.5297438 0.35695887 0.26479813 -0.8805617 -1.2658869 -0.02560803
0.12057327 -0.5917569 -0.72854877 -1.2335839 -0.080111936 0.8119456 -0.5093562 -1.5724993
-0.76162577 -0.6571928 0.000965463 -0.2073839 0.591905 0.0076244352 0.35888892 -0.07876676
0.28603876 0.47282395 0.56422454 -0.057617635 0.43677443 -0.22911394 -1.6417841 0.11869844
-0.6381616 -0.5842122 -0.39853287 -0.05136277 0.097781196 -0.45532158 -0.6710285 0.2531241
-0.04752441 -0.8016575 -0.84021235 -0.881506 -1.5844438 0.47956952 -0.0131561905 -0.2652417
-0.08423886 0.007463691 -0.41097847 -1.3725688 -0.08271194 0.11144682 0.074793234 -0.22960915
0.27539763 -0.9889864 -0.072028115 0.30017668 0.22628589 0.021042358 -0.5279763 0.35091835
-0.2300874 -0.09416248 -0.2803551 -0.20486103 -0.23053743 0.20845635 -2.8195825 -0.1241311
0.3035565 -1.710663 0.08750228 0.5144275 -0.04996914 0.51008534 -0.50096625 0.44077456
0.0762552 -0.40857348 0.02463699 -1.1171676 -0.14765474 -0.060583737 -0.7102963 0.19549488
0.13414556 0.5209358 0.35932386 -1.1536204 -0.22389784 -1.575578 -0.64356786 -1.2905422
0.5173055 1.0912012 -0.02477181 -0.4169072 -2.6536257 0.6664966 0.99252796 -0.2002546
-0.9557913 -0.6747087 -0.20533755 -0.37460074 0.32192153 -2.6277912 -2.3084004 -0.19581914
-1.4632788 -0.41638857 0.27694416 -1.6000888 -0.043421775 0.27627027 -0.5767487 -1.7757491
0.09688396 -1.9581164 0.46281725 0.4770466 -1.2243577 -0.5039599 -0.0891753 0.1558446
-0.039415352 0.21400875 0.17368042 -1.5896325 0.09307091 -2.1611915 0.5473255 -0.036048822
-2.1401231 -0.5596388 -0.27889994 0.0067716055 -0.6102709 -0.7595037 -0.9603792 0.47972512
-1.5501796 -0.00896189 -0.5268913 -0.4318249 -3.3706794 -0.22317731 0.5845661 -0.25948262
00000000: a32c 9f3c 0839 43bf 9bb4 2fbd 2d41 48be
00000010: 70ea 0fc0 413c debf 3d6f 6bbf d32e 66bf
00000020: 4cd7 0fbf 38e6 1ebe 2a44 debf 8701 9f3f
00000030: bb50 cbbe d939 84bf e017 fabd dbe3 f3bd
00000040: 90af 9b3b 8066 85bf 7ca7 f8be 5f99 73be
00000050: a0be d4bd d73c 6cbd 4ccd b0be 3409 35c0
00000060: 1220 2fbc b34a b33e de50 78bf fe13 273e
00000070: 0b89 15c0 4ddf 17be 9201 80bf b5bc 99bd
00000080: 2e0a 0abe 6df1 10bf 2d4f 393e 0daa 10bf
00000090: 0a0f 48be 73ea 143f 441d 7dbf 5eee ebbf
000000a0: 7354 f9be f76c 17bf 3390 c6bc defe 58be
000000b0: 3d58 b73e 75e9 e2be 4796 0ac0 8e98 73bf
000000c0: 3c44 12bf 0e25 f4bf 266b c7bf d182 963e
000000d0: ce51 e5be 6429 79be 9226 683e c801 03bd
000000e0: 5184 763e 388e 2f3d ee7d cbbf a459 303e
000000f0: e33a 7dbe 7284 613e 1216 8fbf 69b6 4ac0
00000100: d302 6bbd 9d2d 513f fb55 3ac0 2ce1 5e3f
00000110: f5cf 7a3e 3983 a2bf 8c20 c63e e1e9 673d
00000120: ebdc 18bf e3e8 34be 6526 2a3f 99f4 9cbf
00000130: 8615 17bd 014a 293e 3f3a 9bbf 148c 79c0
00000140: 8241 823f 5872 74be bfca c7be ef53 833c
00000150: 2990 67be 5ee9 5d3f 797d 92bf fee2 2ac0
00000160: 5322 e3be 3248 9ebf ee6a 71c0 42f0 11bd
00000170: 9c00 ddbf b274 99bf 6587 3c3e 06ca 9cbe
00000180: 1b06 00bf 0a05 c13e a5e4 bcbd 8060 babf
00000190: 75c8 1e3e 6906 29be 6f25 48bf a4d1 37c0
000001a0: bd33 debd 2568 d53d a5ce c3bf 50c3 b63e
000001b0: 9f93 873e 7e6c 61bf 9508 a2bf eec7 d1bc
000001c0: 1eef f63d 617d 17bf 2c82 3abf 14e6 9dbf
000001d0: ba11 a4bd abdb 4f3f 2b65 02bf a847 c9bf
000001e0: e8f9 42bf ca3d 28bf 2017 7d3a 725c 54be
000001f0: 1687 173f 66d6 f93b 4ac0 b73e 7850 a1bd
00000200: ac73 923e fb15 f23e 0571 103f 7800 6cbd
00000210: e6a0 df3e d89c 6abe fb25 d2bf 2b18 f33d
00000220: 8f5e 23bf ee8e 15bf 800c ccbe c561 52bd
00000230: 8241 c83d e91f e9be 86c8 2bbf 7b99 813e
00000240: f5a8 42bd 6d39 4dbf 2818 57bf 61aa 61bf
00000250: 0ecf cabf 238a f53e 108d 57bc c3cd 87be
00000260: 6c85 acbd fa91 f43b c56b d2be 56b0 afbf
00000270: e164 a9bd 3b3e e43d 322d 993d a91e 6bbe
00000280: eb00 8d3e 362e 7dbf 7a83 93bd c2b0 993e
00000290: 7db7 673e 0661 ac3c 7429 07bf 92ab b33e
000002a0: 089c 6bbe 42d8 c0bd b48a 8fbe 17c7 51be
000002b0: 0112 6cbe 9575 553e 0a74 34c0 7238 febd
000002c0: c26b 9b3e 01f7 dabf 6534 b33d 85b1 033f
000002d0: 71ac 4cbd f494 023f 533f 00bf 34ad e13e
000002e0: b02b 9c3d 8b30 d1be 83d3 c93c 59ff 8ebf
000002f0: ce32 17be a726 78bd fad5 35bf cf2f 483e
00000300: 745d 093e 0c5c 053f 4cf9 b73e d5a9 93bf
00000310: 7a45 65be 8aac c9bf ddc0 24bf 7d30 a5bf
00000320: 226e 043f 7bac 8b3f 40ee cabc dc74 d5be
00000330: 01d5 29c0 859f 2a3f 5016 7e3f 8b0f 4dbe
00000340: bdae 74bf b6b9 2cbf 0244 52be abcb bfbe
00000350: e6d2 a43e bb2d 28c0 d5bc 13c0 d084 48be
00000360: b84c bbbf e230 d5be a0cb 8d3e b6cf ccbf
00000370: 08db 31bd 4c73 8d3e cea5 13bf bf4b e3bf
00000380: 196b c63d 8fa3 fabf 62f6 ec3e 743f f43e
00000390: c1b7 9cbf 8403 01bf 8aa1 b6bd ba95 1f3e
000003a0: fe71 21bd 1c25 5b3e 48d9 313e 1479 cbbf
000003b0: f69b be3d f650 0ac0 861d 0c3f eea7 13bd
000003c0: c7f7 08c0 7d44 0fbf f9cb 8ebe 58e4 dd3b
000003d0: b73a 1cbf d66e 42bf 69db 75bf 889e f53e
000003e0: 496c c6bf e4d4 12bc 59e2 06bf 2718 ddbe
000003f0: 36b9 57c0 9888 64be 20a6 153f e8da 84be

out.bias f4 [12]
-0.03329353 0.8082991 -0.45989668 0.061483245 0.24528879 -0.9096526 -0.6331021 -1.9241003
0.40629196 -1.3809755 0.23745649 0.65060014
00000000: cc5e 08bd b1ec 4e3f 9477 ebbe dbd5 7b3d
00000010: fc2c 7b3e fede 68bf fb12 22bf eb48 f6bf
00000020: 8005 d03e cec3 b0bf cb27 733e bb8d 263f
